{"backend": "tensorflow", "class_name": "Model", "config": {"input_layers": [["data_freq_time", 0, 0], ["data_dm_time", 0, 0]], "layers": [{"class_name": "InputLayer", "config": {"batch_input_shape": [null, 256, 256, 1], "dtype": "float32", "name": "data_freq_time", "sparse": false}, "inbound_nodes": [], "name": "data_freq_time"}, {"class_name": "InputLayer", "config": {"batch_input_shape": [null, 256, 256, 1], "dtype": "float32", "name": "data_dm_time", "sparse": false}, "inbound_nodes": [], "name": "data_dm_time"}, {"class_name": "Conv2D", "config": {"activation": "relu", "activity_regularizer": null, "bias_constraint": null, "bias_initializer": {"class_name": "Zeros", "config": {}}, "bias_regularizer": null, "data_format": "channels_last", "dilation_rate": [1, 1], "filters": 3, "kernel_constraint": null, "kernel_initializer": {"class_name": "VarianceScaling", "config": {"distribution": "uniform", "mode": "fan_avg", "scale": 1.0, "seed": null}}, "kernel_regularizer": null, "kernel_size": [2, 2], "name": "conv2d_1__0", "padding": "valid", "strides": [1, 1], "trainable": true, "use_bias": true}, "inbound_nodes": [[["data_freq_time", 0, 0, {}]]], "name": "conv2d_1__0"}, {"class_name": "Conv2D", "config": {"activation": "relu", "activity_regularizer": null, "bias_constraint": null, "bias_initializer": {"class_name": "Zeros", "config": {}}, "bias_regularizer": null, "data_format": "channels_last", "dilation_rate": [1, 1], "filters": 3, "kernel_constraint": null, "kernel_initializer": {"class_name": "VarianceScaling", "config": {"distribution": "uniform", "mode": "fan_avg", "scale": 1.0, "seed": null}}, "kernel_regularizer": null, "kernel_size": [2, 2], "name": "conv2d_2__1", "padding": "valid", "strides": [1, 1], "trainable": true, "use_bias": true}, "inbound_nodes": [[["data_dm_time", 0, 0, {}]]], "name": "conv2d_2__1"}, {"class_name": "Model", "config": {"input_layers": [["input_2", 0, 0]], "layers": [{"class_name": "InputLayer", "config": {"batch_input_shape": [null, null, null, 3], "dtype": "float32", "name": "input_2", "sparse": false}, "inbound_nodes": [], "name": "input_2"}, {"class_name": "ZeroPadding2D", "config": {"data_format": "channels_last", "name": "zero_padding2d_1", "padding": [[3, 3], [3, 3]], "trainable": [{"args": ["b1", 0, 1], "state": [3, "|", null, null, null, -1, -1, 0]}, "AA==\n"]}, "inbound_nodes": [[["input_2", 0, 0, {}]]], "name": "zero_padding2d_1"}, {"class_name": "Conv2D", "config": {"activation": "linear", "activity_regularizer": null, "bias_constraint": null, "bias_initializer": {"class_name": "Zeros", "config": {}}, "bias_regularizer": null, "data_format": "channels_last", "dilation_rate": [1, 1], "filters": 64, "kernel_constraint": null, "kernel_initializer": {"class_name": "VarianceScaling", "config": {"distribution": "uniform", "mode": "fan_avg", "scale": 1.0, "seed": null}}, "kernel_regularizer": null, "kernel_size": [7, 7], "name": "conv1/conv", "padding": "valid", "strides": [2, 2], "trainable": [{"args": ["b1", 0, 1], "state": [3, "|", null, null, null, -1, -1, 0]}, "AA==\n"], "use_bias": false}, "inbound_nodes": [[["zero_padding2d_1", 0, 0, {}]]], "name": "conv1/conv"}, {"class_name": "BatchNormalization", "config": {"axis": 3, "beta_constraint": null, "beta_initializer": {"class_name": "Zeros", "config": {}}, "beta_regularizer": null, "center": true, "epsilon": 1.001e-05, "gamma_constraint": null, "gamma_initializer": {"class_name": "Ones", "config": {}}, "gamma_regularizer": null, "momentum": 0.99, "moving_mean_initializer": {"class_name": "Zeros", "config": {}}, "moving_variance_initializer": {"class_name": "Ones", "config": {}}, "name": "conv1/bn", "scale": true, "trainable": [{"args": ["b1", 0, 1], "state": [3, "|", null, null, null, -1, -1, 0]}, "AA==\n"]}, "inbound_nodes": [[["conv1/conv", 0, 0, {}]]], "name": "conv1/bn"}, {"class_name": "Activation", "config": {"activation": "relu", "name": "conv1/relu", "trainable": [{"args": ["b1", 0, 1], "state": [3, "|", null, null, null, -1, -1, 0]}, "AA==\n"]}, "inbound_nodes": [[["conv1/bn", 0, 0, {}]]], "name": "conv1/relu"}, {"class_name": "ZeroPadding2D", "config": {"data_format": "channels_last", "name": "zero_padding2d_2", "padding": [[1, 1], [1, 1]], "trainable": [{"args": ["b1", 0, 1], "state": [3, "|", null, null, null, -1, -1, 0]}, "AA==\n"]}, "inbound_nodes": [[["conv1/relu", 0, 0, {}]]], "name": "zero_padding2d_2"}, {"class_name": "MaxPooling2D", "config": {"data_format": "channels_last", "name": "pool1", "padding": "valid", "pool_size": [3, 3], "strides": [2, 2], "trainable": [{"args": ["b1", 0, 1], "state": [3, "|", null, null, null, -1, -1, 0]}, "AA==\n"]}, "inbound_nodes": [[["zero_padding2d_2", 0, 0, {}]]], "name": "pool1"}, {"class_name": "BatchNormalization", "config": {"axis": 3, "beta_constraint": null, "beta_initializer": {"class_name": "Zeros", "config": {}}, "beta_regularizer": null, "center": true, "epsilon": 1.001e-05, "gamma_constraint": null, "gamma_initializer": {"class_name": "Ones", "config": {}}, "gamma_regularizer": null, "momentum": 0.99, "moving_mean_initializer": {"class_name": "Zeros", "config": {}}, "moving_variance_initializer": {"class_name": "Ones", "config": {}}, "name": "conv2_block1_0_bn", "scale": true, "trainable": [{"args": ["b1", 0, 1], "state": [3, "|", null, null, null, -1, -1, 0]}, "AA==\n"]}, "inbound_nodes": [[["pool1", 0, 0, {}]]], "name": "conv2_block1_0_bn"}, {"class_name": "Activation", "config": {"activation": "relu", "name": "conv2_block1_0_relu", "trainable": [{"args": ["b1", 0, 1], "state": [3, "|", null, null, null, -1, -1, 0]}, "AA==\n"]}, "inbound_nodes": [[["conv2_block1_0_bn", 0, 0, {}]]], "name": "conv2_block1_0_relu"}, {"class_name": "Conv2D", "config": {"activation": "linear", "activity_regularizer": null, "bias_constraint": null, "bias_initializer": {"class_name": "Zeros", "config": {}}, "bias_regularizer": null, "data_format": "channels_last", "dilation_rate": [1, 1], "filters": 128, "kernel_constraint": null, "kernel_initializer": {"class_name": "VarianceScaling", "config": {"distribution": "uniform", "mode": "fan_avg", "scale": 1.0, "seed": null}}, "kernel_regularizer": null, "kernel_size": [1, 1], "name": "conv2_block1_1_conv", "padding": "valid", "strides": [1, 1], "trainable": [{"args": ["b1", 0, 1], "state": [3, "|", null, null, null, -1, -1, 0]}, "AA==\n"], "use_bias": false}, "inbound_nodes": [[["conv2_block1_0_relu", 0, 0, {}]]], "name": "conv2_block1_1_conv"}, {"class_name": "BatchNormalization", "config": {"axis": 3, "beta_constraint": null, "beta_initializer": {"class_name": "Zeros", "config": {}}, "beta_regularizer": null, "center": true, "epsilon": 1.001e-05, "gamma_constraint": null, "gamma_initializer": {"class_name": "Ones", "config": {}}, "gamma_regularizer": null, "momentum": 0.99, "moving_mean_initializer": {"class_name": "Zeros", "config": {}}, "moving_variance_initializer": {"class_name": "Ones", "config": {}}, "name": "conv2_block1_1_bn", "scale": true, "trainable": [{"args": ["b1", 0, 1], "state": [3, "|", null, null, null, -1, -1, 0]}, "AA==\n"]}, "inbound_nodes": [[["conv2_block1_1_conv", 0, 0, {}]]], "name": "conv2_block1_1_bn"}, {"class_name": "Activation", "config": {"activation": "relu", "name": "conv2_block1_1_relu", "trainable": [{"args": ["b1", 0, 1], "state": [3, "|", null, null, null, -1, -1, 0]}, "AA==\n"]}, "inbound_nodes": [[["conv2_block1_1_bn", 0, 0, {}]]], "name": "conv2_block1_1_relu"}, {"class_name": "Conv2D", "config": {"activation": "linear", "activity_regularizer": null, "bias_constraint": null, "bias_initializer": {"class_name": "Zeros", "config": {}}, "bias_regularizer": null, "data_format": "channels_last", "dilation_rate": [1, 1], "filters": 32, "kernel_constraint": null, "kernel_initializer": {"class_name": "VarianceScaling", "config": {"distribution": "uniform", "mode": "fan_avg", "scale": 1.0, "seed": null}}, "kernel_regularizer": null, "kernel_size": [3, 3], "name": "conv2_block1_2_conv", "padding": "same", "strides": [1, 1], "trainable": [{"args": ["b1", 0, 1], "state": [3, "|", null, null, null, -1, -1, 0]}, "AA==\n"], "use_bias": false}, "inbound_nodes": [[["conv2_block1_1_relu", 0, 0, {}]]], "name": "conv2_block1_2_conv"}, {"class_name": "Concatenate", "config": {"axis": 3, "name": "conv2_block1_concat", "trainable": [{"args": ["b1", 0, 1], "state": [3, "|", null, null, null, -1, -1, 0]}, "AA==\n"]}, "inbound_nodes": [[["pool1", 0, 0, {}], ["conv2_block1_2_conv", 0, 0, {}]]], "name": "conv2_block1_concat"}, {"class_name": "BatchNormalization", "config": {"axis": 3, "beta_constraint": null, "beta_initializer": {"class_name": "Zeros", "config": {}}, "beta_regularizer": null, "center": true, "epsilon": 1.001e-05, "gamma_constraint": null, "gamma_initializer": {"class_name": "Ones", "config": {}}, "gamma_regularizer": null, "momentum": 0.99, "moving_mean_initializer": {"class_name": "Zeros", "config": {}}, "moving_variance_initializer": {"class_name": "Ones", "config": {}}, "name": "conv2_block2_0_bn", "scale": true, "trainable": [{"args": ["b1", 0, 1], "state": [3, "|", null, null, null, -1, -1, 0]}, "AA==\n"]}, "inbound_nodes": [[["conv2_block1_concat", 0, 0, {}]]], "name": "conv2_block2_0_bn"}, {"class_name": "Activation", "config": {"activation": "relu", "name": "conv2_block2_0_relu", "trainable": [{"args": ["b1", 0, 1], "state": [3, "|", null, null, null, -1, -1, 0]}, "AA==\n"]}, "inbound_nodes": [[["conv2_block2_0_bn", 0, 0, {}]]], "name": "conv2_block2_0_relu"}, {"class_name": "Conv2D", "config": {"activation": "linear", "activity_regularizer": null, "bias_constraint": null, "bias_initializer": {"class_name": "Zeros", "config": {}}, "bias_regularizer": null, "data_format": "channels_last", "dilation_rate": [1, 1], "filters": 128, "kernel_constraint": null, "kernel_initializer": {"class_name": "VarianceScaling", "config": {"distribution": "uniform", "mode": "fan_avg", "scale": 1.0, "seed": null}}, "kernel_regularizer": null, "kernel_size": [1, 1], "name": "conv2_block2_1_conv", "padding": "valid", "strides": [1, 1], "trainable": [{"args": ["b1", 0, 1], "state": [3, "|", null, null, null, -1, -1, 0]}, "AA==\n"], "use_bias": false}, "inbound_nodes": [[["conv2_block2_0_relu", 0, 0, {}]]], "name": "conv2_block2_1_conv"}, {"class_name": "BatchNormalization", "config": {"axis": 3, "beta_constraint": null, "beta_initializer": {"class_name": "Zeros", "config": {}}, "beta_regularizer": null, "center": true, "epsilon": 1.001e-05, "gamma_constraint": null, "gamma_initializer": {"class_name": "Ones", "config": {}}, "gamma_regularizer": null, "momentum": 0.99, "moving_mean_initializer": {"class_name": "Zeros", "config": {}}, "moving_variance_initializer": {"class_name": "Ones", "config": {}}, "name": "conv2_block2_1_bn", "scale": true, "trainable": [{"args": ["b1", 0, 1], "state": [3, "|", null, null, null, -1, -1, 0]}, "AA==\n"]}, "inbound_nodes": [[["conv2_block2_1_conv", 0, 0, {}]]], "name": "conv2_block2_1_bn"}, {"class_name": "Activation", "config": {"activation": "relu", "name": "conv2_block2_1_relu", "trainable": [{"args": ["b1", 0, 1], "state": [3, "|", null, null, null, -1, -1, 0]}, "AA==\n"]}, "inbound_nodes": [[["conv2_block2_1_bn", 0, 0, {}]]], "name": "conv2_block2_1_relu"}, {"class_name": "Conv2D", "config": {"activation": "linear", "activity_regularizer": null, "bias_constraint": null, "bias_initializer": {"class_name": "Zeros", "config": {}}, "bias_regularizer": null, "data_format": "channels_last", "dilation_rate": [1, 1], "filters": 32, "kernel_constraint": null, "kernel_initializer": {"class_name": "VarianceScaling", "config": {"distribution": "uniform", "mode": "fan_avg", "scale": 1.0, "seed": null}}, "kernel_regularizer": null, "kernel_size": [3, 3], "name": "conv2_block2_2_conv", "padding": "same", "strides": [1, 1], "trainable": [{"args": ["b1", 0, 1], "state": [3, "|", null, null, null, -1, -1, 0]}, "AA==\n"], "use_bias": false}, "inbound_nodes": [[["conv2_block2_1_relu", 0, 0, {}]]], "name": "conv2_block2_2_conv"}, {"class_name": "Concatenate", "config": {"axis": 3, "name": "conv2_block2_concat", "trainable": [{"args": ["b1", 0, 1], "state": [3, "|", null, null, null, -1, -1, 0]}, "AA==\n"]}, "inbound_nodes": [[["conv2_block1_concat", 0, 0, {}], ["conv2_block2_2_conv", 0, 0, {}]]], "name": "conv2_block2_concat"}, {"class_name": "BatchNormalization", "config": {"axis": 3, "beta_constraint": null, "beta_initializer": {"class_name": "Zeros", "config": {}}, "beta_regularizer": null, "center": true, "epsilon": 1.001e-05, "gamma_constraint": null, "gamma_initializer": {"class_name": "Ones", "config": {}}, "gamma_regularizer": null, "momentum": 0.99, "moving_mean_initializer": {"class_name": "Zeros", "config": {}}, "moving_variance_initializer": {"class_name": "Ones", "config": {}}, "name": "conv2_block3_0_bn", "scale": true, "trainable": [{"args": ["b1", 0, 1], "state": [3, "|", null, null, null, -1, -1, 0]}, "AA==\n"]}, "inbound_nodes": [[["conv2_block2_concat", 0, 0, {}]]], "name": "conv2_block3_0_bn"}, {"class_name": "Activation", "config": {"activation": "relu", "name": "conv2_block3_0_relu", "trainable": [{"args": ["b1", 0, 1], "state": [3, "|", null, null, null, -1, -1, 0]}, "AA==\n"]}, "inbound_nodes": [[["conv2_block3_0_bn", 0, 0, {}]]], "name": "conv2_block3_0_relu"}, {"class_name": "Conv2D", "config": {"activation": "linear", "activity_regularizer": null, "bias_constraint": null, "bias_initializer": {"class_name": "Zeros", "config": {}}, "bias_regularizer": null, "data_format": "channels_last", "dilation_rate": [1, 1], "filters": 128, "kernel_constraint": null, "kernel_initializer": {"class_name": "VarianceScaling", "config": {"distribution": "uniform", "mode": "fan_avg", "scale": 1.0, "seed": null}}, "kernel_regularizer": null, "kernel_size": [1, 1], "name": "conv2_block3_1_conv", "padding": "valid", "strides": [1, 1], "trainable": [{"args": ["b1", 0, 1], "state": [3, "|", null, null, null, -1, -1, 0]}, "AA==\n"], "use_bias": false}, "inbound_nodes": [[["conv2_block3_0_relu", 0, 0, {}]]], "name": "conv2_block3_1_conv"}, {"class_name": "BatchNormalization", "config": {"axis": 3, "beta_constraint": null, "beta_initializer": {"class_name": "Zeros", "config": {}}, "beta_regularizer": null, "center": true, "epsilon": 1.001e-05, "gamma_constraint": null, "gamma_initializer": {"class_name": "Ones", "config": {}}, "gamma_regularizer": null, "momentum": 0.99, "moving_mean_initializer": {"class_name": "Zeros", "config": {}}, "moving_variance_initializer": {"class_name": "Ones", "config": {}}, "name": "conv2_block3_1_bn", "scale": true, "trainable": [{"args": ["b1", 0, 1], "state": [3, "|", null, null, null, -1, -1, 0]}, "AA==\n"]}, "inbound_nodes": [[["conv2_block3_1_conv", 0, 0, {}]]], "name": "conv2_block3_1_bn"}, {"class_name": "Activation", "config": {"activation": "relu", "name": "conv2_block3_1_relu", "trainable": [{"args": ["b1", 0, 1], "state": [3, "|", null, null, null, -1, -1, 0]}, "AA==\n"]}, "inbound_nodes": [[["conv2_block3_1_bn", 0, 0, {}]]], "name": "conv2_block3_1_relu"}, {"class_name": "Conv2D", "config": {"activation": "linear", "activity_regularizer": null, "bias_constraint": null, "bias_initializer": {"class_name": "Zeros", "config": {}}, "bias_regularizer": null, "data_format": "channels_last", "dilation_rate": [1, 1], "filters": 32, "kernel_constraint": null, "kernel_initializer": {"class_name": "VarianceScaling", "config": {"distribution": "uniform", "mode": "fan_avg", "scale": 1.0, "seed": null}}, "kernel_regularizer": null, "kernel_size": [3, 3], "name": "conv2_block3_2_conv", "padding": "same", "strides": [1, 1], "trainable": [{"args": ["b1", 0, 1], "state": [3, "|", null, null, null, -1, -1, 0]}, "AA==\n"], "use_bias": false}, "inbound_nodes": [[["conv2_block3_1_relu", 0, 0, {}]]], "name": "conv2_block3_2_conv"}, {"class_name": "Concatenate", "config": {"axis": 3, "name": "conv2_block3_concat", "trainable": [{"args": ["b1", 0, 1], "state": [3, "|", null, null, null, -1, -1, 0]}, "AA==\n"]}, "inbound_nodes": [[["conv2_block2_concat", 0, 0, {}], ["conv2_block3_2_conv", 0, 0, {}]]], "name": "conv2_block3_concat"}, {"class_name": "BatchNormalization", "config": {"axis": 3, "beta_constraint": null, "beta_initializer": {"class_name": "Zeros", "config": {}}, "beta_regularizer": null, "center": true, "epsilon": 1.001e-05, "gamma_constraint": null, "gamma_initializer": {"class_name": "Ones", "config": {}}, "gamma_regularizer": null, "momentum": 0.99, "moving_mean_initializer": {"class_name": "Zeros", "config": {}}, "moving_variance_initializer": {"class_name": "Ones", "config": {}}, "name": "conv2_block4_0_bn", "scale": true, "trainable": [{"args": ["b1", 0, 1], "state": [3, "|", null, null, null, -1, -1, 0]}, "AA==\n"]}, "inbound_nodes": [[["conv2_block3_concat", 0, 0, {}]]], "name": "conv2_block4_0_bn"}, {"class_name": "Activation", "config": {"activation": "relu", "name": "conv2_block4_0_relu", "trainable": [{"args": ["b1", 0, 1], "state": [3, "|", null, null, null, -1, -1, 0]}, "AA==\n"]}, "inbound_nodes": [[["conv2_block4_0_bn", 0, 0, {}]]], "name": "conv2_block4_0_relu"}, {"class_name": "Conv2D", "config": {"activation": "linear", "activity_regularizer": null, "bias_constraint": null, "bias_initializer": {"class_name": "Zeros", "config": {}}, "bias_regularizer": null, "data_format": "channels_last", "dilation_rate": [1, 1], "filters": 128, "kernel_constraint": null, "kernel_initializer": {"class_name": "VarianceScaling", "config": {"distribution": "uniform", "mode": "fan_avg", "scale": 1.0, "seed": null}}, "kernel_regularizer": null, "kernel_size": [1, 1], "name": "conv2_block4_1_conv", "padding": "valid", "strides": [1, 1], "trainable": [{"args": ["b1", 0, 1], "state": [3, "|", null, null, null, -1, -1, 0]}, "AA==\n"], "use_bias": false}, "inbound_nodes": [[["conv2_block4_0_relu", 0, 0, {}]]], "name": "conv2_block4_1_conv"}, {"class_name": "BatchNormalization", "config": {"axis": 3, "beta_constraint": null, "beta_initializer": {"class_name": "Zeros", "config": {}}, "beta_regularizer": null, "center": true, "epsilon": 1.001e-05, "gamma_constraint": null, "gamma_initializer": {"class_name": "Ones", "config": {}}, "gamma_regularizer": null, "momentum": 0.99, "moving_mean_initializer": {"class_name": "Zeros", "config": {}}, "moving_variance_initializer": {"class_name": "Ones", "config": {}}, "name": "conv2_block4_1_bn", "scale": true, "trainable": [{"args": ["b1", 0, 1], "state": [3, "|", null, null, null, -1, -1, 0]}, "AA==\n"]}, "inbound_nodes": [[["conv2_block4_1_conv", 0, 0, {}]]], "name": "conv2_block4_1_bn"}, {"class_name": "Activation", "config": {"activation": "relu", "name": "conv2_block4_1_relu", "trainable": [{"args": ["b1", 0, 1], "state": [3, "|", null, null, null, -1, -1, 0]}, "AA==\n"]}, "inbound_nodes": [[["conv2_block4_1_bn", 0, 0, {}]]], "name": "conv2_block4_1_relu"}, {"class_name": "Conv2D", "config": {"activation": "linear", "activity_regularizer": null, "bias_constraint": null, "bias_initializer": {"class_name": "Zeros", "config": {}}, "bias_regularizer": null, "data_format": "channels_last", "dilation_rate": [1, 1], "filters": 32, "kernel_constraint": null, "kernel_initializer": {"class_name": "VarianceScaling", "config": {"distribution": "uniform", "mode": "fan_avg", "scale": 1.0, "seed": null}}, "kernel_regularizer": null, "kernel_size": [3, 3], "name": "conv2_block4_2_conv", "padding": "same", "strides": [1, 1], "trainable": [{"args": ["b1", 0, 1], "state": [3, "|", null, null, null, -1, -1, 0]}, "AA==\n"], "use_bias": false}, "inbound_nodes": [[["conv2_block4_1_relu", 0, 0, {}]]], "name": "conv2_block4_2_conv"}, {"class_name": "Concatenate", "config": {"axis": 3, "name": "conv2_block4_concat", "trainable": [{"args": ["b1", 0, 1], "state": [3, "|", null, null, null, -1, -1, 0]}, "AA==\n"]}, "inbound_nodes": [[["conv2_block3_concat", 0, 0, {}], ["conv2_block4_2_conv", 0, 0, {}]]], "name": "conv2_block4_concat"}, {"class_name": "BatchNormalization", "config": {"axis": 3, "beta_constraint": null, "beta_initializer": {"class_name": "Zeros", "config": {}}, "beta_regularizer": null, "center": true, "epsilon": 1.001e-05, "gamma_constraint": null, "gamma_initializer": {"class_name": "Ones", "config": {}}, "gamma_regularizer": null, "momentum": 0.99, "moving_mean_initializer": {"class_name": "Zeros", "config": {}}, "moving_variance_initializer": {"class_name": "Ones", "config": {}}, "name": "conv2_block5_0_bn", "scale": true, "trainable": [{"args": ["b1", 0, 1], "state": [3, "|", null, null, null, -1, -1, 0]}, "AA==\n"]}, "inbound_nodes": [[["conv2_block4_concat", 0, 0, {}]]], "name": "conv2_block5_0_bn"}, {"class_name": "Activation", "config": {"activation": "relu", "name": "conv2_block5_0_relu", "trainable": [{"args": ["b1", 0, 1], "state": [3, "|", null, null, null, -1, -1, 0]}, "AA==\n"]}, "inbound_nodes": [[["conv2_block5_0_bn", 0, 0, {}]]], "name": "conv2_block5_0_relu"}, {"class_name": "Conv2D", "config": {"activation": "linear", "activity_regularizer": null, "bias_constraint": null, "bias_initializer": {"class_name": "Zeros", "config": {}}, "bias_regularizer": null, "data_format": "channels_last", "dilation_rate": [1, 1], "filters": 128, "kernel_constraint": null, "kernel_initializer": {"class_name": "VarianceScaling", "config": {"distribution": "uniform", "mode": "fan_avg", "scale": 1.0, "seed": null}}, "kernel_regularizer": null, "kernel_size": [1, 1], "name": "conv2_block5_1_conv", "padding": "valid", "strides": [1, 1], "trainable": [{"args": ["b1", 0, 1], "state": [3, "|", null, null, null, -1, -1, 0]}, "AA==\n"], "use_bias": false}, "inbound_nodes": [[["conv2_block5_0_relu", 0, 0, {}]]], "name": "conv2_block5_1_conv"}, {"class_name": "BatchNormalization", "config": {"axis": 3, "beta_constraint": null, "beta_initializer": {"class_name": "Zeros", "config": {}}, "beta_regularizer": null, "center": true, "epsilon": 1.001e-05, "gamma_constraint": null, "gamma_initializer": {"class_name": "Ones", "config": {}}, "gamma_regularizer": null, "momentum": 0.99, "moving_mean_initializer": {"class_name": "Zeros", "config": {}}, "moving_variance_initializer": {"class_name": "Ones", "config": {}}, "name": "conv2_block5_1_bn", "scale": true, "trainable": [{"args": ["b1", 0, 1], "state": [3, "|", null, null, null, -1, -1, 0]}, "AA==\n"]}, "inbound_nodes": [[["conv2_block5_1_conv", 0, 0, {}]]], "name": "conv2_block5_1_bn"}, {"class_name": "Activation", "config": {"activation": "relu", "name": "conv2_block5_1_relu", "trainable": [{"args": ["b1", 0, 1], "state": [3, "|", null, null, null, -1, -1, 0]}, "AA==\n"]}, "inbound_nodes": [[["conv2_block5_1_bn", 0, 0, {}]]], "name": "conv2_block5_1_relu"}, {"class_name": "Conv2D", "config": {"activation": "linear", "activity_regularizer": null, "bias_constraint": null, "bias_initializer": {"class_name": "Zeros", "config": {}}, "bias_regularizer": null, "data_format": "channels_last", "dilation_rate": [1, 1], "filters": 32, "kernel_constraint": null, "kernel_initializer": {"class_name": "VarianceScaling", "config": {"distribution": "uniform", "mode": "fan_avg", "scale": 1.0, "seed": null}}, "kernel_regularizer": null, "kernel_size": [3, 3], "name": "conv2_block5_2_conv", "padding": "same", "strides": [1, 1], "trainable": [{"args": ["b1", 0, 1], "state": [3, "|", null, null, null, -1, -1, 0]}, "AA==\n"], "use_bias": false}, "inbound_nodes": [[["conv2_block5_1_relu", 0, 0, {}]]], "name": "conv2_block5_2_conv"}, {"class_name": "Concatenate", "config": {"axis": 3, "name": "conv2_block5_concat", "trainable": [{"args": ["b1", 0, 1], "state": [3, "|", null, null, null, -1, -1, 0]}, "AA==\n"]}, "inbound_nodes": [[["conv2_block4_concat", 0, 0, {}], ["conv2_block5_2_conv", 0, 0, {}]]], "name": "conv2_block5_concat"}, {"class_name": "BatchNormalization", "config": {"axis": 3, "beta_constraint": null, "beta_initializer": {"class_name": "Zeros", "config": {}}, "beta_regularizer": null, "center": true, "epsilon": 1.001e-05, "gamma_constraint": null, "gamma_initializer": {"class_name": "Ones", "config": {}}, "gamma_regularizer": null, "momentum": 0.99, "moving_mean_initializer": {"class_name": "Zeros", "config": {}}, "moving_variance_initializer": {"class_name": "Ones", "config": {}}, "name": "conv2_block6_0_bn", "scale": true, "trainable": [{"args": ["b1", 0, 1], "state": [3, "|", null, null, null, -1, -1, 0]}, "AA==\n"]}, "inbound_nodes": [[["conv2_block5_concat", 0, 0, {}]]], "name": "conv2_block6_0_bn"}, {"class_name": "Activation", "config": {"activation": "relu", "name": "conv2_block6_0_relu", "trainable": [{"args": ["b1", 0, 1], "state": [3, "|", null, null, null, -1, -1, 0]}, "AA==\n"]}, "inbound_nodes": [[["conv2_block6_0_bn", 0, 0, {}]]], "name": "conv2_block6_0_relu"}, {"class_name": "Conv2D", "config": {"activation": "linear", "activity_regularizer": null, "bias_constraint": null, "bias_initializer": {"class_name": "Zeros", "config": {}}, "bias_regularizer": null, "data_format": "channels_last", "dilation_rate": [1, 1], "filters": 128, "kernel_constraint": null, "kernel_initializer": {"class_name": "VarianceScaling", "config": {"distribution": "uniform", "mode": "fan_avg", "scale": 1.0, "seed": null}}, "kernel_regularizer": null, "kernel_size": [1, 1], "name": "conv2_block6_1_conv", "padding": "valid", "strides": [1, 1], "trainable": [{"args": ["b1", 0, 1], "state": [3, "|", null, null, null, -1, -1, 0]}, "AA==\n"], "use_bias": false}, "inbound_nodes": [[["conv2_block6_0_relu", 0, 0, {}]]], "name": "conv2_block6_1_conv"}, {"class_name": "BatchNormalization", "config": {"axis": 3, "beta_constraint": null, "beta_initializer": {"class_name": "Zeros", "config": {}}, "beta_regularizer": null, "center": true, "epsilon": 1.001e-05, "gamma_constraint": null, "gamma_initializer": {"class_name": "Ones", "config": {}}, "gamma_regularizer": null, "momentum": 0.99, "moving_mean_initializer": {"class_name": "Zeros", "config": {}}, "moving_variance_initializer": {"class_name": "Ones", "config": {}}, "name": "conv2_block6_1_bn", "scale": true, "trainable": [{"args": ["b1", 0, 1], "state": [3, "|", null, null, null, -1, -1, 0]}, "AA==\n"]}, "inbound_nodes": [[["conv2_block6_1_conv", 0, 0, {}]]], "name": "conv2_block6_1_bn"}, {"class_name": "Activation", "config": {"activation": "relu", "name": "conv2_block6_1_relu", "trainable": [{"args": ["b1", 0, 1], "state": [3, "|", null, null, null, -1, -1, 0]}, "AA==\n"]}, "inbound_nodes": [[["conv2_block6_1_bn", 0, 0, {}]]], "name": "conv2_block6_1_relu"}, {"class_name": "Conv2D", "config": {"activation": "linear", "activity_regularizer": null, "bias_constraint": null, "bias_initializer": {"class_name": "Zeros", "config": {}}, "bias_regularizer": null, "data_format": "channels_last", "dilation_rate": [1, 1], "filters": 32, "kernel_constraint": null, "kernel_initializer": {"class_name": "VarianceScaling", "config": {"distribution": "uniform", "mode": "fan_avg", "scale": 1.0, "seed": null}}, "kernel_regularizer": null, "kernel_size": [3, 3], "name": "conv2_block6_2_conv", "padding": "same", "strides": [1, 1], "trainable": [{"args": ["b1", 0, 1], "state": [3, "|", null, null, null, -1, -1, 0]}, "AA==\n"], "use_bias": false}, "inbound_nodes": [[["conv2_block6_1_relu", 0, 0, {}]]], "name": "conv2_block6_2_conv"}, {"class_name": "Concatenate", "config": {"axis": 3, "name": "conv2_block6_concat", "trainable": [{"args": ["b1", 0, 1], "state": [3, "|", null, null, null, -1, -1, 0]}, "AA==\n"]}, "inbound_nodes": [[["conv2_block5_concat", 0, 0, {}], ["conv2_block6_2_conv", 0, 0, {}]]], "name": "conv2_block6_concat"}, {"class_name": "BatchNormalization", "config": {"axis": 3, "beta_constraint": null, "beta_initializer": {"class_name": "Zeros", "config": {}}, "beta_regularizer": null, "center": true, "epsilon": 1.001e-05, "gamma_constraint": null, "gamma_initializer": {"class_name": "Ones", "config": {}}, "gamma_regularizer": null, "momentum": 0.99, "moving_mean_initializer": {"class_name": "Zeros", "config": {}}, "moving_variance_initializer": {"class_name": "Ones", "config": {}}, "name": "pool2_bn", "scale": true, "trainable": [{"args": ["b1", 0, 1], "state": [3, "|", null, null, null, -1, -1, 0]}, "AA==\n"]}, "inbound_nodes": [[["conv2_block6_concat", 0, 0, {}]]], "name": "pool2_bn"}, {"class_name": "Activation", "config": {"activation": "relu", "name": "pool2_relu", "trainable": [{"args": ["b1", 0, 1], "state": [3, "|", null, null, null, -1, -1, 0]}, "AA==\n"]}, "inbound_nodes": [[["pool2_bn", 0, 0, {}]]], "name": "pool2_relu"}, {"class_name": "Conv2D", "config": {"activation": "linear", "activity_regularizer": null, "bias_constraint": null, "bias_initializer": {"class_name": "Zeros", "config": {}}, "bias_regularizer": null, "data_format": "channels_last", "dilation_rate": [1, 1], "filters": 128, "kernel_constraint": null, "kernel_initializer": {"class_name": "VarianceScaling", "config": {"distribution": "uniform", "mode": "fan_avg", "scale": 1.0, "seed": null}}, "kernel_regularizer": null, "kernel_size": [1, 1], "name": "pool2_conv", "padding": "valid", "strides": [1, 1], "trainable": [{"args": ["b1", 0, 1], "state": [3, "|", null, null, null, -1, -1, 0]}, "AA==\n"], "use_bias": false}, "inbound_nodes": [[["pool2_relu", 0, 0, {}]]], "name": "pool2_conv"}, {"class_name": "AveragePooling2D", "config": {"data_format": "channels_last", "name": "pool2_pool", "padding": "valid", "pool_size": [2, 2], "strides": [2, 2], "trainable": [{"args": ["b1", 0, 1], "state": [3, "|", null, null, null, -1, -1, 0]}, "AA==\n"]}, "inbound_nodes": [[["pool2_conv", 0, 0, {}]]], "name": "pool2_pool"}, {"class_name": "BatchNormalization", "config": {"axis": 3, "beta_constraint": null, "beta_initializer": {"class_name": "Zeros", "config": {}}, "beta_regularizer": null, "center": true, "epsilon": 1.001e-05, "gamma_constraint": null, "gamma_initializer": {"class_name": "Ones", "config": {}}, "gamma_regularizer": null, "momentum": 0.99, "moving_mean_initializer": {"class_name": "Zeros", "config": {}}, "moving_variance_initializer": {"class_name": "Ones", "config": {}}, "name": "conv3_block1_0_bn", "scale": true, "trainable": [{"args": ["b1", 0, 1], "state": [3, "|", null, null, null, -1, -1, 0]}, "AA==\n"]}, "inbound_nodes": [[["pool2_pool", 0, 0, {}]]], "name": "conv3_block1_0_bn"}, {"class_name": "Activation", "config": {"activation": "relu", "name": "conv3_block1_0_relu", "trainable": [{"args": ["b1", 0, 1], "state": [3, "|", null, null, null, -1, -1, 0]}, "AA==\n"]}, "inbound_nodes": [[["conv3_block1_0_bn", 0, 0, {}]]], "name": "conv3_block1_0_relu"}, {"class_name": "Conv2D", "config": {"activation": "linear", "activity_regularizer": null, "bias_constraint": null, "bias_initializer": {"class_name": "Zeros", "config": {}}, "bias_regularizer": null, "data_format": "channels_last", "dilation_rate": [1, 1], "filters": 128, "kernel_constraint": null, "kernel_initializer": {"class_name": "VarianceScaling", "config": {"distribution": "uniform", "mode": "fan_avg", "scale": 1.0, "seed": null}}, "kernel_regularizer": null, "kernel_size": [1, 1], "name": "conv3_block1_1_conv", "padding": "valid", "strides": [1, 1], "trainable": [{"args": ["b1", 0, 1], "state": [3, "|", null, null, null, -1, -1, 0]}, "AA==\n"], "use_bias": false}, "inbound_nodes": [[["conv3_block1_0_relu", 0, 0, {}]]], "name": "conv3_block1_1_conv"}, {"class_name": "BatchNormalization", "config": {"axis": 3, "beta_constraint": null, "beta_initializer": {"class_name": "Zeros", "config": {}}, "beta_regularizer": null, "center": true, "epsilon": 1.001e-05, "gamma_constraint": null, "gamma_initializer": {"class_name": "Ones", "config": {}}, "gamma_regularizer": null, "momentum": 0.99, "moving_mean_initializer": {"class_name": "Zeros", "config": {}}, "moving_variance_initializer": {"class_name": "Ones", "config": {}}, "name": "conv3_block1_1_bn", "scale": true, "trainable": [{"args": ["b1", 0, 1], "state": [3, "|", null, null, null, -1, -1, 0]}, "AA==\n"]}, "inbound_nodes": [[["conv3_block1_1_conv", 0, 0, {}]]], "name": "conv3_block1_1_bn"}, {"class_name": "Activation", "config": {"activation": "relu", "name": "conv3_block1_1_relu", "trainable": [{"args": ["b1", 0, 1], "state": [3, "|", null, null, null, -1, -1, 0]}, "AA==\n"]}, "inbound_nodes": [[["conv3_block1_1_bn", 0, 0, {}]]], "name": "conv3_block1_1_relu"}, {"class_name": "Conv2D", "config": {"activation": "linear", "activity_regularizer": null, "bias_constraint": null, "bias_initializer": {"class_name": "Zeros", "config": {}}, "bias_regularizer": null, "data_format": "channels_last", "dilation_rate": [1, 1], "filters": 32, "kernel_constraint": null, "kernel_initializer": {"class_name": "VarianceScaling", "config": {"distribution": "uniform", "mode": "fan_avg", "scale": 1.0, "seed": null}}, "kernel_regularizer": null, "kernel_size": [3, 3], "name": "conv3_block1_2_conv", "padding": "same", "strides": [1, 1], "trainable": [{"args": ["b1", 0, 1], "state": [3, "|", null, null, null, -1, -1, 0]}, "AA==\n"], "use_bias": false}, "inbound_nodes": [[["conv3_block1_1_relu", 0, 0, {}]]], "name": "conv3_block1_2_conv"}, {"class_name": "Concatenate", "config": {"axis": 3, "name": "conv3_block1_concat", "trainable": [{"args": ["b1", 0, 1], "state": [3, "|", null, null, null, -1, -1, 0]}, "AA==\n"]}, "inbound_nodes": [[["pool2_pool", 0, 0, {}], ["conv3_block1_2_conv", 0, 0, {}]]], "name": "conv3_block1_concat"}, {"class_name": "BatchNormalization", "config": {"axis": 3, "beta_constraint": null, "beta_initializer": {"class_name": "Zeros", "config": {}}, "beta_regularizer": null, "center": true, "epsilon": 1.001e-05, "gamma_constraint": null, "gamma_initializer": {"class_name": "Ones", "config": {}}, "gamma_regularizer": null, "momentum": 0.99, "moving_mean_initializer": {"class_name": "Zeros", "config": {}}, "moving_variance_initializer": {"class_name": "Ones", "config": {}}, "name": "conv3_block2_0_bn", "scale": true, "trainable": [{"args": ["b1", 0, 1], "state": [3, "|", null, null, null, -1, -1, 0]}, "AA==\n"]}, "inbound_nodes": [[["conv3_block1_concat", 0, 0, {}]]], "name": "conv3_block2_0_bn"}, {"class_name": "Activation", "config": {"activation": "relu", "name": "conv3_block2_0_relu", "trainable": [{"args": ["b1", 0, 1], "state": [3, "|", null, null, null, -1, -1, 0]}, "AA==\n"]}, "inbound_nodes": [[["conv3_block2_0_bn", 0, 0, {}]]], "name": "conv3_block2_0_relu"}, {"class_name": "Conv2D", "config": {"activation": "linear", "activity_regularizer": null, "bias_constraint": null, "bias_initializer": {"class_name": "Zeros", "config": {}}, "bias_regularizer": null, "data_format": "channels_last", "dilation_rate": [1, 1], "filters": 128, "kernel_constraint": null, "kernel_initializer": {"class_name": "VarianceScaling", "config": {"distribution": "uniform", "mode": "fan_avg", "scale": 1.0, "seed": null}}, "kernel_regularizer": null, "kernel_size": [1, 1], "name": "conv3_block2_1_conv", "padding": "valid", "strides": [1, 1], "trainable": [{"args": ["b1", 0, 1], "state": [3, "|", null, null, null, -1, -1, 0]}, "AA==\n"], "use_bias": false}, "inbound_nodes": [[["conv3_block2_0_relu", 0, 0, {}]]], "name": "conv3_block2_1_conv"}, {"class_name": "BatchNormalization", "config": {"axis": 3, "beta_constraint": null, "beta_initializer": {"class_name": "Zeros", "config": {}}, "beta_regularizer": null, "center": true, "epsilon": 1.001e-05, "gamma_constraint": null, "gamma_initializer": {"class_name": "Ones", "config": {}}, "gamma_regularizer": null, "momentum": 0.99, "moving_mean_initializer": {"class_name": "Zeros", "config": {}}, "moving_variance_initializer": {"class_name": "Ones", "config": {}}, "name": "conv3_block2_1_bn", "scale": true, "trainable": [{"args": ["b1", 0, 1], "state": [3, "|", null, null, null, -1, -1, 0]}, "AA==\n"]}, "inbound_nodes": [[["conv3_block2_1_conv", 0, 0, {}]]], "name": "conv3_block2_1_bn"}, {"class_name": "Activation", "config": {"activation": "relu", "name": "conv3_block2_1_relu", "trainable": [{"args": ["b1", 0, 1], "state": [3, "|", null, null, null, -1, -1, 0]}, "AA==\n"]}, "inbound_nodes": [[["conv3_block2_1_bn", 0, 0, {}]]], "name": "conv3_block2_1_relu"}, {"class_name": "Conv2D", "config": {"activation": "linear", "activity_regularizer": null, "bias_constraint": null, "bias_initializer": {"class_name": "Zeros", "config": {}}, "bias_regularizer": null, "data_format": "channels_last", "dilation_rate": [1, 1], "filters": 32, "kernel_constraint": null, "kernel_initializer": {"class_name": "VarianceScaling", "config": {"distribution": "uniform", "mode": "fan_avg", "scale": 1.0, "seed": null}}, "kernel_regularizer": null, "kernel_size": [3, 3], "name": "conv3_block2_2_conv", "padding": "same", "strides": [1, 1], "trainable": [{"args": ["b1", 0, 1], "state": [3, "|", null, null, null, -1, -1, 0]}, "AA==\n"], "use_bias": false}, "inbound_nodes": [[["conv3_block2_1_relu", 0, 0, {}]]], "name": "conv3_block2_2_conv"}, {"class_name": "Concatenate", "config": {"axis": 3, "name": "conv3_block2_concat", "trainable": [{"args": ["b1", 0, 1], "state": [3, "|", null, null, null, -1, -1, 0]}, "AA==\n"]}, "inbound_nodes": [[["conv3_block1_concat", 0, 0, {}], ["conv3_block2_2_conv", 0, 0, {}]]], "name": "conv3_block2_concat"}, {"class_name": "BatchNormalization", "config": {"axis": 3, "beta_constraint": null, "beta_initializer": {"class_name": "Zeros", "config": {}}, "beta_regularizer": null, "center": true, "epsilon": 1.001e-05, "gamma_constraint": null, "gamma_initializer": {"class_name": "Ones", "config": {}}, "gamma_regularizer": null, "momentum": 0.99, "moving_mean_initializer": {"class_name": "Zeros", "config": {}}, "moving_variance_initializer": {"class_name": "Ones", "config": {}}, "name": "conv3_block3_0_bn", "scale": true, "trainable": [{"args": ["b1", 0, 1], "state": [3, "|", null, null, null, -1, -1, 0]}, "AA==\n"]}, "inbound_nodes": [[["conv3_block2_concat", 0, 0, {}]]], "name": "conv3_block3_0_bn"}, {"class_name": "Activation", "config": {"activation": "relu", "name": "conv3_block3_0_relu", "trainable": [{"args": ["b1", 0, 1], "state": [3, "|", null, null, null, -1, -1, 0]}, "AA==\n"]}, "inbound_nodes": [[["conv3_block3_0_bn", 0, 0, {}]]], "name": "conv3_block3_0_relu"}, {"class_name": "Conv2D", "config": {"activation": "linear", "activity_regularizer": null, "bias_constraint": null, "bias_initializer": {"class_name": "Zeros", "config": {}}, "bias_regularizer": null, "data_format": "channels_last", "dilation_rate": [1, 1], "filters": 128, "kernel_constraint": null, "kernel_initializer": {"class_name": "VarianceScaling", "config": {"distribution": "uniform", "mode": "fan_avg", "scale": 1.0, "seed": null}}, "kernel_regularizer": null, "kernel_size": [1, 1], "name": "conv3_block3_1_conv", "padding": "valid", "strides": [1, 1], "trainable": [{"args": ["b1", 0, 1], "state": [3, "|", null, null, null, -1, -1, 0]}, "AA==\n"], "use_bias": false}, "inbound_nodes": [[["conv3_block3_0_relu", 0, 0, {}]]], "name": "conv3_block3_1_conv"}, {"class_name": "BatchNormalization", "config": {"axis": 3, "beta_constraint": null, "beta_initializer": {"class_name": "Zeros", "config": {}}, "beta_regularizer": null, "center": true, "epsilon": 1.001e-05, "gamma_constraint": null, "gamma_initializer": {"class_name": "Ones", "config": {}}, "gamma_regularizer": null, "momentum": 0.99, "moving_mean_initializer": {"class_name": "Zeros", "config": {}}, "moving_variance_initializer": {"class_name": "Ones", "config": {}}, "name": "conv3_block3_1_bn", "scale": true, "trainable": [{"args": ["b1", 0, 1], "state": [3, "|", null, null, null, -1, -1, 0]}, "AA==\n"]}, "inbound_nodes": [[["conv3_block3_1_conv", 0, 0, {}]]], "name": "conv3_block3_1_bn"}, {"class_name": "Activation", "config": {"activation": "relu", "name": "conv3_block3_1_relu", "trainable": [{"args": ["b1", 0, 1], "state": [3, "|", null, null, null, -1, -1, 0]}, "AA==\n"]}, "inbound_nodes": [[["conv3_block3_1_bn", 0, 0, {}]]], "name": "conv3_block3_1_relu"}, {"class_name": "Conv2D", "config": {"activation": "linear", "activity_regularizer": null, "bias_constraint": null, "bias_initializer": {"class_name": "Zeros", "config": {}}, "bias_regularizer": null, "data_format": "channels_last", "dilation_rate": [1, 1], "filters": 32, "kernel_constraint": null, "kernel_initializer": {"class_name": "VarianceScaling", "config": {"distribution": "uniform", "mode": "fan_avg", "scale": 1.0, "seed": null}}, "kernel_regularizer": null, "kernel_size": [3, 3], "name": "conv3_block3_2_conv", "padding": "same", "strides": [1, 1], "trainable": [{"args": ["b1", 0, 1], "state": [3, "|", null, null, null, -1, -1, 0]}, "AA==\n"], "use_bias": false}, "inbound_nodes": [[["conv3_block3_1_relu", 0, 0, {}]]], "name": "conv3_block3_2_conv"}, {"class_name": "Concatenate", "config": {"axis": 3, "name": "conv3_block3_concat", "trainable": [{"args": ["b1", 0, 1], "state": [3, "|", null, null, null, -1, -1, 0]}, "AA==\n"]}, "inbound_nodes": [[["conv3_block2_concat", 0, 0, {}], ["conv3_block3_2_conv", 0, 0, {}]]], "name": "conv3_block3_concat"}, {"class_name": "BatchNormalization", "config": {"axis": 3, "beta_constraint": null, "beta_initializer": {"class_name": "Zeros", "config": {}}, "beta_regularizer": null, "center": true, "epsilon": 1.001e-05, "gamma_constraint": null, "gamma_initializer": {"class_name": "Ones", "config": {}}, "gamma_regularizer": null, "momentum": 0.99, "moving_mean_initializer": {"class_name": "Zeros", "config": {}}, "moving_variance_initializer": {"class_name": "Ones", "config": {}}, "name": "conv3_block4_0_bn", "scale": true, "trainable": [{"args": ["b1", 0, 1], "state": [3, "|", null, null, null, -1, -1, 0]}, "AA==\n"]}, "inbound_nodes": [[["conv3_block3_concat", 0, 0, {}]]], "name": "conv3_block4_0_bn"}, {"class_name": "Activation", "config": {"activation": "relu", "name": "conv3_block4_0_relu", "trainable": [{"args": ["b1", 0, 1], "state": [3, "|", null, null, null, -1, -1, 0]}, "AA==\n"]}, "inbound_nodes": [[["conv3_block4_0_bn", 0, 0, {}]]], "name": "conv3_block4_0_relu"}, {"class_name": "Conv2D", "config": {"activation": "linear", "activity_regularizer": null, "bias_constraint": null, "bias_initializer": {"class_name": "Zeros", "config": {}}, "bias_regularizer": null, "data_format": "channels_last", "dilation_rate": [1, 1], "filters": 128, "kernel_constraint": null, "kernel_initializer": {"class_name": "VarianceScaling", "config": {"distribution": "uniform", "mode": "fan_avg", "scale": 1.0, "seed": null}}, "kernel_regularizer": null, "kernel_size": [1, 1], "name": "conv3_block4_1_conv", "padding": "valid", "strides": [1, 1], "trainable": [{"args": ["b1", 0, 1], "state": [3, "|", null, null, null, -1, -1, 0]}, "AA==\n"], "use_bias": false}, "inbound_nodes": [[["conv3_block4_0_relu", 0, 0, {}]]], "name": "conv3_block4_1_conv"}, {"class_name": "BatchNormalization", "config": {"axis": 3, "beta_constraint": null, "beta_initializer": {"class_name": "Zeros", "config": {}}, "beta_regularizer": null, "center": true, "epsilon": 1.001e-05, "gamma_constraint": null, "gamma_initializer": {"class_name": "Ones", "config": {}}, "gamma_regularizer": null, "momentum": 0.99, "moving_mean_initializer": {"class_name": "Zeros", "config": {}}, "moving_variance_initializer": {"class_name": "Ones", "config": {}}, "name": "conv3_block4_1_bn", "scale": true, "trainable": [{"args": ["b1", 0, 1], "state": [3, "|", null, null, null, -1, -1, 0]}, "AA==\n"]}, "inbound_nodes": [[["conv3_block4_1_conv", 0, 0, {}]]], "name": "conv3_block4_1_bn"}, {"class_name": "Activation", "config": {"activation": "relu", "name": "conv3_block4_1_relu", "trainable": [{"args": ["b1", 0, 1], "state": [3, "|", null, null, null, -1, -1, 0]}, "AA==\n"]}, "inbound_nodes": [[["conv3_block4_1_bn", 0, 0, {}]]], "name": "conv3_block4_1_relu"}, {"class_name": "Conv2D", "config": {"activation": "linear", "activity_regularizer": null, "bias_constraint": null, "bias_initializer": {"class_name": "Zeros", "config": {}}, "bias_regularizer": null, "data_format": "channels_last", "dilation_rate": [1, 1], "filters": 32, "kernel_constraint": null, "kernel_initializer": {"class_name": "VarianceScaling", "config": {"distribution": "uniform", "mode": "fan_avg", "scale": 1.0, "seed": null}}, "kernel_regularizer": null, "kernel_size": [3, 3], "name": "conv3_block4_2_conv", "padding": "same", "strides": [1, 1], "trainable": [{"args": ["b1", 0, 1], "state": [3, "|", null, null, null, -1, -1, 0]}, "AA==\n"], "use_bias": false}, "inbound_nodes": [[["conv3_block4_1_relu", 0, 0, {}]]], "name": "conv3_block4_2_conv"}, {"class_name": "Concatenate", "config": {"axis": 3, "name": "conv3_block4_concat", "trainable": [{"args": ["b1", 0, 1], "state": [3, "|", null, null, null, -1, -1, 0]}, "AA==\n"]}, "inbound_nodes": [[["conv3_block3_concat", 0, 0, {}], ["conv3_block4_2_conv", 0, 0, {}]]], "name": "conv3_block4_concat"}, {"class_name": "BatchNormalization", "config": {"axis": 3, "beta_constraint": null, "beta_initializer": {"class_name": "Zeros", "config": {}}, "beta_regularizer": null, "center": true, "epsilon": 1.001e-05, "gamma_constraint": null, "gamma_initializer": {"class_name": "Ones", "config": {}}, "gamma_regularizer": null, "momentum": 0.99, "moving_mean_initializer": {"class_name": "Zeros", "config": {}}, "moving_variance_initializer": {"class_name": "Ones", "config": {}}, "name": "conv3_block5_0_bn", "scale": true, "trainable": [{"args": ["b1", 0, 1], "state": [3, "|", null, null, null, -1, -1, 0]}, "AA==\n"]}, "inbound_nodes": [[["conv3_block4_concat", 0, 0, {}]]], "name": "conv3_block5_0_bn"}, {"class_name": "Activation", "config": {"activation": "relu", "name": "conv3_block5_0_relu", "trainable": [{"args": ["b1", 0, 1], "state": [3, "|", null, null, null, -1, -1, 0]}, "AA==\n"]}, "inbound_nodes": [[["conv3_block5_0_bn", 0, 0, {}]]], "name": "conv3_block5_0_relu"}, {"class_name": "Conv2D", "config": {"activation": "linear", "activity_regularizer": null, "bias_constraint": null, "bias_initializer": {"class_name": "Zeros", "config": {}}, "bias_regularizer": null, "data_format": "channels_last", "dilation_rate": [1, 1], "filters": 128, "kernel_constraint": null, "kernel_initializer": {"class_name": "VarianceScaling", "config": {"distribution": "uniform", "mode": "fan_avg", "scale": 1.0, "seed": null}}, "kernel_regularizer": null, "kernel_size": [1, 1], "name": "conv3_block5_1_conv", "padding": "valid", "strides": [1, 1], "trainable": [{"args": ["b1", 0, 1], "state": [3, "|", null, null, null, -1, -1, 0]}, "AA==\n"], "use_bias": false}, "inbound_nodes": [[["conv3_block5_0_relu", 0, 0, {}]]], "name": "conv3_block5_1_conv"}, {"class_name": "BatchNormalization", "config": {"axis": 3, "beta_constraint": null, "beta_initializer": {"class_name": "Zeros", "config": {}}, "beta_regularizer": null, "center": true, "epsilon": 1.001e-05, "gamma_constraint": null, "gamma_initializer": {"class_name": "Ones", "config": {}}, "gamma_regularizer": null, "momentum": 0.99, "moving_mean_initializer": {"class_name": "Zeros", "config": {}}, "moving_variance_initializer": {"class_name": "Ones", "config": {}}, "name": "conv3_block5_1_bn", "scale": true, "trainable": [{"args": ["b1", 0, 1], "state": [3, "|", null, null, null, -1, -1, 0]}, "AA==\n"]}, "inbound_nodes": [[["conv3_block5_1_conv", 0, 0, {}]]], "name": "conv3_block5_1_bn"}, {"class_name": "Activation", "config": {"activation": "relu", "name": "conv3_block5_1_relu", "trainable": [{"args": ["b1", 0, 1], "state": [3, "|", null, null, null, -1, -1, 0]}, "AA==\n"]}, "inbound_nodes": [[["conv3_block5_1_bn", 0, 0, {}]]], "name": "conv3_block5_1_relu"}, {"class_name": "Conv2D", "config": {"activation": "linear", "activity_regularizer": null, "bias_constraint": null, "bias_initializer": {"class_name": "Zeros", "config": {}}, "bias_regularizer": null, "data_format": "channels_last", "dilation_rate": [1, 1], "filters": 32, "kernel_constraint": null, "kernel_initializer": {"class_name": "VarianceScaling", "config": {"distribution": "uniform", "mode": "fan_avg", "scale": 1.0, "seed": null}}, "kernel_regularizer": null, "kernel_size": [3, 3], "name": "conv3_block5_2_conv", "padding": "same", "strides": [1, 1], "trainable": [{"args": ["b1", 0, 1], "state": [3, "|", null, null, null, -1, -1, 0]}, "AA==\n"], "use_bias": false}, "inbound_nodes": [[["conv3_block5_1_relu", 0, 0, {}]]], "name": "conv3_block5_2_conv"}, {"class_name": "Concatenate", "config": {"axis": 3, "name": "conv3_block5_concat", "trainable": [{"args": ["b1", 0, 1], "state": [3, "|", null, null, null, -1, -1, 0]}, "AA==\n"]}, "inbound_nodes": [[["conv3_block4_concat", 0, 0, {}], ["conv3_block5_2_conv", 0, 0, {}]]], "name": "conv3_block5_concat"}, {"class_name": "BatchNormalization", "config": {"axis": 3, "beta_constraint": null, "beta_initializer": {"class_name": "Zeros", "config": {}}, "beta_regularizer": null, "center": true, "epsilon": 1.001e-05, "gamma_constraint": null, "gamma_initializer": {"class_name": "Ones", "config": {}}, "gamma_regularizer": null, "momentum": 0.99, "moving_mean_initializer": {"class_name": "Zeros", "config": {}}, "moving_variance_initializer": {"class_name": "Ones", "config": {}}, "name": "conv3_block6_0_bn", "scale": true, "trainable": [{"args": ["b1", 0, 1], "state": [3, "|", null, null, null, -1, -1, 0]}, "AA==\n"]}, "inbound_nodes": [[["conv3_block5_concat", 0, 0, {}]]], "name": "conv3_block6_0_bn"}, {"class_name": "Activation", "config": {"activation": "relu", "name": "conv3_block6_0_relu", "trainable": [{"args": ["b1", 0, 1], "state": [3, "|", null, null, null, -1, -1, 0]}, "AA==\n"]}, "inbound_nodes": [[["conv3_block6_0_bn", 0, 0, {}]]], "name": "conv3_block6_0_relu"}, {"class_name": "Conv2D", "config": {"activation": "linear", "activity_regularizer": null, "bias_constraint": null, "bias_initializer": {"class_name": "Zeros", "config": {}}, "bias_regularizer": null, "data_format": "channels_last", "dilation_rate": [1, 1], "filters": 128, "kernel_constraint": null, "kernel_initializer": {"class_name": "VarianceScaling", "config": {"distribution": "uniform", "mode": "fan_avg", "scale": 1.0, "seed": null}}, "kernel_regularizer": null, "kernel_size": [1, 1], "name": "conv3_block6_1_conv", "padding": "valid", "strides": [1, 1], "trainable": [{"args": ["b1", 0, 1], "state": [3, "|", null, null, null, -1, -1, 0]}, "AA==\n"], "use_bias": false}, "inbound_nodes": [[["conv3_block6_0_relu", 0, 0, {}]]], "name": "conv3_block6_1_conv"}, {"class_name": "BatchNormalization", "config": {"axis": 3, "beta_constraint": null, "beta_initializer": {"class_name": "Zeros", "config": {}}, "beta_regularizer": null, "center": true, "epsilon": 1.001e-05, "gamma_constraint": null, "gamma_initializer": {"class_name": "Ones", "config": {}}, "gamma_regularizer": null, "momentum": 0.99, "moving_mean_initializer": {"class_name": "Zeros", "config": {}}, "moving_variance_initializer": {"class_name": "Ones", "config": {}}, "name": "conv3_block6_1_bn", "scale": true, "trainable": [{"args": ["b1", 0, 1], "state": [3, "|", null, null, null, -1, -1, 0]}, "AA==\n"]}, "inbound_nodes": [[["conv3_block6_1_conv", 0, 0, {}]]], "name": "conv3_block6_1_bn"}, {"class_name": "Activation", "config": {"activation": "relu", "name": "conv3_block6_1_relu", "trainable": [{"args": ["b1", 0, 1], "state": [3, "|", null, null, null, -1, -1, 0]}, "AA==\n"]}, "inbound_nodes": [[["conv3_block6_1_bn", 0, 0, {}]]], "name": "conv3_block6_1_relu"}, {"class_name": "Conv2D", "config": {"activation": "linear", "activity_regularizer": null, "bias_constraint": null, "bias_initializer": {"class_name": "Zeros", "config": {}}, "bias_regularizer": null, "data_format": "channels_last", "dilation_rate": [1, 1], "filters": 32, "kernel_constraint": null, "kernel_initializer": {"class_name": "VarianceScaling", "config": {"distribution": "uniform", "mode": "fan_avg", "scale": 1.0, "seed": null}}, "kernel_regularizer": null, "kernel_size": [3, 3], "name": "conv3_block6_2_conv", "padding": "same", "strides": [1, 1], "trainable": [{"args": ["b1", 0, 1], "state": [3, "|", null, null, null, -1, -1, 0]}, "AA==\n"], "use_bias": false}, "inbound_nodes": [[["conv3_block6_1_relu", 0, 0, {}]]], "name": "conv3_block6_2_conv"}, {"class_name": "Concatenate", "config": {"axis": 3, "name": "conv3_block6_concat", "trainable": [{"args": ["b1", 0, 1], "state": [3, "|", null, null, null, -1, -1, 0]}, "AA==\n"]}, "inbound_nodes": [[["conv3_block5_concat", 0, 0, {}], ["conv3_block6_2_conv", 0, 0, {}]]], "name": "conv3_block6_concat"}, {"class_name": "BatchNormalization", "config": {"axis": 3, "beta_constraint": null, "beta_initializer": {"class_name": "Zeros", "config": {}}, "beta_regularizer": null, "center": true, "epsilon": 1.001e-05, "gamma_constraint": null, "gamma_initializer": {"class_name": "Ones", "config": {}}, "gamma_regularizer": null, "momentum": 0.99, "moving_mean_initializer": {"class_name": "Zeros", "config": {}}, "moving_variance_initializer": {"class_name": "Ones", "config": {}}, "name": "conv3_block7_0_bn", "scale": true, "trainable": [{"args": ["b1", 0, 1], "state": [3, "|", null, null, null, -1, -1, 0]}, "AA==\n"]}, "inbound_nodes": [[["conv3_block6_concat", 0, 0, {}]]], "name": "conv3_block7_0_bn"}, {"class_name": "Activation", "config": {"activation": "relu", "name": "conv3_block7_0_relu", "trainable": [{"args": ["b1", 0, 1], "state": [3, "|", null, null, null, -1, -1, 0]}, "AA==\n"]}, "inbound_nodes": [[["conv3_block7_0_bn", 0, 0, {}]]], "name": "conv3_block7_0_relu"}, {"class_name": "Conv2D", "config": {"activation": "linear", "activity_regularizer": null, "bias_constraint": null, "bias_initializer": {"class_name": "Zeros", "config": {}}, "bias_regularizer": null, "data_format": "channels_last", "dilation_rate": [1, 1], "filters": 128, "kernel_constraint": null, "kernel_initializer": {"class_name": "VarianceScaling", "config": {"distribution": "uniform", "mode": "fan_avg", "scale": 1.0, "seed": null}}, "kernel_regularizer": null, "kernel_size": [1, 1], "name": "conv3_block7_1_conv", "padding": "valid", "strides": [1, 1], "trainable": [{"args": ["b1", 0, 1], "state": [3, "|", null, null, null, -1, -1, 0]}, "AA==\n"], "use_bias": false}, "inbound_nodes": [[["conv3_block7_0_relu", 0, 0, {}]]], "name": "conv3_block7_1_conv"}, {"class_name": "BatchNormalization", "config": {"axis": 3, "beta_constraint": null, "beta_initializer": {"class_name": "Zeros", "config": {}}, "beta_regularizer": null, "center": true, "epsilon": 1.001e-05, "gamma_constraint": null, "gamma_initializer": {"class_name": "Ones", "config": {}}, "gamma_regularizer": null, "momentum": 0.99, "moving_mean_initializer": {"class_name": "Zeros", "config": {}}, "moving_variance_initializer": {"class_name": "Ones", "config": {}}, "name": "conv3_block7_1_bn", "scale": true, "trainable": [{"args": ["b1", 0, 1], "state": [3, "|", null, null, null, -1, -1, 0]}, "AA==\n"]}, "inbound_nodes": [[["conv3_block7_1_conv", 0, 0, {}]]], "name": "conv3_block7_1_bn"}, {"class_name": "Activation", "config": {"activation": "relu", "name": "conv3_block7_1_relu", "trainable": [{"args": ["b1", 0, 1], "state": [3, "|", null, null, null, -1, -1, 0]}, "AA==\n"]}, "inbound_nodes": [[["conv3_block7_1_bn", 0, 0, {}]]], "name": "conv3_block7_1_relu"}, {"class_name": "Conv2D", "config": {"activation": "linear", "activity_regularizer": null, "bias_constraint": null, "bias_initializer": {"class_name": "Zeros", "config": {}}, "bias_regularizer": null, "data_format": "channels_last", "dilation_rate": [1, 1], "filters": 32, "kernel_constraint": null, "kernel_initializer": {"class_name": "VarianceScaling", "config": {"distribution": "uniform", "mode": "fan_avg", "scale": 1.0, "seed": null}}, "kernel_regularizer": null, "kernel_size": [3, 3], "name": "conv3_block7_2_conv", "padding": "same", "strides": [1, 1], "trainable": [{"args": ["b1", 0, 1], "state": [3, "|", null, null, null, -1, -1, 0]}, "AA==\n"], "use_bias": false}, "inbound_nodes": [[["conv3_block7_1_relu", 0, 0, {}]]], "name": "conv3_block7_2_conv"}, {"class_name": "Concatenate", "config": {"axis": 3, "name": "conv3_block7_concat", "trainable": [{"args": ["b1", 0, 1], "state": [3, "|", null, null, null, -1, -1, 0]}, "AA==\n"]}, "inbound_nodes": [[["conv3_block6_concat", 0, 0, {}], ["conv3_block7_2_conv", 0, 0, {}]]], "name": "conv3_block7_concat"}, {"class_name": "BatchNormalization", "config": {"axis": 3, "beta_constraint": null, "beta_initializer": {"class_name": "Zeros", "config": {}}, "beta_regularizer": null, "center": true, "epsilon": 1.001e-05, "gamma_constraint": null, "gamma_initializer": {"class_name": "Ones", "config": {}}, "gamma_regularizer": null, "momentum": 0.99, "moving_mean_initializer": {"class_name": "Zeros", "config": {}}, "moving_variance_initializer": {"class_name": "Ones", "config": {}}, "name": "conv3_block8_0_bn", "scale": true, "trainable": [{"args": ["b1", 0, 1], "state": [3, "|", null, null, null, -1, -1, 0]}, "AA==\n"]}, "inbound_nodes": [[["conv3_block7_concat", 0, 0, {}]]], "name": "conv3_block8_0_bn"}, {"class_name": "Activation", "config": {"activation": "relu", "name": "conv3_block8_0_relu", "trainable": [{"args": ["b1", 0, 1], "state": [3, "|", null, null, null, -1, -1, 0]}, "AA==\n"]}, "inbound_nodes": [[["conv3_block8_0_bn", 0, 0, {}]]], "name": "conv3_block8_0_relu"}, {"class_name": "Conv2D", "config": {"activation": "linear", "activity_regularizer": null, "bias_constraint": null, "bias_initializer": {"class_name": "Zeros", "config": {}}, "bias_regularizer": null, "data_format": "channels_last", "dilation_rate": [1, 1], "filters": 128, "kernel_constraint": null, "kernel_initializer": {"class_name": "VarianceScaling", "config": {"distribution": "uniform", "mode": "fan_avg", "scale": 1.0, "seed": null}}, "kernel_regularizer": null, "kernel_size": [1, 1], "name": "conv3_block8_1_conv", "padding": "valid", "strides": [1, 1], "trainable": [{"args": ["b1", 0, 1], "state": [3, "|", null, null, null, -1, -1, 0]}, "AA==\n"], "use_bias": false}, "inbound_nodes": [[["conv3_block8_0_relu", 0, 0, {}]]], "name": "conv3_block8_1_conv"}, {"class_name": "BatchNormalization", "config": {"axis": 3, "beta_constraint": null, "beta_initializer": {"class_name": "Zeros", "config": {}}, "beta_regularizer": null, "center": true, "epsilon": 1.001e-05, "gamma_constraint": null, "gamma_initializer": {"class_name": "Ones", "config": {}}, "gamma_regularizer": null, "momentum": 0.99, "moving_mean_initializer": {"class_name": "Zeros", "config": {}}, "moving_variance_initializer": {"class_name": "Ones", "config": {}}, "name": "conv3_block8_1_bn", "scale": true, "trainable": [{"args": ["b1", 0, 1], "state": [3, "|", null, null, null, -1, -1, 0]}, "AA==\n"]}, "inbound_nodes": [[["conv3_block8_1_conv", 0, 0, {}]]], "name": "conv3_block8_1_bn"}, {"class_name": "Activation", "config": {"activation": "relu", "name": "conv3_block8_1_relu", "trainable": [{"args": ["b1", 0, 1], "state": [3, "|", null, null, null, -1, -1, 0]}, "AA==\n"]}, "inbound_nodes": [[["conv3_block8_1_bn", 0, 0, {}]]], "name": "conv3_block8_1_relu"}, {"class_name": "Conv2D", "config": {"activation": "linear", "activity_regularizer": null, "bias_constraint": null, "bias_initializer": {"class_name": "Zeros", "config": {}}, "bias_regularizer": null, "data_format": "channels_last", "dilation_rate": [1, 1], "filters": 32, "kernel_constraint": null, "kernel_initializer": {"class_name": "VarianceScaling", "config": {"distribution": "uniform", "mode": "fan_avg", "scale": 1.0, "seed": null}}, "kernel_regularizer": null, "kernel_size": [3, 3], "name": "conv3_block8_2_conv", "padding": "same", "strides": [1, 1], "trainable": [{"args": ["b1", 0, 1], "state": [3, "|", null, null, null, -1, -1, 0]}, "AA==\n"], "use_bias": false}, "inbound_nodes": [[["conv3_block8_1_relu", 0, 0, {}]]], "name": "conv3_block8_2_conv"}, {"class_name": "Concatenate", "config": {"axis": 3, "name": "conv3_block8_concat", "trainable": [{"args": ["b1", 0, 1], "state": [3, "|", null, null, null, -1, -1, 0]}, "AA==\n"]}, "inbound_nodes": [[["conv3_block7_concat", 0, 0, {}], ["conv3_block8_2_conv", 0, 0, {}]]], "name": "conv3_block8_concat"}, {"class_name": "BatchNormalization", "config": {"axis": 3, "beta_constraint": null, "beta_initializer": {"class_name": "Zeros", "config": {}}, "beta_regularizer": null, "center": true, "epsilon": 1.001e-05, "gamma_constraint": null, "gamma_initializer": {"class_name": "Ones", "config": {}}, "gamma_regularizer": null, "momentum": 0.99, "moving_mean_initializer": {"class_name": "Zeros", "config": {}}, "moving_variance_initializer": {"class_name": "Ones", "config": {}}, "name": "conv3_block9_0_bn", "scale": true, "trainable": [{"args": ["b1", 0, 1], "state": [3, "|", null, null, null, -1, -1, 0]}, "AA==\n"]}, "inbound_nodes": [[["conv3_block8_concat", 0, 0, {}]]], "name": "conv3_block9_0_bn"}, {"class_name": "Activation", "config": {"activation": "relu", "name": "conv3_block9_0_relu", "trainable": [{"args": ["b1", 0, 1], "state": [3, "|", null, null, null, -1, -1, 0]}, "AA==\n"]}, "inbound_nodes": [[["conv3_block9_0_bn", 0, 0, {}]]], "name": "conv3_block9_0_relu"}, {"class_name": "Conv2D", "config": {"activation": "linear", "activity_regularizer": null, "bias_constraint": null, "bias_initializer": {"class_name": "Zeros", "config": {}}, "bias_regularizer": null, "data_format": "channels_last", "dilation_rate": [1, 1], "filters": 128, "kernel_constraint": null, "kernel_initializer": {"class_name": "VarianceScaling", "config": {"distribution": "uniform", "mode": "fan_avg", "scale": 1.0, "seed": null}}, "kernel_regularizer": null, "kernel_size": [1, 1], "name": "conv3_block9_1_conv", "padding": "valid", "strides": [1, 1], "trainable": [{"args": ["b1", 0, 1], "state": [3, "|", null, null, null, -1, -1, 0]}, "AA==\n"], "use_bias": false}, "inbound_nodes": [[["conv3_block9_0_relu", 0, 0, {}]]], "name": "conv3_block9_1_conv"}, {"class_name": "BatchNormalization", "config": {"axis": 3, "beta_constraint": null, "beta_initializer": {"class_name": "Zeros", "config": {}}, "beta_regularizer": null, "center": true, "epsilon": 1.001e-05, "gamma_constraint": null, "gamma_initializer": {"class_name": "Ones", "config": {}}, "gamma_regularizer": null, "momentum": 0.99, "moving_mean_initializer": {"class_name": "Zeros", "config": {}}, "moving_variance_initializer": {"class_name": "Ones", "config": {}}, "name": "conv3_block9_1_bn", "scale": true, "trainable": [{"args": ["b1", 0, 1], "state": [3, "|", null, null, null, -1, -1, 0]}, "AA==\n"]}, "inbound_nodes": [[["conv3_block9_1_conv", 0, 0, {}]]], "name": "conv3_block9_1_bn"}, {"class_name": "Activation", "config": {"activation": "relu", "name": "conv3_block9_1_relu", "trainable": [{"args": ["b1", 0, 1], "state": [3, "|", null, null, null, -1, -1, 0]}, "AA==\n"]}, "inbound_nodes": [[["conv3_block9_1_bn", 0, 0, {}]]], "name": "conv3_block9_1_relu"}, {"class_name": "Conv2D", "config": {"activation": "linear", "activity_regularizer": null, "bias_constraint": null, "bias_initializer": {"class_name": "Zeros", "config": {}}, "bias_regularizer": null, "data_format": "channels_last", "dilation_rate": [1, 1], "filters": 32, "kernel_constraint": null, "kernel_initializer": {"class_name": "VarianceScaling", "config": {"distribution": "uniform", "mode": "fan_avg", "scale": 1.0, "seed": null}}, "kernel_regularizer": null, "kernel_size": [3, 3], "name": "conv3_block9_2_conv", "padding": "same", "strides": [1, 1], "trainable": [{"args": ["b1", 0, 1], "state": [3, "|", null, null, null, -1, -1, 0]}, "AA==\n"], "use_bias": false}, "inbound_nodes": [[["conv3_block9_1_relu", 0, 0, {}]]], "name": "conv3_block9_2_conv"}, {"class_name": "Concatenate", "config": {"axis": 3, "name": "conv3_block9_concat", "trainable": [{"args": ["b1", 0, 1], "state": [3, "|", null, null, null, -1, -1, 0]}, "AA==\n"]}, "inbound_nodes": [[["conv3_block8_concat", 0, 0, {}], ["conv3_block9_2_conv", 0, 0, {}]]], "name": "conv3_block9_concat"}, {"class_name": "BatchNormalization", "config": {"axis": 3, "beta_constraint": null, "beta_initializer": {"class_name": "Zeros", "config": {}}, "beta_regularizer": null, "center": true, "epsilon": 1.001e-05, "gamma_constraint": null, "gamma_initializer": {"class_name": "Ones", "config": {}}, "gamma_regularizer": null, "momentum": 0.99, "moving_mean_initializer": {"class_name": "Zeros", "config": {}}, "moving_variance_initializer": {"class_name": "Ones", "config": {}}, "name": "conv3_block10_0_bn", "scale": true, "trainable": [{"args": ["b1", 0, 1], "state": [3, "|", null, null, null, -1, -1, 0]}, "AA==\n"]}, "inbound_nodes": [[["conv3_block9_concat", 0, 0, {}]]], "name": "conv3_block10_0_bn"}, {"class_name": "Activation", "config": {"activation": "relu", "name": "conv3_block10_0_relu", "trainable": [{"args": ["b1", 0, 1], "state": [3, "|", null, null, null, -1, -1, 0]}, "AA==\n"]}, "inbound_nodes": [[["conv3_block10_0_bn", 0, 0, {}]]], "name": "conv3_block10_0_relu"}, {"class_name": "Conv2D", "config": {"activation": "linear", "activity_regularizer": null, "bias_constraint": null, "bias_initializer": {"class_name": "Zeros", "config": {}}, "bias_regularizer": null, "data_format": "channels_last", "dilation_rate": [1, 1], "filters": 128, "kernel_constraint": null, "kernel_initializer": {"class_name": "VarianceScaling", "config": {"distribution": "uniform", "mode": "fan_avg", "scale": 1.0, "seed": null}}, "kernel_regularizer": null, "kernel_size": [1, 1], "name": "conv3_block10_1_conv", "padding": "valid", "strides": [1, 1], "trainable": [{"args": ["b1", 0, 1], "state": [3, "|", null, null, null, -1, -1, 0]}, "AA==\n"], "use_bias": false}, "inbound_nodes": [[["conv3_block10_0_relu", 0, 0, {}]]], "name": "conv3_block10_1_conv"}, {"class_name": "BatchNormalization", "config": {"axis": 3, "beta_constraint": null, "beta_initializer": {"class_name": "Zeros", "config": {}}, "beta_regularizer": null, "center": true, "epsilon": 1.001e-05, "gamma_constraint": null, "gamma_initializer": {"class_name": "Ones", "config": {}}, "gamma_regularizer": null, "momentum": 0.99, "moving_mean_initializer": {"class_name": "Zeros", "config": {}}, "moving_variance_initializer": {"class_name": "Ones", "config": {}}, "name": "conv3_block10_1_bn", "scale": true, "trainable": [{"args": ["b1", 0, 1], "state": [3, "|", null, null, null, -1, -1, 0]}, "AA==\n"]}, "inbound_nodes": [[["conv3_block10_1_conv", 0, 0, {}]]], "name": "conv3_block10_1_bn"}, {"class_name": "Activation", "config": {"activation": "relu", "name": "conv3_block10_1_relu", "trainable": [{"args": ["b1", 0, 1], "state": [3, "|", null, null, null, -1, -1, 0]}, "AA==\n"]}, "inbound_nodes": [[["conv3_block10_1_bn", 0, 0, {}]]], "name": "conv3_block10_1_relu"}, {"class_name": "Conv2D", "config": {"activation": "linear", "activity_regularizer": null, "bias_constraint": null, "bias_initializer": {"class_name": "Zeros", "config": {}}, "bias_regularizer": null, "data_format": "channels_last", "dilation_rate": [1, 1], "filters": 32, "kernel_constraint": null, "kernel_initializer": {"class_name": "VarianceScaling", "config": {"distribution": "uniform", "mode": "fan_avg", "scale": 1.0, "seed": null}}, "kernel_regularizer": null, "kernel_size": [3, 3], "name": "conv3_block10_2_conv", "padding": "same", "strides": [1, 1], "trainable": [{"args": ["b1", 0, 1], "state": [3, "|", null, null, null, -1, -1, 0]}, "AA==\n"], "use_bias": false}, "inbound_nodes": [[["conv3_block10_1_relu", 0, 0, {}]]], "name": "conv3_block10_2_conv"}, {"class_name": "Concatenate", "config": {"axis": 3, "name": "conv3_block10_concat", "trainable": [{"args": ["b1", 0, 1], "state": [3, "|", null, null, null, -1, -1, 0]}, "AA==\n"]}, "inbound_nodes": [[["conv3_block9_concat", 0, 0, {}], ["conv3_block10_2_conv", 0, 0, {}]]], "name": "conv3_block10_concat"}, {"class_name": "BatchNormalization", "config": {"axis": 3, "beta_constraint": null, "beta_initializer": {"class_name": "Zeros", "config": {}}, "beta_regularizer": null, "center": true, "epsilon": 1.001e-05, "gamma_constraint": null, "gamma_initializer": {"class_name": "Ones", "config": {}}, "gamma_regularizer": null, "momentum": 0.99, "moving_mean_initializer": {"class_name": "Zeros", "config": {}}, "moving_variance_initializer": {"class_name": "Ones", "config": {}}, "name": "conv3_block11_0_bn", "scale": true, "trainable": [{"args": ["b1", 0, 1], "state": [3, "|", null, null, null, -1, -1, 0]}, "AA==\n"]}, "inbound_nodes": [[["conv3_block10_concat", 0, 0, {}]]], "name": "conv3_block11_0_bn"}, {"class_name": "Activation", "config": {"activation": "relu", "name": "conv3_block11_0_relu", "trainable": [{"args": ["b1", 0, 1], "state": [3, "|", null, null, null, -1, -1, 0]}, "AA==\n"]}, "inbound_nodes": [[["conv3_block11_0_bn", 0, 0, {}]]], "name": "conv3_block11_0_relu"}, {"class_name": "Conv2D", "config": {"activation": "linear", "activity_regularizer": null, "bias_constraint": null, "bias_initializer": {"class_name": "Zeros", "config": {}}, "bias_regularizer": null, "data_format": "channels_last", "dilation_rate": [1, 1], "filters": 128, "kernel_constraint": null, "kernel_initializer": {"class_name": "VarianceScaling", "config": {"distribution": "uniform", "mode": "fan_avg", "scale": 1.0, "seed": null}}, "kernel_regularizer": null, "kernel_size": [1, 1], "name": "conv3_block11_1_conv", "padding": "valid", "strides": [1, 1], "trainable": [{"args": ["b1", 0, 1], "state": [3, "|", null, null, null, -1, -1, 0]}, "AA==\n"], "use_bias": false}, "inbound_nodes": [[["conv3_block11_0_relu", 0, 0, {}]]], "name": "conv3_block11_1_conv"}, {"class_name": "BatchNormalization", "config": {"axis": 3, "beta_constraint": null, "beta_initializer": {"class_name": "Zeros", "config": {}}, "beta_regularizer": null, "center": true, "epsilon": 1.001e-05, "gamma_constraint": null, "gamma_initializer": {"class_name": "Ones", "config": {}}, "gamma_regularizer": null, "momentum": 0.99, "moving_mean_initializer": {"class_name": "Zeros", "config": {}}, "moving_variance_initializer": {"class_name": "Ones", "config": {}}, "name": "conv3_block11_1_bn", "scale": true, "trainable": [{"args": ["b1", 0, 1], "state": [3, "|", null, null, null, -1, -1, 0]}, "AA==\n"]}, "inbound_nodes": [[["conv3_block11_1_conv", 0, 0, {}]]], "name": "conv3_block11_1_bn"}, {"class_name": "Activation", "config": {"activation": "relu", "name": "conv3_block11_1_relu", "trainable": [{"args": ["b1", 0, 1], "state": [3, "|", null, null, null, -1, -1, 0]}, "AA==\n"]}, "inbound_nodes": [[["conv3_block11_1_bn", 0, 0, {}]]], "name": "conv3_block11_1_relu"}, {"class_name": "Conv2D", "config": {"activation": "linear", "activity_regularizer": null, "bias_constraint": null, "bias_initializer": {"class_name": "Zeros", "config": {}}, "bias_regularizer": null, "data_format": "channels_last", "dilation_rate": [1, 1], "filters": 32, "kernel_constraint": null, "kernel_initializer": {"class_name": "VarianceScaling", "config": {"distribution": "uniform", "mode": "fan_avg", "scale": 1.0, "seed": null}}, "kernel_regularizer": null, "kernel_size": [3, 3], "name": "conv3_block11_2_conv", "padding": "same", "strides": [1, 1], "trainable": [{"args": ["b1", 0, 1], "state": [3, "|", null, null, null, -1, -1, 0]}, "AA==\n"], "use_bias": false}, "inbound_nodes": [[["conv3_block11_1_relu", 0, 0, {}]]], "name": "conv3_block11_2_conv"}, {"class_name": "Concatenate", "config": {"axis": 3, "name": "conv3_block11_concat", "trainable": [{"args": ["b1", 0, 1], "state": [3, "|", null, null, null, -1, -1, 0]}, "AA==\n"]}, "inbound_nodes": [[["conv3_block10_concat", 0, 0, {}], ["conv3_block11_2_conv", 0, 0, {}]]], "name": "conv3_block11_concat"}, {"class_name": "BatchNormalization", "config": {"axis": 3, "beta_constraint": null, "beta_initializer": {"class_name": "Zeros", "config": {}}, "beta_regularizer": null, "center": true, "epsilon": 1.001e-05, "gamma_constraint": null, "gamma_initializer": {"class_name": "Ones", "config": {}}, "gamma_regularizer": null, "momentum": 0.99, "moving_mean_initializer": {"class_name": "Zeros", "config": {}}, "moving_variance_initializer": {"class_name": "Ones", "config": {}}, "name": "conv3_block12_0_bn", "scale": true, "trainable": [{"args": ["b1", 0, 1], "state": [3, "|", null, null, null, -1, -1, 0]}, "AA==\n"]}, "inbound_nodes": [[["conv3_block11_concat", 0, 0, {}]]], "name": "conv3_block12_0_bn"}, {"class_name": "Activation", "config": {"activation": "relu", "name": "conv3_block12_0_relu", "trainable": [{"args": ["b1", 0, 1], "state": [3, "|", null, null, null, -1, -1, 0]}, "AA==\n"]}, "inbound_nodes": [[["conv3_block12_0_bn", 0, 0, {}]]], "name": "conv3_block12_0_relu"}, {"class_name": "Conv2D", "config": {"activation": "linear", "activity_regularizer": null, "bias_constraint": null, "bias_initializer": {"class_name": "Zeros", "config": {}}, "bias_regularizer": null, "data_format": "channels_last", "dilation_rate": [1, 1], "filters": 128, "kernel_constraint": null, "kernel_initializer": {"class_name": "VarianceScaling", "config": {"distribution": "uniform", "mode": "fan_avg", "scale": 1.0, "seed": null}}, "kernel_regularizer": null, "kernel_size": [1, 1], "name": "conv3_block12_1_conv", "padding": "valid", "strides": [1, 1], "trainable": [{"args": ["b1", 0, 1], "state": [3, "|", null, null, null, -1, -1, 0]}, "AA==\n"], "use_bias": false}, "inbound_nodes": [[["conv3_block12_0_relu", 0, 0, {}]]], "name": "conv3_block12_1_conv"}, {"class_name": "BatchNormalization", "config": {"axis": 3, "beta_constraint": null, "beta_initializer": {"class_name": "Zeros", "config": {}}, "beta_regularizer": null, "center": true, "epsilon": 1.001e-05, "gamma_constraint": null, "gamma_initializer": {"class_name": "Ones", "config": {}}, "gamma_regularizer": null, "momentum": 0.99, "moving_mean_initializer": {"class_name": "Zeros", "config": {}}, "moving_variance_initializer": {"class_name": "Ones", "config": {}}, "name": "conv3_block12_1_bn", "scale": true, "trainable": [{"args": ["b1", 0, 1], "state": [3, "|", null, null, null, -1, -1, 0]}, "AA==\n"]}, "inbound_nodes": [[["conv3_block12_1_conv", 0, 0, {}]]], "name": "conv3_block12_1_bn"}, {"class_name": "Activation", "config": {"activation": "relu", "name": "conv3_block12_1_relu", "trainable": [{"args": ["b1", 0, 1], "state": [3, "|", null, null, null, -1, -1, 0]}, "AA==\n"]}, "inbound_nodes": [[["conv3_block12_1_bn", 0, 0, {}]]], "name": "conv3_block12_1_relu"}, {"class_name": "Conv2D", "config": {"activation": "linear", "activity_regularizer": null, "bias_constraint": null, "bias_initializer": {"class_name": "Zeros", "config": {}}, "bias_regularizer": null, "data_format": "channels_last", "dilation_rate": [1, 1], "filters": 32, "kernel_constraint": null, "kernel_initializer": {"class_name": "VarianceScaling", "config": {"distribution": "uniform", "mode": "fan_avg", "scale": 1.0, "seed": null}}, "kernel_regularizer": null, "kernel_size": [3, 3], "name": "conv3_block12_2_conv", "padding": "same", "strides": [1, 1], "trainable": [{"args": ["b1", 0, 1], "state": [3, "|", null, null, null, -1, -1, 0]}, "AA==\n"], "use_bias": false}, "inbound_nodes": [[["conv3_block12_1_relu", 0, 0, {}]]], "name": "conv3_block12_2_conv"}, {"class_name": "Concatenate", "config": {"axis": 3, "name": "conv3_block12_concat", "trainable": [{"args": ["b1", 0, 1], "state": [3, "|", null, null, null, -1, -1, 0]}, "AA==\n"]}, "inbound_nodes": [[["conv3_block11_concat", 0, 0, {}], ["conv3_block12_2_conv", 0, 0, {}]]], "name": "conv3_block12_concat"}, {"class_name": "BatchNormalization", "config": {"axis": 3, "beta_constraint": null, "beta_initializer": {"class_name": "Zeros", "config": {}}, "beta_regularizer": null, "center": true, "epsilon": 1.001e-05, "gamma_constraint": null, "gamma_initializer": {"class_name": "Ones", "config": {}}, "gamma_regularizer": null, "momentum": 0.99, "moving_mean_initializer": {"class_name": "Zeros", "config": {}}, "moving_variance_initializer": {"class_name": "Ones", "config": {}}, "name": "pool3_bn", "scale": true, "trainable": [{"args": ["b1", 0, 1], "state": [3, "|", null, null, null, -1, -1, 0]}, "AA==\n"]}, "inbound_nodes": [[["conv3_block12_concat", 0, 0, {}]]], "name": "pool3_bn"}, {"class_name": "Activation", "config": {"activation": "relu", "name": "pool3_relu", "trainable": [{"args": ["b1", 0, 1], "state": [3, "|", null, null, null, -1, -1, 0]}, "AA==\n"]}, "inbound_nodes": [[["pool3_bn", 0, 0, {}]]], "name": "pool3_relu"}, {"class_name": "Conv2D", "config": {"activation": "linear", "activity_regularizer": null, "bias_constraint": null, "bias_initializer": {"class_name": "Zeros", "config": {}}, "bias_regularizer": null, "data_format": "channels_last", "dilation_rate": [1, 1], "filters": 256, "kernel_constraint": null, "kernel_initializer": {"class_name": "VarianceScaling", "config": {"distribution": "uniform", "mode": "fan_avg", "scale": 1.0, "seed": null}}, "kernel_regularizer": null, "kernel_size": [1, 1], "name": "pool3_conv", "padding": "valid", "strides": [1, 1], "trainable": [{"args": ["b1", 0, 1], "state": [3, "|", null, null, null, -1, -1, 0]}, "AA==\n"], "use_bias": false}, "inbound_nodes": [[["pool3_relu", 0, 0, {}]]], "name": "pool3_conv"}, {"class_name": "AveragePooling2D", "config": {"data_format": "channels_last", "name": "pool3_pool", "padding": "valid", "pool_size": [2, 2], "strides": [2, 2], "trainable": [{"args": ["b1", 0, 1], "state": [3, "|", null, null, null, -1, -1, 0]}, "AA==\n"]}, "inbound_nodes": [[["pool3_conv", 0, 0, {}]]], "name": "pool3_pool"}, {"class_name": "BatchNormalization", "config": {"axis": 3, "beta_constraint": null, "beta_initializer": {"class_name": "Zeros", "config": {}}, "beta_regularizer": null, "center": true, "epsilon": 1.001e-05, "gamma_constraint": null, "gamma_initializer": {"class_name": "Ones", "config": {}}, "gamma_regularizer": null, "momentum": 0.99, "moving_mean_initializer": {"class_name": "Zeros", "config": {}}, "moving_variance_initializer": {"class_name": "Ones", "config": {}}, "name": "conv4_block1_0_bn", "scale": true, "trainable": [{"args": ["b1", 0, 1], "state": [3, "|", null, null, null, -1, -1, 0]}, "AA==\n"]}, "inbound_nodes": [[["pool3_pool", 0, 0, {}]]], "name": "conv4_block1_0_bn"}, {"class_name": "Activation", "config": {"activation": "relu", "name": "conv4_block1_0_relu", "trainable": [{"args": ["b1", 0, 1], "state": [3, "|", null, null, null, -1, -1, 0]}, "AA==\n"]}, "inbound_nodes": [[["conv4_block1_0_bn", 0, 0, {}]]], "name": "conv4_block1_0_relu"}, {"class_name": "Conv2D", "config": {"activation": "linear", "activity_regularizer": null, "bias_constraint": null, "bias_initializer": {"class_name": "Zeros", "config": {}}, "bias_regularizer": null, "data_format": "channels_last", "dilation_rate": [1, 1], "filters": 128, "kernel_constraint": null, "kernel_initializer": {"class_name": "VarianceScaling", "config": {"distribution": "uniform", "mode": "fan_avg", "scale": 1.0, "seed": null}}, "kernel_regularizer": null, "kernel_size": [1, 1], "name": "conv4_block1_1_conv", "padding": "valid", "strides": [1, 1], "trainable": [{"args": ["b1", 0, 1], "state": [3, "|", null, null, null, -1, -1, 0]}, "AA==\n"], "use_bias": false}, "inbound_nodes": [[["conv4_block1_0_relu", 0, 0, {}]]], "name": "conv4_block1_1_conv"}, {"class_name": "BatchNormalization", "config": {"axis": 3, "beta_constraint": null, "beta_initializer": {"class_name": "Zeros", "config": {}}, "beta_regularizer": null, "center": true, "epsilon": 1.001e-05, "gamma_constraint": null, "gamma_initializer": {"class_name": "Ones", "config": {}}, "gamma_regularizer": null, "momentum": 0.99, "moving_mean_initializer": {"class_name": "Zeros", "config": {}}, "moving_variance_initializer": {"class_name": "Ones", "config": {}}, "name": "conv4_block1_1_bn", "scale": true, "trainable": [{"args": ["b1", 0, 1], "state": [3, "|", null, null, null, -1, -1, 0]}, "AA==\n"]}, "inbound_nodes": [[["conv4_block1_1_conv", 0, 0, {}]]], "name": "conv4_block1_1_bn"}, {"class_name": "Activation", "config": {"activation": "relu", "name": "conv4_block1_1_relu", "trainable": [{"args": ["b1", 0, 1], "state": [3, "|", null, null, null, -1, -1, 0]}, "AA==\n"]}, "inbound_nodes": [[["conv4_block1_1_bn", 0, 0, {}]]], "name": "conv4_block1_1_relu"}, {"class_name": "Conv2D", "config": {"activation": "linear", "activity_regularizer": null, "bias_constraint": null, "bias_initializer": {"class_name": "Zeros", "config": {}}, "bias_regularizer": null, "data_format": "channels_last", "dilation_rate": [1, 1], "filters": 32, "kernel_constraint": null, "kernel_initializer": {"class_name": "VarianceScaling", "config": {"distribution": "uniform", "mode": "fan_avg", "scale": 1.0, "seed": null}}, "kernel_regularizer": null, "kernel_size": [3, 3], "name": "conv4_block1_2_conv", "padding": "same", "strides": [1, 1], "trainable": [{"args": ["b1", 0, 1], "state": [3, "|", null, null, null, -1, -1, 0]}, "AA==\n"], "use_bias": false}, "inbound_nodes": [[["conv4_block1_1_relu", 0, 0, {}]]], "name": "conv4_block1_2_conv"}, {"class_name": "Concatenate", "config": {"axis": 3, "name": "conv4_block1_concat", "trainable": [{"args": ["b1", 0, 1], "state": [3, "|", null, null, null, -1, -1, 0]}, "AA==\n"]}, "inbound_nodes": [[["pool3_pool", 0, 0, {}], ["conv4_block1_2_conv", 0, 0, {}]]], "name": "conv4_block1_concat"}, {"class_name": "BatchNormalization", "config": {"axis": 3, "beta_constraint": null, "beta_initializer": {"class_name": "Zeros", "config": {}}, "beta_regularizer": null, "center": true, "epsilon": 1.001e-05, "gamma_constraint": null, "gamma_initializer": {"class_name": "Ones", "config": {}}, "gamma_regularizer": null, "momentum": 0.99, "moving_mean_initializer": {"class_name": "Zeros", "config": {}}, "moving_variance_initializer": {"class_name": "Ones", "config": {}}, "name": "conv4_block2_0_bn", "scale": true, "trainable": [{"args": ["b1", 0, 1], "state": [3, "|", null, null, null, -1, -1, 0]}, "AA==\n"]}, "inbound_nodes": [[["conv4_block1_concat", 0, 0, {}]]], "name": "conv4_block2_0_bn"}, {"class_name": "Activation", "config": {"activation": "relu", "name": "conv4_block2_0_relu", "trainable": [{"args": ["b1", 0, 1], "state": [3, "|", null, null, null, -1, -1, 0]}, "AA==\n"]}, "inbound_nodes": [[["conv4_block2_0_bn", 0, 0, {}]]], "name": "conv4_block2_0_relu"}, {"class_name": "Conv2D", "config": {"activation": "linear", "activity_regularizer": null, "bias_constraint": null, "bias_initializer": {"class_name": "Zeros", "config": {}}, "bias_regularizer": null, "data_format": "channels_last", "dilation_rate": [1, 1], "filters": 128, "kernel_constraint": null, "kernel_initializer": {"class_name": "VarianceScaling", "config": {"distribution": "uniform", "mode": "fan_avg", "scale": 1.0, "seed": null}}, "kernel_regularizer": null, "kernel_size": [1, 1], "name": "conv4_block2_1_conv", "padding": "valid", "strides": [1, 1], "trainable": [{"args": ["b1", 0, 1], "state": [3, "|", null, null, null, -1, -1, 0]}, "AA==\n"], "use_bias": false}, "inbound_nodes": [[["conv4_block2_0_relu", 0, 0, {}]]], "name": "conv4_block2_1_conv"}, {"class_name": "BatchNormalization", "config": {"axis": 3, "beta_constraint": null, "beta_initializer": {"class_name": "Zeros", "config": {}}, "beta_regularizer": null, "center": true, "epsilon": 1.001e-05, "gamma_constraint": null, "gamma_initializer": {"class_name": "Ones", "config": {}}, "gamma_regularizer": null, "momentum": 0.99, "moving_mean_initializer": {"class_name": "Zeros", "config": {}}, "moving_variance_initializer": {"class_name": "Ones", "config": {}}, "name": "conv4_block2_1_bn", "scale": true, "trainable": [{"args": ["b1", 0, 1], "state": [3, "|", null, null, null, -1, -1, 0]}, "AA==\n"]}, "inbound_nodes": [[["conv4_block2_1_conv", 0, 0, {}]]], "name": "conv4_block2_1_bn"}, {"class_name": "Activation", "config": {"activation": "relu", "name": "conv4_block2_1_relu", "trainable": [{"args": ["b1", 0, 1], "state": [3, "|", null, null, null, -1, -1, 0]}, "AA==\n"]}, "inbound_nodes": [[["conv4_block2_1_bn", 0, 0, {}]]], "name": "conv4_block2_1_relu"}, {"class_name": "Conv2D", "config": {"activation": "linear", "activity_regularizer": null, "bias_constraint": null, "bias_initializer": {"class_name": "Zeros", "config": {}}, "bias_regularizer": null, "data_format": "channels_last", "dilation_rate": [1, 1], "filters": 32, "kernel_constraint": null, "kernel_initializer": {"class_name": "VarianceScaling", "config": {"distribution": "uniform", "mode": "fan_avg", "scale": 1.0, "seed": null}}, "kernel_regularizer": null, "kernel_size": [3, 3], "name": "conv4_block2_2_conv", "padding": "same", "strides": [1, 1], "trainable": [{"args": ["b1", 0, 1], "state": [3, "|", null, null, null, -1, -1, 0]}, "AA==\n"], "use_bias": false}, "inbound_nodes": [[["conv4_block2_1_relu", 0, 0, {}]]], "name": "conv4_block2_2_conv"}, {"class_name": "Concatenate", "config": {"axis": 3, "name": "conv4_block2_concat", "trainable": [{"args": ["b1", 0, 1], "state": [3, "|", null, null, null, -1, -1, 0]}, "AA==\n"]}, "inbound_nodes": [[["conv4_block1_concat", 0, 0, {}], ["conv4_block2_2_conv", 0, 0, {}]]], "name": "conv4_block2_concat"}, {"class_name": "BatchNormalization", "config": {"axis": 3, "beta_constraint": null, "beta_initializer": {"class_name": "Zeros", "config": {}}, "beta_regularizer": null, "center": true, "epsilon": 1.001e-05, "gamma_constraint": null, "gamma_initializer": {"class_name": "Ones", "config": {}}, "gamma_regularizer": null, "momentum": 0.99, "moving_mean_initializer": {"class_name": "Zeros", "config": {}}, "moving_variance_initializer": {"class_name": "Ones", "config": {}}, "name": "conv4_block3_0_bn", "scale": true, "trainable": [{"args": ["b1", 0, 1], "state": [3, "|", null, null, null, -1, -1, 0]}, "AA==\n"]}, "inbound_nodes": [[["conv4_block2_concat", 0, 0, {}]]], "name": "conv4_block3_0_bn"}, {"class_name": "Activation", "config": {"activation": "relu", "name": "conv4_block3_0_relu", "trainable": [{"args": ["b1", 0, 1], "state": [3, "|", null, null, null, -1, -1, 0]}, "AA==\n"]}, "inbound_nodes": [[["conv4_block3_0_bn", 0, 0, {}]]], "name": "conv4_block3_0_relu"}, {"class_name": "Conv2D", "config": {"activation": "linear", "activity_regularizer": null, "bias_constraint": null, "bias_initializer": {"class_name": "Zeros", "config": {}}, "bias_regularizer": null, "data_format": "channels_last", "dilation_rate": [1, 1], "filters": 128, "kernel_constraint": null, "kernel_initializer": {"class_name": "VarianceScaling", "config": {"distribution": "uniform", "mode": "fan_avg", "scale": 1.0, "seed": null}}, "kernel_regularizer": null, "kernel_size": [1, 1], "name": "conv4_block3_1_conv", "padding": "valid", "strides": [1, 1], "trainable": [{"args": ["b1", 0, 1], "state": [3, "|", null, null, null, -1, -1, 0]}, "AA==\n"], "use_bias": false}, "inbound_nodes": [[["conv4_block3_0_relu", 0, 0, {}]]], "name": "conv4_block3_1_conv"}, {"class_name": "BatchNormalization", "config": {"axis": 3, "beta_constraint": null, "beta_initializer": {"class_name": "Zeros", "config": {}}, "beta_regularizer": null, "center": true, "epsilon": 1.001e-05, "gamma_constraint": null, "gamma_initializer": {"class_name": "Ones", "config": {}}, "gamma_regularizer": null, "momentum": 0.99, "moving_mean_initializer": {"class_name": "Zeros", "config": {}}, "moving_variance_initializer": {"class_name": "Ones", "config": {}}, "name": "conv4_block3_1_bn", "scale": true, "trainable": [{"args": ["b1", 0, 1], "state": [3, "|", null, null, null, -1, -1, 0]}, "AA==\n"]}, "inbound_nodes": [[["conv4_block3_1_conv", 0, 0, {}]]], "name": "conv4_block3_1_bn"}, {"class_name": "Activation", "config": {"activation": "relu", "name": "conv4_block3_1_relu", "trainable": [{"args": ["b1", 0, 1], "state": [3, "|", null, null, null, -1, -1, 0]}, "AA==\n"]}, "inbound_nodes": [[["conv4_block3_1_bn", 0, 0, {}]]], "name": "conv4_block3_1_relu"}, {"class_name": "Conv2D", "config": {"activation": "linear", "activity_regularizer": null, "bias_constraint": null, "bias_initializer": {"class_name": "Zeros", "config": {}}, "bias_regularizer": null, "data_format": "channels_last", "dilation_rate": [1, 1], "filters": 32, "kernel_constraint": null, "kernel_initializer": {"class_name": "VarianceScaling", "config": {"distribution": "uniform", "mode": "fan_avg", "scale": 1.0, "seed": null}}, "kernel_regularizer": null, "kernel_size": [3, 3], "name": "conv4_block3_2_conv", "padding": "same", "strides": [1, 1], "trainable": [{"args": ["b1", 0, 1], "state": [3, "|", null, null, null, -1, -1, 0]}, "AA==\n"], "use_bias": false}, "inbound_nodes": [[["conv4_block3_1_relu", 0, 0, {}]]], "name": "conv4_block3_2_conv"}, {"class_name": "Concatenate", "config": {"axis": 3, "name": "conv4_block3_concat", "trainable": [{"args": ["b1", 0, 1], "state": [3, "|", null, null, null, -1, -1, 0]}, "AA==\n"]}, "inbound_nodes": [[["conv4_block2_concat", 0, 0, {}], ["conv4_block3_2_conv", 0, 0, {}]]], "name": "conv4_block3_concat"}, {"class_name": "BatchNormalization", "config": {"axis": 3, "beta_constraint": null, "beta_initializer": {"class_name": "Zeros", "config": {}}, "beta_regularizer": null, "center": true, "epsilon": 1.001e-05, "gamma_constraint": null, "gamma_initializer": {"class_name": "Ones", "config": {}}, "gamma_regularizer": null, "momentum": 0.99, "moving_mean_initializer": {"class_name": "Zeros", "config": {}}, "moving_variance_initializer": {"class_name": "Ones", "config": {}}, "name": "conv4_block4_0_bn", "scale": true, "trainable": [{"args": ["b1", 0, 1], "state": [3, "|", null, null, null, -1, -1, 0]}, "AA==\n"]}, "inbound_nodes": [[["conv4_block3_concat", 0, 0, {}]]], "name": "conv4_block4_0_bn"}, {"class_name": "Activation", "config": {"activation": "relu", "name": "conv4_block4_0_relu", "trainable": [{"args": ["b1", 0, 1], "state": [3, "|", null, null, null, -1, -1, 0]}, "AA==\n"]}, "inbound_nodes": [[["conv4_block4_0_bn", 0, 0, {}]]], "name": "conv4_block4_0_relu"}, {"class_name": "Conv2D", "config": {"activation": "linear", "activity_regularizer": null, "bias_constraint": null, "bias_initializer": {"class_name": "Zeros", "config": {}}, "bias_regularizer": null, "data_format": "channels_last", "dilation_rate": [1, 1], "filters": 128, "kernel_constraint": null, "kernel_initializer": {"class_name": "VarianceScaling", "config": {"distribution": "uniform", "mode": "fan_avg", "scale": 1.0, "seed": null}}, "kernel_regularizer": null, "kernel_size": [1, 1], "name": "conv4_block4_1_conv", "padding": "valid", "strides": [1, 1], "trainable": [{"args": ["b1", 0, 1], "state": [3, "|", null, null, null, -1, -1, 0]}, "AA==\n"], "use_bias": false}, "inbound_nodes": [[["conv4_block4_0_relu", 0, 0, {}]]], "name": "conv4_block4_1_conv"}, {"class_name": "BatchNormalization", "config": {"axis": 3, "beta_constraint": null, "beta_initializer": {"class_name": "Zeros", "config": {}}, "beta_regularizer": null, "center": true, "epsilon": 1.001e-05, "gamma_constraint": null, "gamma_initializer": {"class_name": "Ones", "config": {}}, "gamma_regularizer": null, "momentum": 0.99, "moving_mean_initializer": {"class_name": "Zeros", "config": {}}, "moving_variance_initializer": {"class_name": "Ones", "config": {}}, "name": "conv4_block4_1_bn", "scale": true, "trainable": [{"args": ["b1", 0, 1], "state": [3, "|", null, null, null, -1, -1, 0]}, "AA==\n"]}, "inbound_nodes": [[["conv4_block4_1_conv", 0, 0, {}]]], "name": "conv4_block4_1_bn"}, {"class_name": "Activation", "config": {"activation": "relu", "name": "conv4_block4_1_relu", "trainable": [{"args": ["b1", 0, 1], "state": [3, "|", null, null, null, -1, -1, 0]}, "AA==\n"]}, "inbound_nodes": [[["conv4_block4_1_bn", 0, 0, {}]]], "name": "conv4_block4_1_relu"}, {"class_name": "Conv2D", "config": {"activation": "linear", "activity_regularizer": null, "bias_constraint": null, "bias_initializer": {"class_name": "Zeros", "config": {}}, "bias_regularizer": null, "data_format": "channels_last", "dilation_rate": [1, 1], "filters": 32, "kernel_constraint": null, "kernel_initializer": {"class_name": "VarianceScaling", "config": {"distribution": "uniform", "mode": "fan_avg", "scale": 1.0, "seed": null}}, "kernel_regularizer": null, "kernel_size": [3, 3], "name": "conv4_block4_2_conv", "padding": "same", "strides": [1, 1], "trainable": [{"args": ["b1", 0, 1], "state": [3, "|", null, null, null, -1, -1, 0]}, "AA==\n"], "use_bias": false}, "inbound_nodes": [[["conv4_block4_1_relu", 0, 0, {}]]], "name": "conv4_block4_2_conv"}, {"class_name": "Concatenate", "config": {"axis": 3, "name": "conv4_block4_concat", "trainable": [{"args": ["b1", 0, 1], "state": [3, "|", null, null, null, -1, -1, 0]}, "AA==\n"]}, "inbound_nodes": [[["conv4_block3_concat", 0, 0, {}], ["conv4_block4_2_conv", 0, 0, {}]]], "name": "conv4_block4_concat"}, {"class_name": "BatchNormalization", "config": {"axis": 3, "beta_constraint": null, "beta_initializer": {"class_name": "Zeros", "config": {}}, "beta_regularizer": null, "center": true, "epsilon": 1.001e-05, "gamma_constraint": null, "gamma_initializer": {"class_name": "Ones", "config": {}}, "gamma_regularizer": null, "momentum": 0.99, "moving_mean_initializer": {"class_name": "Zeros", "config": {}}, "moving_variance_initializer": {"class_name": "Ones", "config": {}}, "name": "conv4_block5_0_bn", "scale": true, "trainable": [{"args": ["b1", 0, 1], "state": [3, "|", null, null, null, -1, -1, 0]}, "AA==\n"]}, "inbound_nodes": [[["conv4_block4_concat", 0, 0, {}]]], "name": "conv4_block5_0_bn"}, {"class_name": "Activation", "config": {"activation": "relu", "name": "conv4_block5_0_relu", "trainable": [{"args": ["b1", 0, 1], "state": [3, "|", null, null, null, -1, -1, 0]}, "AA==\n"]}, "inbound_nodes": [[["conv4_block5_0_bn", 0, 0, {}]]], "name": "conv4_block5_0_relu"}, {"class_name": "Conv2D", "config": {"activation": "linear", "activity_regularizer": null, "bias_constraint": null, "bias_initializer": {"class_name": "Zeros", "config": {}}, "bias_regularizer": null, "data_format": "channels_last", "dilation_rate": [1, 1], "filters": 128, "kernel_constraint": null, "kernel_initializer": {"class_name": "VarianceScaling", "config": {"distribution": "uniform", "mode": "fan_avg", "scale": 1.0, "seed": null}}, "kernel_regularizer": null, "kernel_size": [1, 1], "name": "conv4_block5_1_conv", "padding": "valid", "strides": [1, 1], "trainable": [{"args": ["b1", 0, 1], "state": [3, "|", null, null, null, -1, -1, 0]}, "AA==\n"], "use_bias": false}, "inbound_nodes": [[["conv4_block5_0_relu", 0, 0, {}]]], "name": "conv4_block5_1_conv"}, {"class_name": "BatchNormalization", "config": {"axis": 3, "beta_constraint": null, "beta_initializer": {"class_name": "Zeros", "config": {}}, "beta_regularizer": null, "center": true, "epsilon": 1.001e-05, "gamma_constraint": null, "gamma_initializer": {"class_name": "Ones", "config": {}}, "gamma_regularizer": null, "momentum": 0.99, "moving_mean_initializer": {"class_name": "Zeros", "config": {}}, "moving_variance_initializer": {"class_name": "Ones", "config": {}}, "name": "conv4_block5_1_bn", "scale": true, "trainable": [{"args": ["b1", 0, 1], "state": [3, "|", null, null, null, -1, -1, 0]}, "AA==\n"]}, "inbound_nodes": [[["conv4_block5_1_conv", 0, 0, {}]]], "name": "conv4_block5_1_bn"}, {"class_name": "Activation", "config": {"activation": "relu", "name": "conv4_block5_1_relu", "trainable": [{"args": ["b1", 0, 1], "state": [3, "|", null, null, null, -1, -1, 0]}, "AA==\n"]}, "inbound_nodes": [[["conv4_block5_1_bn", 0, 0, {}]]], "name": "conv4_block5_1_relu"}, {"class_name": "Conv2D", "config": {"activation": "linear", "activity_regularizer": null, "bias_constraint": null, "bias_initializer": {"class_name": "Zeros", "config": {}}, "bias_regularizer": null, "data_format": "channels_last", "dilation_rate": [1, 1], "filters": 32, "kernel_constraint": null, "kernel_initializer": {"class_name": "VarianceScaling", "config": {"distribution": "uniform", "mode": "fan_avg", "scale": 1.0, "seed": null}}, "kernel_regularizer": null, "kernel_size": [3, 3], "name": "conv4_block5_2_conv", "padding": "same", "strides": [1, 1], "trainable": [{"args": ["b1", 0, 1], "state": [3, "|", null, null, null, -1, -1, 0]}, "AA==\n"], "use_bias": false}, "inbound_nodes": [[["conv4_block5_1_relu", 0, 0, {}]]], "name": "conv4_block5_2_conv"}, {"class_name": "Concatenate", "config": {"axis": 3, "name": "conv4_block5_concat", "trainable": [{"args": ["b1", 0, 1], "state": [3, "|", null, null, null, -1, -1, 0]}, "AA==\n"]}, "inbound_nodes": [[["conv4_block4_concat", 0, 0, {}], ["conv4_block5_2_conv", 0, 0, {}]]], "name": "conv4_block5_concat"}, {"class_name": "BatchNormalization", "config": {"axis": 3, "beta_constraint": null, "beta_initializer": {"class_name": "Zeros", "config": {}}, "beta_regularizer": null, "center": true, "epsilon": 1.001e-05, "gamma_constraint": null, "gamma_initializer": {"class_name": "Ones", "config": {}}, "gamma_regularizer": null, "momentum": 0.99, "moving_mean_initializer": {"class_name": "Zeros", "config": {}}, "moving_variance_initializer": {"class_name": "Ones", "config": {}}, "name": "conv4_block6_0_bn", "scale": true, "trainable": [{"args": ["b1", 0, 1], "state": [3, "|", null, null, null, -1, -1, 0]}, "AA==\n"]}, "inbound_nodes": [[["conv4_block5_concat", 0, 0, {}]]], "name": "conv4_block6_0_bn"}, {"class_name": "Activation", "config": {"activation": "relu", "name": "conv4_block6_0_relu", "trainable": [{"args": ["b1", 0, 1], "state": [3, "|", null, null, null, -1, -1, 0]}, "AA==\n"]}, "inbound_nodes": [[["conv4_block6_0_bn", 0, 0, {}]]], "name": "conv4_block6_0_relu"}, {"class_name": "Conv2D", "config": {"activation": "linear", "activity_regularizer": null, "bias_constraint": null, "bias_initializer": {"class_name": "Zeros", "config": {}}, "bias_regularizer": null, "data_format": "channels_last", "dilation_rate": [1, 1], "filters": 128, "kernel_constraint": null, "kernel_initializer": {"class_name": "VarianceScaling", "config": {"distribution": "uniform", "mode": "fan_avg", "scale": 1.0, "seed": null}}, "kernel_regularizer": null, "kernel_size": [1, 1], "name": "conv4_block6_1_conv", "padding": "valid", "strides": [1, 1], "trainable": [{"args": ["b1", 0, 1], "state": [3, "|", null, null, null, -1, -1, 0]}, "AA==\n"], "use_bias": false}, "inbound_nodes": [[["conv4_block6_0_relu", 0, 0, {}]]], "name": "conv4_block6_1_conv"}, {"class_name": "BatchNormalization", "config": {"axis": 3, "beta_constraint": null, "beta_initializer": {"class_name": "Zeros", "config": {}}, "beta_regularizer": null, "center": true, "epsilon": 1.001e-05, "gamma_constraint": null, "gamma_initializer": {"class_name": "Ones", "config": {}}, "gamma_regularizer": null, "momentum": 0.99, "moving_mean_initializer": {"class_name": "Zeros", "config": {}}, "moving_variance_initializer": {"class_name": "Ones", "config": {}}, "name": "conv4_block6_1_bn", "scale": true, "trainable": [{"args": ["b1", 0, 1], "state": [3, "|", null, null, null, -1, -1, 0]}, "AA==\n"]}, "inbound_nodes": [[["conv4_block6_1_conv", 0, 0, {}]]], "name": "conv4_block6_1_bn"}, {"class_name": "Activation", "config": {"activation": "relu", "name": "conv4_block6_1_relu", "trainable": [{"args": ["b1", 0, 1], "state": [3, "|", null, null, null, -1, -1, 0]}, "AA==\n"]}, "inbound_nodes": [[["conv4_block6_1_bn", 0, 0, {}]]], "name": "conv4_block6_1_relu"}, {"class_name": "Conv2D", "config": {"activation": "linear", "activity_regularizer": null, "bias_constraint": null, "bias_initializer": {"class_name": "Zeros", "config": {}}, "bias_regularizer": null, "data_format": "channels_last", "dilation_rate": [1, 1], "filters": 32, "kernel_constraint": null, "kernel_initializer": {"class_name": "VarianceScaling", "config": {"distribution": "uniform", "mode": "fan_avg", "scale": 1.0, "seed": null}}, "kernel_regularizer": null, "kernel_size": [3, 3], "name": "conv4_block6_2_conv", "padding": "same", "strides": [1, 1], "trainable": [{"args": ["b1", 0, 1], "state": [3, "|", null, null, null, -1, -1, 0]}, "AA==\n"], "use_bias": false}, "inbound_nodes": [[["conv4_block6_1_relu", 0, 0, {}]]], "name": "conv4_block6_2_conv"}, {"class_name": "Concatenate", "config": {"axis": 3, "name": "conv4_block6_concat", "trainable": [{"args": ["b1", 0, 1], "state": [3, "|", null, null, null, -1, -1, 0]}, "AA==\n"]}, "inbound_nodes": [[["conv4_block5_concat", 0, 0, {}], ["conv4_block6_2_conv", 0, 0, {}]]], "name": "conv4_block6_concat"}, {"class_name": "BatchNormalization", "config": {"axis": 3, "beta_constraint": null, "beta_initializer": {"class_name": "Zeros", "config": {}}, "beta_regularizer": null, "center": true, "epsilon": 1.001e-05, "gamma_constraint": null, "gamma_initializer": {"class_name": "Ones", "config": {}}, "gamma_regularizer": null, "momentum": 0.99, "moving_mean_initializer": {"class_name": "Zeros", "config": {}}, "moving_variance_initializer": {"class_name": "Ones", "config": {}}, "name": "conv4_block7_0_bn", "scale": true, "trainable": [{"args": ["b1", 0, 1], "state": [3, "|", null, null, null, -1, -1, 0]}, "AA==\n"]}, "inbound_nodes": [[["conv4_block6_concat", 0, 0, {}]]], "name": "conv4_block7_0_bn"}, {"class_name": "Activation", "config": {"activation": "relu", "name": "conv4_block7_0_relu", "trainable": [{"args": ["b1", 0, 1], "state": [3, "|", null, null, null, -1, -1, 0]}, "AA==\n"]}, "inbound_nodes": [[["conv4_block7_0_bn", 0, 0, {}]]], "name": "conv4_block7_0_relu"}, {"class_name": "Conv2D", "config": {"activation": "linear", "activity_regularizer": null, "bias_constraint": null, "bias_initializer": {"class_name": "Zeros", "config": {}}, "bias_regularizer": null, "data_format": "channels_last", "dilation_rate": [1, 1], "filters": 128, "kernel_constraint": null, "kernel_initializer": {"class_name": "VarianceScaling", "config": {"distribution": "uniform", "mode": "fan_avg", "scale": 1.0, "seed": null}}, "kernel_regularizer": null, "kernel_size": [1, 1], "name": "conv4_block7_1_conv", "padding": "valid", "strides": [1, 1], "trainable": [{"args": ["b1", 0, 1], "state": [3, "|", null, null, null, -1, -1, 0]}, "AA==\n"], "use_bias": false}, "inbound_nodes": [[["conv4_block7_0_relu", 0, 0, {}]]], "name": "conv4_block7_1_conv"}, {"class_name": "BatchNormalization", "config": {"axis": 3, "beta_constraint": null, "beta_initializer": {"class_name": "Zeros", "config": {}}, "beta_regularizer": null, "center": true, "epsilon": 1.001e-05, "gamma_constraint": null, "gamma_initializer": {"class_name": "Ones", "config": {}}, "gamma_regularizer": null, "momentum": 0.99, "moving_mean_initializer": {"class_name": "Zeros", "config": {}}, "moving_variance_initializer": {"class_name": "Ones", "config": {}}, "name": "conv4_block7_1_bn", "scale": true, "trainable": [{"args": ["b1", 0, 1], "state": [3, "|", null, null, null, -1, -1, 0]}, "AA==\n"]}, "inbound_nodes": [[["conv4_block7_1_conv", 0, 0, {}]]], "name": "conv4_block7_1_bn"}, {"class_name": "Activation", "config": {"activation": "relu", "name": "conv4_block7_1_relu", "trainable": [{"args": ["b1", 0, 1], "state": [3, "|", null, null, null, -1, -1, 0]}, "AA==\n"]}, "inbound_nodes": [[["conv4_block7_1_bn", 0, 0, {}]]], "name": "conv4_block7_1_relu"}, {"class_name": "Conv2D", "config": {"activation": "linear", "activity_regularizer": null, "bias_constraint": null, "bias_initializer": {"class_name": "Zeros", "config": {}}, "bias_regularizer": null, "data_format": "channels_last", "dilation_rate": [1, 1], "filters": 32, "kernel_constraint": null, "kernel_initializer": {"class_name": "VarianceScaling", "config": {"distribution": "uniform", "mode": "fan_avg", "scale": 1.0, "seed": null}}, "kernel_regularizer": null, "kernel_size": [3, 3], "name": "conv4_block7_2_conv", "padding": "same", "strides": [1, 1], "trainable": [{"args": ["b1", 0, 1], "state": [3, "|", null, null, null, -1, -1, 0]}, "AA==\n"], "use_bias": false}, "inbound_nodes": [[["conv4_block7_1_relu", 0, 0, {}]]], "name": "conv4_block7_2_conv"}, {"class_name": "Concatenate", "config": {"axis": 3, "name": "conv4_block7_concat", "trainable": [{"args": ["b1", 0, 1], "state": [3, "|", null, null, null, -1, -1, 0]}, "AA==\n"]}, "inbound_nodes": [[["conv4_block6_concat", 0, 0, {}], ["conv4_block7_2_conv", 0, 0, {}]]], "name": "conv4_block7_concat"}, {"class_name": "BatchNormalization", "config": {"axis": 3, "beta_constraint": null, "beta_initializer": {"class_name": "Zeros", "config": {}}, "beta_regularizer": null, "center": true, "epsilon": 1.001e-05, "gamma_constraint": null, "gamma_initializer": {"class_name": "Ones", "config": {}}, "gamma_regularizer": null, "momentum": 0.99, "moving_mean_initializer": {"class_name": "Zeros", "config": {}}, "moving_variance_initializer": {"class_name": "Ones", "config": {}}, "name": "conv4_block8_0_bn", "scale": true, "trainable": [{"args": ["b1", 0, 1], "state": [3, "|", null, null, null, -1, -1, 0]}, "AA==\n"]}, "inbound_nodes": [[["conv4_block7_concat", 0, 0, {}]]], "name": "conv4_block8_0_bn"}, {"class_name": "Activation", "config": {"activation": "relu", "name": "conv4_block8_0_relu", "trainable": [{"args": ["b1", 0, 1], "state": [3, "|", null, null, null, -1, -1, 0]}, "AA==\n"]}, "inbound_nodes": [[["conv4_block8_0_bn", 0, 0, {}]]], "name": "conv4_block8_0_relu"}, {"class_name": "Conv2D", "config": {"activation": "linear", "activity_regularizer": null, "bias_constraint": null, "bias_initializer": {"class_name": "Zeros", "config": {}}, "bias_regularizer": null, "data_format": "channels_last", "dilation_rate": [1, 1], "filters": 128, "kernel_constraint": null, "kernel_initializer": {"class_name": "VarianceScaling", "config": {"distribution": "uniform", "mode": "fan_avg", "scale": 1.0, "seed": null}}, "kernel_regularizer": null, "kernel_size": [1, 1], "name": "conv4_block8_1_conv", "padding": "valid", "strides": [1, 1], "trainable": [{"args": ["b1", 0, 1], "state": [3, "|", null, null, null, -1, -1, 0]}, "AA==\n"], "use_bias": false}, "inbound_nodes": [[["conv4_block8_0_relu", 0, 0, {}]]], "name": "conv4_block8_1_conv"}, {"class_name": "BatchNormalization", "config": {"axis": 3, "beta_constraint": null, "beta_initializer": {"class_name": "Zeros", "config": {}}, "beta_regularizer": null, "center": true, "epsilon": 1.001e-05, "gamma_constraint": null, "gamma_initializer": {"class_name": "Ones", "config": {}}, "gamma_regularizer": null, "momentum": 0.99, "moving_mean_initializer": {"class_name": "Zeros", "config": {}}, "moving_variance_initializer": {"class_name": "Ones", "config": {}}, "name": "conv4_block8_1_bn", "scale": true, "trainable": [{"args": ["b1", 0, 1], "state": [3, "|", null, null, null, -1, -1, 0]}, "AA==\n"]}, "inbound_nodes": [[["conv4_block8_1_conv", 0, 0, {}]]], "name": "conv4_block8_1_bn"}, {"class_name": "Activation", "config": {"activation": "relu", "name": "conv4_block8_1_relu", "trainable": [{"args": ["b1", 0, 1], "state": [3, "|", null, null, null, -1, -1, 0]}, "AA==\n"]}, "inbound_nodes": [[["conv4_block8_1_bn", 0, 0, {}]]], "name": "conv4_block8_1_relu"}, {"class_name": "Conv2D", "config": {"activation": "linear", "activity_regularizer": null, "bias_constraint": null, "bias_initializer": {"class_name": "Zeros", "config": {}}, "bias_regularizer": null, "data_format": "channels_last", "dilation_rate": [1, 1], "filters": 32, "kernel_constraint": null, "kernel_initializer": {"class_name": "VarianceScaling", "config": {"distribution": "uniform", "mode": "fan_avg", "scale": 1.0, "seed": null}}, "kernel_regularizer": null, "kernel_size": [3, 3], "name": "conv4_block8_2_conv", "padding": "same", "strides": [1, 1], "trainable": [{"args": ["b1", 0, 1], "state": [3, "|", null, null, null, -1, -1, 0]}, "AA==\n"], "use_bias": false}, "inbound_nodes": [[["conv4_block8_1_relu", 0, 0, {}]]], "name": "conv4_block8_2_conv"}, {"class_name": "Concatenate", "config": {"axis": 3, "name": "conv4_block8_concat", "trainable": [{"args": ["b1", 0, 1], "state": [3, "|", null, null, null, -1, -1, 0]}, "AA==\n"]}, "inbound_nodes": [[["conv4_block7_concat", 0, 0, {}], ["conv4_block8_2_conv", 0, 0, {}]]], "name": "conv4_block8_concat"}, {"class_name": "BatchNormalization", "config": {"axis": 3, "beta_constraint": null, "beta_initializer": {"class_name": "Zeros", "config": {}}, "beta_regularizer": null, "center": true, "epsilon": 1.001e-05, "gamma_constraint": null, "gamma_initializer": {"class_name": "Ones", "config": {}}, "gamma_regularizer": null, "momentum": 0.99, "moving_mean_initializer": {"class_name": "Zeros", "config": {}}, "moving_variance_initializer": {"class_name": "Ones", "config": {}}, "name": "conv4_block9_0_bn", "scale": true, "trainable": [{"args": ["b1", 0, 1], "state": [3, "|", null, null, null, -1, -1, 0]}, "AA==\n"]}, "inbound_nodes": [[["conv4_block8_concat", 0, 0, {}]]], "name": "conv4_block9_0_bn"}, {"class_name": "Activation", "config": {"activation": "relu", "name": "conv4_block9_0_relu", "trainable": [{"args": ["b1", 0, 1], "state": [3, "|", null, null, null, -1, -1, 0]}, "AA==\n"]}, "inbound_nodes": [[["conv4_block9_0_bn", 0, 0, {}]]], "name": "conv4_block9_0_relu"}, {"class_name": "Conv2D", "config": {"activation": "linear", "activity_regularizer": null, "bias_constraint": null, "bias_initializer": {"class_name": "Zeros", "config": {}}, "bias_regularizer": null, "data_format": "channels_last", "dilation_rate": [1, 1], "filters": 128, "kernel_constraint": null, "kernel_initializer": {"class_name": "VarianceScaling", "config": {"distribution": "uniform", "mode": "fan_avg", "scale": 1.0, "seed": null}}, "kernel_regularizer": null, "kernel_size": [1, 1], "name": "conv4_block9_1_conv", "padding": "valid", "strides": [1, 1], "trainable": [{"args": ["b1", 0, 1], "state": [3, "|", null, null, null, -1, -1, 0]}, "AA==\n"], "use_bias": false}, "inbound_nodes": [[["conv4_block9_0_relu", 0, 0, {}]]], "name": "conv4_block9_1_conv"}, {"class_name": "BatchNormalization", "config": {"axis": 3, "beta_constraint": null, "beta_initializer": {"class_name": "Zeros", "config": {}}, "beta_regularizer": null, "center": true, "epsilon": 1.001e-05, "gamma_constraint": null, "gamma_initializer": {"class_name": "Ones", "config": {}}, "gamma_regularizer": null, "momentum": 0.99, "moving_mean_initializer": {"class_name": "Zeros", "config": {}}, "moving_variance_initializer": {"class_name": "Ones", "config": {}}, "name": "conv4_block9_1_bn", "scale": true, "trainable": [{"args": ["b1", 0, 1], "state": [3, "|", null, null, null, -1, -1, 0]}, "AA==\n"]}, "inbound_nodes": [[["conv4_block9_1_conv", 0, 0, {}]]], "name": "conv4_block9_1_bn"}, {"class_name": "Activation", "config": {"activation": "relu", "name": "conv4_block9_1_relu", "trainable": [{"args": ["b1", 0, 1], "state": [3, "|", null, null, null, -1, -1, 0]}, "AA==\n"]}, "inbound_nodes": [[["conv4_block9_1_bn", 0, 0, {}]]], "name": "conv4_block9_1_relu"}, {"class_name": "Conv2D", "config": {"activation": "linear", "activity_regularizer": null, "bias_constraint": null, "bias_initializer": {"class_name": "Zeros", "config": {}}, "bias_regularizer": null, "data_format": "channels_last", "dilation_rate": [1, 1], "filters": 32, "kernel_constraint": null, "kernel_initializer": {"class_name": "VarianceScaling", "config": {"distribution": "uniform", "mode": "fan_avg", "scale": 1.0, "seed": null}}, "kernel_regularizer": null, "kernel_size": [3, 3], "name": "conv4_block9_2_conv", "padding": "same", "strides": [1, 1], "trainable": [{"args": ["b1", 0, 1], "state": [3, "|", null, null, null, -1, -1, 0]}, "AA==\n"], "use_bias": false}, "inbound_nodes": [[["conv4_block9_1_relu", 0, 0, {}]]], "name": "conv4_block9_2_conv"}, {"class_name": "Concatenate", "config": {"axis": 3, "name": "conv4_block9_concat", "trainable": [{"args": ["b1", 0, 1], "state": [3, "|", null, null, null, -1, -1, 0]}, "AA==\n"]}, "inbound_nodes": [[["conv4_block8_concat", 0, 0, {}], ["conv4_block9_2_conv", 0, 0, {}]]], "name": "conv4_block9_concat"}, {"class_name": "BatchNormalization", "config": {"axis": 3, "beta_constraint": null, "beta_initializer": {"class_name": "Zeros", "config": {}}, "beta_regularizer": null, "center": true, "epsilon": 1.001e-05, "gamma_constraint": null, "gamma_initializer": {"class_name": "Ones", "config": {}}, "gamma_regularizer": null, "momentum": 0.99, "moving_mean_initializer": {"class_name": "Zeros", "config": {}}, "moving_variance_initializer": {"class_name": "Ones", "config": {}}, "name": "conv4_block10_0_bn", "scale": true, "trainable": [{"args": ["b1", 0, 1], "state": [3, "|", null, null, null, -1, -1, 0]}, "AA==\n"]}, "inbound_nodes": [[["conv4_block9_concat", 0, 0, {}]]], "name": "conv4_block10_0_bn"}, {"class_name": "Activation", "config": {"activation": "relu", "name": "conv4_block10_0_relu", "trainable": [{"args": ["b1", 0, 1], "state": [3, "|", null, null, null, -1, -1, 0]}, "AA==\n"]}, "inbound_nodes": [[["conv4_block10_0_bn", 0, 0, {}]]], "name": "conv4_block10_0_relu"}, {"class_name": "Conv2D", "config": {"activation": "linear", "activity_regularizer": null, "bias_constraint": null, "bias_initializer": {"class_name": "Zeros", "config": {}}, "bias_regularizer": null, "data_format": "channels_last", "dilation_rate": [1, 1], "filters": 128, "kernel_constraint": null, "kernel_initializer": {"class_name": "VarianceScaling", "config": {"distribution": "uniform", "mode": "fan_avg", "scale": 1.0, "seed": null}}, "kernel_regularizer": null, "kernel_size": [1, 1], "name": "conv4_block10_1_conv", "padding": "valid", "strides": [1, 1], "trainable": [{"args": ["b1", 0, 1], "state": [3, "|", null, null, null, -1, -1, 0]}, "AA==\n"], "use_bias": false}, "inbound_nodes": [[["conv4_block10_0_relu", 0, 0, {}]]], "name": "conv4_block10_1_conv"}, {"class_name": "BatchNormalization", "config": {"axis": 3, "beta_constraint": null, "beta_initializer": {"class_name": "Zeros", "config": {}}, "beta_regularizer": null, "center": true, "epsilon": 1.001e-05, "gamma_constraint": null, "gamma_initializer": {"class_name": "Ones", "config": {}}, "gamma_regularizer": null, "momentum": 0.99, "moving_mean_initializer": {"class_name": "Zeros", "config": {}}, "moving_variance_initializer": {"class_name": "Ones", "config": {}}, "name": "conv4_block10_1_bn", "scale": true, "trainable": [{"args": ["b1", 0, 1], "state": [3, "|", null, null, null, -1, -1, 0]}, "AA==\n"]}, "inbound_nodes": [[["conv4_block10_1_conv", 0, 0, {}]]], "name": "conv4_block10_1_bn"}, {"class_name": "Activation", "config": {"activation": "relu", "name": "conv4_block10_1_relu", "trainable": [{"args": ["b1", 0, 1], "state": [3, "|", null, null, null, -1, -1, 0]}, "AA==\n"]}, "inbound_nodes": [[["conv4_block10_1_bn", 0, 0, {}]]], "name": "conv4_block10_1_relu"}, {"class_name": "Conv2D", "config": {"activation": "linear", "activity_regularizer": null, "bias_constraint": null, "bias_initializer": {"class_name": "Zeros", "config": {}}, "bias_regularizer": null, "data_format": "channels_last", "dilation_rate": [1, 1], "filters": 32, "kernel_constraint": null, "kernel_initializer": {"class_name": "VarianceScaling", "config": {"distribution": "uniform", "mode": "fan_avg", "scale": 1.0, "seed": null}}, "kernel_regularizer": null, "kernel_size": [3, 3], "name": "conv4_block10_2_conv", "padding": "same", "strides": [1, 1], "trainable": [{"args": ["b1", 0, 1], "state": [3, "|", null, null, null, -1, -1, 0]}, "AA==\n"], "use_bias": false}, "inbound_nodes": [[["conv4_block10_1_relu", 0, 0, {}]]], "name": "conv4_block10_2_conv"}, {"class_name": "Concatenate", "config": {"axis": 3, "name": "conv4_block10_concat", "trainable": [{"args": ["b1", 0, 1], "state": [3, "|", null, null, null, -1, -1, 0]}, "AA==\n"]}, "inbound_nodes": [[["conv4_block9_concat", 0, 0, {}], ["conv4_block10_2_conv", 0, 0, {}]]], "name": "conv4_block10_concat"}, {"class_name": "BatchNormalization", "config": {"axis": 3, "beta_constraint": null, "beta_initializer": {"class_name": "Zeros", "config": {}}, "beta_regularizer": null, "center": true, "epsilon": 1.001e-05, "gamma_constraint": null, "gamma_initializer": {"class_name": "Ones", "config": {}}, "gamma_regularizer": null, "momentum": 0.99, "moving_mean_initializer": {"class_name": "Zeros", "config": {}}, "moving_variance_initializer": {"class_name": "Ones", "config": {}}, "name": "conv4_block11_0_bn", "scale": true, "trainable": [{"args": ["b1", 0, 1], "state": [3, "|", null, null, null, -1, -1, 0]}, "AA==\n"]}, "inbound_nodes": [[["conv4_block10_concat", 0, 0, {}]]], "name": "conv4_block11_0_bn"}, {"class_name": "Activation", "config": {"activation": "relu", "name": "conv4_block11_0_relu", "trainable": [{"args": ["b1", 0, 1], "state": [3, "|", null, null, null, -1, -1, 0]}, "AA==\n"]}, "inbound_nodes": [[["conv4_block11_0_bn", 0, 0, {}]]], "name": "conv4_block11_0_relu"}, {"class_name": "Conv2D", "config": {"activation": "linear", "activity_regularizer": null, "bias_constraint": null, "bias_initializer": {"class_name": "Zeros", "config": {}}, "bias_regularizer": null, "data_format": "channels_last", "dilation_rate": [1, 1], "filters": 128, "kernel_constraint": null, "kernel_initializer": {"class_name": "VarianceScaling", "config": {"distribution": "uniform", "mode": "fan_avg", "scale": 1.0, "seed": null}}, "kernel_regularizer": null, "kernel_size": [1, 1], "name": "conv4_block11_1_conv", "padding": "valid", "strides": [1, 1], "trainable": [{"args": ["b1", 0, 1], "state": [3, "|", null, null, null, -1, -1, 0]}, "AA==\n"], "use_bias": false}, "inbound_nodes": [[["conv4_block11_0_relu", 0, 0, {}]]], "name": "conv4_block11_1_conv"}, {"class_name": "BatchNormalization", "config": {"axis": 3, "beta_constraint": null, "beta_initializer": {"class_name": "Zeros", "config": {}}, "beta_regularizer": null, "center": true, "epsilon": 1.001e-05, "gamma_constraint": null, "gamma_initializer": {"class_name": "Ones", "config": {}}, "gamma_regularizer": null, "momentum": 0.99, "moving_mean_initializer": {"class_name": "Zeros", "config": {}}, "moving_variance_initializer": {"class_name": "Ones", "config": {}}, "name": "conv4_block11_1_bn", "scale": true, "trainable": [{"args": ["b1", 0, 1], "state": [3, "|", null, null, null, -1, -1, 0]}, "AA==\n"]}, "inbound_nodes": [[["conv4_block11_1_conv", 0, 0, {}]]], "name": "conv4_block11_1_bn"}, {"class_name": "Activation", "config": {"activation": "relu", "name": "conv4_block11_1_relu", "trainable": [{"args": ["b1", 0, 1], "state": [3, "|", null, null, null, -1, -1, 0]}, "AA==\n"]}, "inbound_nodes": [[["conv4_block11_1_bn", 0, 0, {}]]], "name": "conv4_block11_1_relu"}, {"class_name": "Conv2D", "config": {"activation": "linear", "activity_regularizer": null, "bias_constraint": null, "bias_initializer": {"class_name": "Zeros", "config": {}}, "bias_regularizer": null, "data_format": "channels_last", "dilation_rate": [1, 1], "filters": 32, "kernel_constraint": null, "kernel_initializer": {"class_name": "VarianceScaling", "config": {"distribution": "uniform", "mode": "fan_avg", "scale": 1.0, "seed": null}}, "kernel_regularizer": null, "kernel_size": [3, 3], "name": "conv4_block11_2_conv", "padding": "same", "strides": [1, 1], "trainable": [{"args": ["b1", 0, 1], "state": [3, "|", null, null, null, -1, -1, 0]}, "AA==\n"], "use_bias": false}, "inbound_nodes": [[["conv4_block11_1_relu", 0, 0, {}]]], "name": "conv4_block11_2_conv"}, {"class_name": "Concatenate", "config": {"axis": 3, "name": "conv4_block11_concat", "trainable": [{"args": ["b1", 0, 1], "state": [3, "|", null, null, null, -1, -1, 0]}, "AA==\n"]}, "inbound_nodes": [[["conv4_block10_concat", 0, 0, {}], ["conv4_block11_2_conv", 0, 0, {}]]], "name": "conv4_block11_concat"}, {"class_name": "BatchNormalization", "config": {"axis": 3, "beta_constraint": null, "beta_initializer": {"class_name": "Zeros", "config": {}}, "beta_regularizer": null, "center": true, "epsilon": 1.001e-05, "gamma_constraint": null, "gamma_initializer": {"class_name": "Ones", "config": {}}, "gamma_regularizer": null, "momentum": 0.99, "moving_mean_initializer": {"class_name": "Zeros", "config": {}}, "moving_variance_initializer": {"class_name": "Ones", "config": {}}, "name": "conv4_block12_0_bn", "scale": true, "trainable": [{"args": ["b1", 0, 1], "state": [3, "|", null, null, null, -1, -1, 0]}, "AA==\n"]}, "inbound_nodes": [[["conv4_block11_concat", 0, 0, {}]]], "name": "conv4_block12_0_bn"}, {"class_name": "Activation", "config": {"activation": "relu", "name": "conv4_block12_0_relu", "trainable": [{"args": ["b1", 0, 1], "state": [3, "|", null, null, null, -1, -1, 0]}, "AA==\n"]}, "inbound_nodes": [[["conv4_block12_0_bn", 0, 0, {}]]], "name": "conv4_block12_0_relu"}, {"class_name": "Conv2D", "config": {"activation": "linear", "activity_regularizer": null, "bias_constraint": null, "bias_initializer": {"class_name": "Zeros", "config": {}}, "bias_regularizer": null, "data_format": "channels_last", "dilation_rate": [1, 1], "filters": 128, "kernel_constraint": null, "kernel_initializer": {"class_name": "VarianceScaling", "config": {"distribution": "uniform", "mode": "fan_avg", "scale": 1.0, "seed": null}}, "kernel_regularizer": null, "kernel_size": [1, 1], "name": "conv4_block12_1_conv", "padding": "valid", "strides": [1, 1], "trainable": [{"args": ["b1", 0, 1], "state": [3, "|", null, null, null, -1, -1, 0]}, "AA==\n"], "use_bias": false}, "inbound_nodes": [[["conv4_block12_0_relu", 0, 0, {}]]], "name": "conv4_block12_1_conv"}, {"class_name": "BatchNormalization", "config": {"axis": 3, "beta_constraint": null, "beta_initializer": {"class_name": "Zeros", "config": {}}, "beta_regularizer": null, "center": true, "epsilon": 1.001e-05, "gamma_constraint": null, "gamma_initializer": {"class_name": "Ones", "config": {}}, "gamma_regularizer": null, "momentum": 0.99, "moving_mean_initializer": {"class_name": "Zeros", "config": {}}, "moving_variance_initializer": {"class_name": "Ones", "config": {}}, "name": "conv4_block12_1_bn", "scale": true, "trainable": [{"args": ["b1", 0, 1], "state": [3, "|", null, null, null, -1, -1, 0]}, "AA==\n"]}, "inbound_nodes": [[["conv4_block12_1_conv", 0, 0, {}]]], "name": "conv4_block12_1_bn"}, {"class_name": "Activation", "config": {"activation": "relu", "name": "conv4_block12_1_relu", "trainable": [{"args": ["b1", 0, 1], "state": [3, "|", null, null, null, -1, -1, 0]}, "AA==\n"]}, "inbound_nodes": [[["conv4_block12_1_bn", 0, 0, {}]]], "name": "conv4_block12_1_relu"}, {"class_name": "Conv2D", "config": {"activation": "linear", "activity_regularizer": null, "bias_constraint": null, "bias_initializer": {"class_name": "Zeros", "config": {}}, "bias_regularizer": null, "data_format": "channels_last", "dilation_rate": [1, 1], "filters": 32, "kernel_constraint": null, "kernel_initializer": {"class_name": "VarianceScaling", "config": {"distribution": "uniform", "mode": "fan_avg", "scale": 1.0, "seed": null}}, "kernel_regularizer": null, "kernel_size": [3, 3], "name": "conv4_block12_2_conv", "padding": "same", "strides": [1, 1], "trainable": [{"args": ["b1", 0, 1], "state": [3, "|", null, null, null, -1, -1, 0]}, "AA==\n"], "use_bias": false}, "inbound_nodes": [[["conv4_block12_1_relu", 0, 0, {}]]], "name": "conv4_block12_2_conv"}, {"class_name": "Concatenate", "config": {"axis": 3, "name": "conv4_block12_concat", "trainable": [{"args": ["b1", 0, 1], "state": [3, "|", null, null, null, -1, -1, 0]}, "AA==\n"]}, "inbound_nodes": [[["conv4_block11_concat", 0, 0, {}], ["conv4_block12_2_conv", 0, 0, {}]]], "name": "conv4_block12_concat"}, {"class_name": "BatchNormalization", "config": {"axis": 3, "beta_constraint": null, "beta_initializer": {"class_name": "Zeros", "config": {}}, "beta_regularizer": null, "center": true, "epsilon": 1.001e-05, "gamma_constraint": null, "gamma_initializer": {"class_name": "Ones", "config": {}}, "gamma_regularizer": null, "momentum": 0.99, "moving_mean_initializer": {"class_name": "Zeros", "config": {}}, "moving_variance_initializer": {"class_name": "Ones", "config": {}}, "name": "conv4_block13_0_bn", "scale": true, "trainable": [{"args": ["b1", 0, 1], "state": [3, "|", null, null, null, -1, -1, 0]}, "AA==\n"]}, "inbound_nodes": [[["conv4_block12_concat", 0, 0, {}]]], "name": "conv4_block13_0_bn"}, {"class_name": "Activation", "config": {"activation": "relu", "name": "conv4_block13_0_relu", "trainable": [{"args": ["b1", 0, 1], "state": [3, "|", null, null, null, -1, -1, 0]}, "AA==\n"]}, "inbound_nodes": [[["conv4_block13_0_bn", 0, 0, {}]]], "name": "conv4_block13_0_relu"}, {"class_name": "Conv2D", "config": {"activation": "linear", "activity_regularizer": null, "bias_constraint": null, "bias_initializer": {"class_name": "Zeros", "config": {}}, "bias_regularizer": null, "data_format": "channels_last", "dilation_rate": [1, 1], "filters": 128, "kernel_constraint": null, "kernel_initializer": {"class_name": "VarianceScaling", "config": {"distribution": "uniform", "mode": "fan_avg", "scale": 1.0, "seed": null}}, "kernel_regularizer": null, "kernel_size": [1, 1], "name": "conv4_block13_1_conv", "padding": "valid", "strides": [1, 1], "trainable": [{"args": ["b1", 0, 1], "state": [3, "|", null, null, null, -1, -1, 0]}, "AA==\n"], "use_bias": false}, "inbound_nodes": [[["conv4_block13_0_relu", 0, 0, {}]]], "name": "conv4_block13_1_conv"}, {"class_name": "BatchNormalization", "config": {"axis": 3, "beta_constraint": null, "beta_initializer": {"class_name": "Zeros", "config": {}}, "beta_regularizer": null, "center": true, "epsilon": 1.001e-05, "gamma_constraint": null, "gamma_initializer": {"class_name": "Ones", "config": {}}, "gamma_regularizer": null, "momentum": 0.99, "moving_mean_initializer": {"class_name": "Zeros", "config": {}}, "moving_variance_initializer": {"class_name": "Ones", "config": {}}, "name": "conv4_block13_1_bn", "scale": true, "trainable": [{"args": ["b1", 0, 1], "state": [3, "|", null, null, null, -1, -1, 0]}, "AA==\n"]}, "inbound_nodes": [[["conv4_block13_1_conv", 0, 0, {}]]], "name": "conv4_block13_1_bn"}, {"class_name": "Activation", "config": {"activation": "relu", "name": "conv4_block13_1_relu", "trainable": [{"args": ["b1", 0, 1], "state": [3, "|", null, null, null, -1, -1, 0]}, "AA==\n"]}, "inbound_nodes": [[["conv4_block13_1_bn", 0, 0, {}]]], "name": "conv4_block13_1_relu"}, {"class_name": "Conv2D", "config": {"activation": "linear", "activity_regularizer": null, "bias_constraint": null, "bias_initializer": {"class_name": "Zeros", "config": {}}, "bias_regularizer": null, "data_format": "channels_last", "dilation_rate": [1, 1], "filters": 32, "kernel_constraint": null, "kernel_initializer": {"class_name": "VarianceScaling", "config": {"distribution": "uniform", "mode": "fan_avg", "scale": 1.0, "seed": null}}, "kernel_regularizer": null, "kernel_size": [3, 3], "name": "conv4_block13_2_conv", "padding": "same", "strides": [1, 1], "trainable": [{"args": ["b1", 0, 1], "state": [3, "|", null, null, null, -1, -1, 0]}, "AA==\n"], "use_bias": false}, "inbound_nodes": [[["conv4_block13_1_relu", 0, 0, {}]]], "name": "conv4_block13_2_conv"}, {"class_name": "Concatenate", "config": {"axis": 3, "name": "conv4_block13_concat", "trainable": [{"args": ["b1", 0, 1], "state": [3, "|", null, null, null, -1, -1, 0]}, "AA==\n"]}, "inbound_nodes": [[["conv4_block12_concat", 0, 0, {}], ["conv4_block13_2_conv", 0, 0, {}]]], "name": "conv4_block13_concat"}, {"class_name": "BatchNormalization", "config": {"axis": 3, "beta_constraint": null, "beta_initializer": {"class_name": "Zeros", "config": {}}, "beta_regularizer": null, "center": true, "epsilon": 1.001e-05, "gamma_constraint": null, "gamma_initializer": {"class_name": "Ones", "config": {}}, "gamma_regularizer": null, "momentum": 0.99, "moving_mean_initializer": {"class_name": "Zeros", "config": {}}, "moving_variance_initializer": {"class_name": "Ones", "config": {}}, "name": "conv4_block14_0_bn", "scale": true, "trainable": [{"args": ["b1", 0, 1], "state": [3, "|", null, null, null, -1, -1, 0]}, "AA==\n"]}, "inbound_nodes": [[["conv4_block13_concat", 0, 0, {}]]], "name": "conv4_block14_0_bn"}, {"class_name": "Activation", "config": {"activation": "relu", "name": "conv4_block14_0_relu", "trainable": [{"args": ["b1", 0, 1], "state": [3, "|", null, null, null, -1, -1, 0]}, "AA==\n"]}, "inbound_nodes": [[["conv4_block14_0_bn", 0, 0, {}]]], "name": "conv4_block14_0_relu"}, {"class_name": "Conv2D", "config": {"activation": "linear", "activity_regularizer": null, "bias_constraint": null, "bias_initializer": {"class_name": "Zeros", "config": {}}, "bias_regularizer": null, "data_format": "channels_last", "dilation_rate": [1, 1], "filters": 128, "kernel_constraint": null, "kernel_initializer": {"class_name": "VarianceScaling", "config": {"distribution": "uniform", "mode": "fan_avg", "scale": 1.0, "seed": null}}, "kernel_regularizer": null, "kernel_size": [1, 1], "name": "conv4_block14_1_conv", "padding": "valid", "strides": [1, 1], "trainable": [{"args": ["b1", 0, 1], "state": [3, "|", null, null, null, -1, -1, 0]}, "AA==\n"], "use_bias": false}, "inbound_nodes": [[["conv4_block14_0_relu", 0, 0, {}]]], "name": "conv4_block14_1_conv"}, {"class_name": "BatchNormalization", "config": {"axis": 3, "beta_constraint": null, "beta_initializer": {"class_name": "Zeros", "config": {}}, "beta_regularizer": null, "center": true, "epsilon": 1.001e-05, "gamma_constraint": null, "gamma_initializer": {"class_name": "Ones", "config": {}}, "gamma_regularizer": null, "momentum": 0.99, "moving_mean_initializer": {"class_name": "Zeros", "config": {}}, "moving_variance_initializer": {"class_name": "Ones", "config": {}}, "name": "conv4_block14_1_bn", "scale": true, "trainable": [{"args": ["b1", 0, 1], "state": [3, "|", null, null, null, -1, -1, 0]}, "AA==\n"]}, "inbound_nodes": [[["conv4_block14_1_conv", 0, 0, {}]]], "name": "conv4_block14_1_bn"}, {"class_name": "Activation", "config": {"activation": "relu", "name": "conv4_block14_1_relu", "trainable": [{"args": ["b1", 0, 1], "state": [3, "|", null, null, null, -1, -1, 0]}, "AA==\n"]}, "inbound_nodes": [[["conv4_block14_1_bn", 0, 0, {}]]], "name": "conv4_block14_1_relu"}, {"class_name": "Conv2D", "config": {"activation": "linear", "activity_regularizer": null, "bias_constraint": null, "bias_initializer": {"class_name": "Zeros", "config": {}}, "bias_regularizer": null, "data_format": "channels_last", "dilation_rate": [1, 1], "filters": 32, "kernel_constraint": null, "kernel_initializer": {"class_name": "VarianceScaling", "config": {"distribution": "uniform", "mode": "fan_avg", "scale": 1.0, "seed": null}}, "kernel_regularizer": null, "kernel_size": [3, 3], "name": "conv4_block14_2_conv", "padding": "same", "strides": [1, 1], "trainable": [{"args": ["b1", 0, 1], "state": [3, "|", null, null, null, -1, -1, 0]}, "AA==\n"], "use_bias": false}, "inbound_nodes": [[["conv4_block14_1_relu", 0, 0, {}]]], "name": "conv4_block14_2_conv"}, {"class_name": "Concatenate", "config": {"axis": 3, "name": "conv4_block14_concat", "trainable": [{"args": ["b1", 0, 1], "state": [3, "|", null, null, null, -1, -1, 0]}, "AA==\n"]}, "inbound_nodes": [[["conv4_block13_concat", 0, 0, {}], ["conv4_block14_2_conv", 0, 0, {}]]], "name": "conv4_block14_concat"}, {"class_name": "BatchNormalization", "config": {"axis": 3, "beta_constraint": null, "beta_initializer": {"class_name": "Zeros", "config": {}}, "beta_regularizer": null, "center": true, "epsilon": 1.001e-05, "gamma_constraint": null, "gamma_initializer": {"class_name": "Ones", "config": {}}, "gamma_regularizer": null, "momentum": 0.99, "moving_mean_initializer": {"class_name": "Zeros", "config": {}}, "moving_variance_initializer": {"class_name": "Ones", "config": {}}, "name": "conv4_block15_0_bn", "scale": true, "trainable": [{"args": ["b1", 0, 1], "state": [3, "|", null, null, null, -1, -1, 0]}, "AA==\n"]}, "inbound_nodes": [[["conv4_block14_concat", 0, 0, {}]]], "name": "conv4_block15_0_bn"}, {"class_name": "Activation", "config": {"activation": "relu", "name": "conv4_block15_0_relu", "trainable": [{"args": ["b1", 0, 1], "state": [3, "|", null, null, null, -1, -1, 0]}, "AA==\n"]}, "inbound_nodes": [[["conv4_block15_0_bn", 0, 0, {}]]], "name": "conv4_block15_0_relu"}, {"class_name": "Conv2D", "config": {"activation": "linear", "activity_regularizer": null, "bias_constraint": null, "bias_initializer": {"class_name": "Zeros", "config": {}}, "bias_regularizer": null, "data_format": "channels_last", "dilation_rate": [1, 1], "filters": 128, "kernel_constraint": null, "kernel_initializer": {"class_name": "VarianceScaling", "config": {"distribution": "uniform", "mode": "fan_avg", "scale": 1.0, "seed": null}}, "kernel_regularizer": null, "kernel_size": [1, 1], "name": "conv4_block15_1_conv", "padding": "valid", "strides": [1, 1], "trainable": [{"args": ["b1", 0, 1], "state": [3, "|", null, null, null, -1, -1, 0]}, "AA==\n"], "use_bias": false}, "inbound_nodes": [[["conv4_block15_0_relu", 0, 0, {}]]], "name": "conv4_block15_1_conv"}, {"class_name": "BatchNormalization", "config": {"axis": 3, "beta_constraint": null, "beta_initializer": {"class_name": "Zeros", "config": {}}, "beta_regularizer": null, "center": true, "epsilon": 1.001e-05, "gamma_constraint": null, "gamma_initializer": {"class_name": "Ones", "config": {}}, "gamma_regularizer": null, "momentum": 0.99, "moving_mean_initializer": {"class_name": "Zeros", "config": {}}, "moving_variance_initializer": {"class_name": "Ones", "config": {}}, "name": "conv4_block15_1_bn", "scale": true, "trainable": [{"args": ["b1", 0, 1], "state": [3, "|", null, null, null, -1, -1, 0]}, "AA==\n"]}, "inbound_nodes": [[["conv4_block15_1_conv", 0, 0, {}]]], "name": "conv4_block15_1_bn"}, {"class_name": "Activation", "config": {"activation": "relu", "name": "conv4_block15_1_relu", "trainable": [{"args": ["b1", 0, 1], "state": [3, "|", null, null, null, -1, -1, 0]}, "AA==\n"]}, "inbound_nodes": [[["conv4_block15_1_bn", 0, 0, {}]]], "name": "conv4_block15_1_relu"}, {"class_name": "Conv2D", "config": {"activation": "linear", "activity_regularizer": null, "bias_constraint": null, "bias_initializer": {"class_name": "Zeros", "config": {}}, "bias_regularizer": null, "data_format": "channels_last", "dilation_rate": [1, 1], "filters": 32, "kernel_constraint": null, "kernel_initializer": {"class_name": "VarianceScaling", "config": {"distribution": "uniform", "mode": "fan_avg", "scale": 1.0, "seed": null}}, "kernel_regularizer": null, "kernel_size": [3, 3], "name": "conv4_block15_2_conv", "padding": "same", "strides": [1, 1], "trainable": [{"args": ["b1", 0, 1], "state": [3, "|", null, null, null, -1, -1, 0]}, "AA==\n"], "use_bias": false}, "inbound_nodes": [[["conv4_block15_1_relu", 0, 0, {}]]], "name": "conv4_block15_2_conv"}, {"class_name": "Concatenate", "config": {"axis": 3, "name": "conv4_block15_concat", "trainable": [{"args": ["b1", 0, 1], "state": [3, "|", null, null, null, -1, -1, 0]}, "AA==\n"]}, "inbound_nodes": [[["conv4_block14_concat", 0, 0, {}], ["conv4_block15_2_conv", 0, 0, {}]]], "name": "conv4_block15_concat"}, {"class_name": "BatchNormalization", "config": {"axis": 3, "beta_constraint": null, "beta_initializer": {"class_name": "Zeros", "config": {}}, "beta_regularizer": null, "center": true, "epsilon": 1.001e-05, "gamma_constraint": null, "gamma_initializer": {"class_name": "Ones", "config": {}}, "gamma_regularizer": null, "momentum": 0.99, "moving_mean_initializer": {"class_name": "Zeros", "config": {}}, "moving_variance_initializer": {"class_name": "Ones", "config": {}}, "name": "conv4_block16_0_bn", "scale": true, "trainable": [{"args": ["b1", 0, 1], "state": [3, "|", null, null, null, -1, -1, 0]}, "AA==\n"]}, "inbound_nodes": [[["conv4_block15_concat", 0, 0, {}]]], "name": "conv4_block16_0_bn"}, {"class_name": "Activation", "config": {"activation": "relu", "name": "conv4_block16_0_relu", "trainable": [{"args": ["b1", 0, 1], "state": [3, "|", null, null, null, -1, -1, 0]}, "AA==\n"]}, "inbound_nodes": [[["conv4_block16_0_bn", 0, 0, {}]]], "name": "conv4_block16_0_relu"}, {"class_name": "Conv2D", "config": {"activation": "linear", "activity_regularizer": null, "bias_constraint": null, "bias_initializer": {"class_name": "Zeros", "config": {}}, "bias_regularizer": null, "data_format": "channels_last", "dilation_rate": [1, 1], "filters": 128, "kernel_constraint": null, "kernel_initializer": {"class_name": "VarianceScaling", "config": {"distribution": "uniform", "mode": "fan_avg", "scale": 1.0, "seed": null}}, "kernel_regularizer": null, "kernel_size": [1, 1], "name": "conv4_block16_1_conv", "padding": "valid", "strides": [1, 1], "trainable": [{"args": ["b1", 0, 1], "state": [3, "|", null, null, null, -1, -1, 0]}, "AA==\n"], "use_bias": false}, "inbound_nodes": [[["conv4_block16_0_relu", 0, 0, {}]]], "name": "conv4_block16_1_conv"}, {"class_name": "BatchNormalization", "config": {"axis": 3, "beta_constraint": null, "beta_initializer": {"class_name": "Zeros", "config": {}}, "beta_regularizer": null, "center": true, "epsilon": 1.001e-05, "gamma_constraint": null, "gamma_initializer": {"class_name": "Ones", "config": {}}, "gamma_regularizer": null, "momentum": 0.99, "moving_mean_initializer": {"class_name": "Zeros", "config": {}}, "moving_variance_initializer": {"class_name": "Ones", "config": {}}, "name": "conv4_block16_1_bn", "scale": true, "trainable": [{"args": ["b1", 0, 1], "state": [3, "|", null, null, null, -1, -1, 0]}, "AA==\n"]}, "inbound_nodes": [[["conv4_block16_1_conv", 0, 0, {}]]], "name": "conv4_block16_1_bn"}, {"class_name": "Activation", "config": {"activation": "relu", "name": "conv4_block16_1_relu", "trainable": [{"args": ["b1", 0, 1], "state": [3, "|", null, null, null, -1, -1, 0]}, "AA==\n"]}, "inbound_nodes": [[["conv4_block16_1_bn", 0, 0, {}]]], "name": "conv4_block16_1_relu"}, {"class_name": "Conv2D", "config": {"activation": "linear", "activity_regularizer": null, "bias_constraint": null, "bias_initializer": {"class_name": "Zeros", "config": {}}, "bias_regularizer": null, "data_format": "channels_last", "dilation_rate": [1, 1], "filters": 32, "kernel_constraint": null, "kernel_initializer": {"class_name": "VarianceScaling", "config": {"distribution": "uniform", "mode": "fan_avg", "scale": 1.0, "seed": null}}, "kernel_regularizer": null, "kernel_size": [3, 3], "name": "conv4_block16_2_conv", "padding": "same", "strides": [1, 1], "trainable": [{"args": ["b1", 0, 1], "state": [3, "|", null, null, null, -1, -1, 0]}, "AA==\n"], "use_bias": false}, "inbound_nodes": [[["conv4_block16_1_relu", 0, 0, {}]]], "name": "conv4_block16_2_conv"}, {"class_name": "Concatenate", "config": {"axis": 3, "name": "conv4_block16_concat", "trainable": [{"args": ["b1", 0, 1], "state": [3, "|", null, null, null, -1, -1, 0]}, "AA==\n"]}, "inbound_nodes": [[["conv4_block15_concat", 0, 0, {}], ["conv4_block16_2_conv", 0, 0, {}]]], "name": "conv4_block16_concat"}, {"class_name": "BatchNormalization", "config": {"axis": 3, "beta_constraint": null, "beta_initializer": {"class_name": "Zeros", "config": {}}, "beta_regularizer": null, "center": true, "epsilon": 1.001e-05, "gamma_constraint": null, "gamma_initializer": {"class_name": "Ones", "config": {}}, "gamma_regularizer": null, "momentum": 0.99, "moving_mean_initializer": {"class_name": "Zeros", "config": {}}, "moving_variance_initializer": {"class_name": "Ones", "config": {}}, "name": "conv4_block17_0_bn", "scale": true, "trainable": [{"args": ["b1", 0, 1], "state": [3, "|", null, null, null, -1, -1, 0]}, "AA==\n"]}, "inbound_nodes": [[["conv4_block16_concat", 0, 0, {}]]], "name": "conv4_block17_0_bn"}, {"class_name": "Activation", "config": {"activation": "relu", "name": "conv4_block17_0_relu", "trainable": [{"args": ["b1", 0, 1], "state": [3, "|", null, null, null, -1, -1, 0]}, "AA==\n"]}, "inbound_nodes": [[["conv4_block17_0_bn", 0, 0, {}]]], "name": "conv4_block17_0_relu"}, {"class_name": "Conv2D", "config": {"activation": "linear", "activity_regularizer": null, "bias_constraint": null, "bias_initializer": {"class_name": "Zeros", "config": {}}, "bias_regularizer": null, "data_format": "channels_last", "dilation_rate": [1, 1], "filters": 128, "kernel_constraint": null, "kernel_initializer": {"class_name": "VarianceScaling", "config": {"distribution": "uniform", "mode": "fan_avg", "scale": 1.0, "seed": null}}, "kernel_regularizer": null, "kernel_size": [1, 1], "name": "conv4_block17_1_conv", "padding": "valid", "strides": [1, 1], "trainable": [{"args": ["b1", 0, 1], "state": [3, "|", null, null, null, -1, -1, 0]}, "AA==\n"], "use_bias": false}, "inbound_nodes": [[["conv4_block17_0_relu", 0, 0, {}]]], "name": "conv4_block17_1_conv"}, {"class_name": "BatchNormalization", "config": {"axis": 3, "beta_constraint": null, "beta_initializer": {"class_name": "Zeros", "config": {}}, "beta_regularizer": null, "center": true, "epsilon": 1.001e-05, "gamma_constraint": null, "gamma_initializer": {"class_name": "Ones", "config": {}}, "gamma_regularizer": null, "momentum": 0.99, "moving_mean_initializer": {"class_name": "Zeros", "config": {}}, "moving_variance_initializer": {"class_name": "Ones", "config": {}}, "name": "conv4_block17_1_bn", "scale": true, "trainable": [{"args": ["b1", 0, 1], "state": [3, "|", null, null, null, -1, -1, 0]}, "AA==\n"]}, "inbound_nodes": [[["conv4_block17_1_conv", 0, 0, {}]]], "name": "conv4_block17_1_bn"}, {"class_name": "Activation", "config": {"activation": "relu", "name": "conv4_block17_1_relu", "trainable": [{"args": ["b1", 0, 1], "state": [3, "|", null, null, null, -1, -1, 0]}, "AA==\n"]}, "inbound_nodes": [[["conv4_block17_1_bn", 0, 0, {}]]], "name": "conv4_block17_1_relu"}, {"class_name": "Conv2D", "config": {"activation": "linear", "activity_regularizer": null, "bias_constraint": null, "bias_initializer": {"class_name": "Zeros", "config": {}}, "bias_regularizer": null, "data_format": "channels_last", "dilation_rate": [1, 1], "filters": 32, "kernel_constraint": null, "kernel_initializer": {"class_name": "VarianceScaling", "config": {"distribution": "uniform", "mode": "fan_avg", "scale": 1.0, "seed": null}}, "kernel_regularizer": null, "kernel_size": [3, 3], "name": "conv4_block17_2_conv", "padding": "same", "strides": [1, 1], "trainable": [{"args": ["b1", 0, 1], "state": [3, "|", null, null, null, -1, -1, 0]}, "AA==\n"], "use_bias": false}, "inbound_nodes": [[["conv4_block17_1_relu", 0, 0, {}]]], "name": "conv4_block17_2_conv"}, {"class_name": "Concatenate", "config": {"axis": 3, "name": "conv4_block17_concat", "trainable": [{"args": ["b1", 0, 1], "state": [3, "|", null, null, null, -1, -1, 0]}, "AA==\n"]}, "inbound_nodes": [[["conv4_block16_concat", 0, 0, {}], ["conv4_block17_2_conv", 0, 0, {}]]], "name": "conv4_block17_concat"}, {"class_name": "BatchNormalization", "config": {"axis": 3, "beta_constraint": null, "beta_initializer": {"class_name": "Zeros", "config": {}}, "beta_regularizer": null, "center": true, "epsilon": 1.001e-05, "gamma_constraint": null, "gamma_initializer": {"class_name": "Ones", "config": {}}, "gamma_regularizer": null, "momentum": 0.99, "moving_mean_initializer": {"class_name": "Zeros", "config": {}}, "moving_variance_initializer": {"class_name": "Ones", "config": {}}, "name": "conv4_block18_0_bn", "scale": true, "trainable": [{"args": ["b1", 0, 1], "state": [3, "|", null, null, null, -1, -1, 0]}, "AA==\n"]}, "inbound_nodes": [[["conv4_block17_concat", 0, 0, {}]]], "name": "conv4_block18_0_bn"}, {"class_name": "Activation", "config": {"activation": "relu", "name": "conv4_block18_0_relu", "trainable": [{"args": ["b1", 0, 1], "state": [3, "|", null, null, null, -1, -1, 0]}, "AA==\n"]}, "inbound_nodes": [[["conv4_block18_0_bn", 0, 0, {}]]], "name": "conv4_block18_0_relu"}, {"class_name": "Conv2D", "config": {"activation": "linear", "activity_regularizer": null, "bias_constraint": null, "bias_initializer": {"class_name": "Zeros", "config": {}}, "bias_regularizer": null, "data_format": "channels_last", "dilation_rate": [1, 1], "filters": 128, "kernel_constraint": null, "kernel_initializer": {"class_name": "VarianceScaling", "config": {"distribution": "uniform", "mode": "fan_avg", "scale": 1.0, "seed": null}}, "kernel_regularizer": null, "kernel_size": [1, 1], "name": "conv4_block18_1_conv", "padding": "valid", "strides": [1, 1], "trainable": [{"args": ["b1", 0, 1], "state": [3, "|", null, null, null, -1, -1, 0]}, "AA==\n"], "use_bias": false}, "inbound_nodes": [[["conv4_block18_0_relu", 0, 0, {}]]], "name": "conv4_block18_1_conv"}, {"class_name": "BatchNormalization", "config": {"axis": 3, "beta_constraint": null, "beta_initializer": {"class_name": "Zeros", "config": {}}, "beta_regularizer": null, "center": true, "epsilon": 1.001e-05, "gamma_constraint": null, "gamma_initializer": {"class_name": "Ones", "config": {}}, "gamma_regularizer": null, "momentum": 0.99, "moving_mean_initializer": {"class_name": "Zeros", "config": {}}, "moving_variance_initializer": {"class_name": "Ones", "config": {}}, "name": "conv4_block18_1_bn", "scale": true, "trainable": [{"args": ["b1", 0, 1], "state": [3, "|", null, null, null, -1, -1, 0]}, "AA==\n"]}, "inbound_nodes": [[["conv4_block18_1_conv", 0, 0, {}]]], "name": "conv4_block18_1_bn"}, {"class_name": "Activation", "config": {"activation": "relu", "name": "conv4_block18_1_relu", "trainable": [{"args": ["b1", 0, 1], "state": [3, "|", null, null, null, -1, -1, 0]}, "AA==\n"]}, "inbound_nodes": [[["conv4_block18_1_bn", 0, 0, {}]]], "name": "conv4_block18_1_relu"}, {"class_name": "Conv2D", "config": {"activation": "linear", "activity_regularizer": null, "bias_constraint": null, "bias_initializer": {"class_name": "Zeros", "config": {}}, "bias_regularizer": null, "data_format": "channels_last", "dilation_rate": [1, 1], "filters": 32, "kernel_constraint": null, "kernel_initializer": {"class_name": "VarianceScaling", "config": {"distribution": "uniform", "mode": "fan_avg", "scale": 1.0, "seed": null}}, "kernel_regularizer": null, "kernel_size": [3, 3], "name": "conv4_block18_2_conv", "padding": "same", "strides": [1, 1], "trainable": [{"args": ["b1", 0, 1], "state": [3, "|", null, null, null, -1, -1, 0]}, "AA==\n"], "use_bias": false}, "inbound_nodes": [[["conv4_block18_1_relu", 0, 0, {}]]], "name": "conv4_block18_2_conv"}, {"class_name": "Concatenate", "config": {"axis": 3, "name": "conv4_block18_concat", "trainable": [{"args": ["b1", 0, 1], "state": [3, "|", null, null, null, -1, -1, 0]}, "AA==\n"]}, "inbound_nodes": [[["conv4_block17_concat", 0, 0, {}], ["conv4_block18_2_conv", 0, 0, {}]]], "name": "conv4_block18_concat"}, {"class_name": "BatchNormalization", "config": {"axis": 3, "beta_constraint": null, "beta_initializer": {"class_name": "Zeros", "config": {}}, "beta_regularizer": null, "center": true, "epsilon": 1.001e-05, "gamma_constraint": null, "gamma_initializer": {"class_name": "Ones", "config": {}}, "gamma_regularizer": null, "momentum": 0.99, "moving_mean_initializer": {"class_name": "Zeros", "config": {}}, "moving_variance_initializer": {"class_name": "Ones", "config": {}}, "name": "conv4_block19_0_bn", "scale": true, "trainable": [{"args": ["b1", 0, 1], "state": [3, "|", null, null, null, -1, -1, 0]}, "AA==\n"]}, "inbound_nodes": [[["conv4_block18_concat", 0, 0, {}]]], "name": "conv4_block19_0_bn"}, {"class_name": "Activation", "config": {"activation": "relu", "name": "conv4_block19_0_relu", "trainable": [{"args": ["b1", 0, 1], "state": [3, "|", null, null, null, -1, -1, 0]}, "AA==\n"]}, "inbound_nodes": [[["conv4_block19_0_bn", 0, 0, {}]]], "name": "conv4_block19_0_relu"}, {"class_name": "Conv2D", "config": {"activation": "linear", "activity_regularizer": null, "bias_constraint": null, "bias_initializer": {"class_name": "Zeros", "config": {}}, "bias_regularizer": null, "data_format": "channels_last", "dilation_rate": [1, 1], "filters": 128, "kernel_constraint": null, "kernel_initializer": {"class_name": "VarianceScaling", "config": {"distribution": "uniform", "mode": "fan_avg", "scale": 1.0, "seed": null}}, "kernel_regularizer": null, "kernel_size": [1, 1], "name": "conv4_block19_1_conv", "padding": "valid", "strides": [1, 1], "trainable": [{"args": ["b1", 0, 1], "state": [3, "|", null, null, null, -1, -1, 0]}, "AA==\n"], "use_bias": false}, "inbound_nodes": [[["conv4_block19_0_relu", 0, 0, {}]]], "name": "conv4_block19_1_conv"}, {"class_name": "BatchNormalization", "config": {"axis": 3, "beta_constraint": null, "beta_initializer": {"class_name": "Zeros", "config": {}}, "beta_regularizer": null, "center": true, "epsilon": 1.001e-05, "gamma_constraint": null, "gamma_initializer": {"class_name": "Ones", "config": {}}, "gamma_regularizer": null, "momentum": 0.99, "moving_mean_initializer": {"class_name": "Zeros", "config": {}}, "moving_variance_initializer": {"class_name": "Ones", "config": {}}, "name": "conv4_block19_1_bn", "scale": true, "trainable": [{"args": ["b1", 0, 1], "state": [3, "|", null, null, null, -1, -1, 0]}, "AA==\n"]}, "inbound_nodes": [[["conv4_block19_1_conv", 0, 0, {}]]], "name": "conv4_block19_1_bn"}, {"class_name": "Activation", "config": {"activation": "relu", "name": "conv4_block19_1_relu", "trainable": [{"args": ["b1", 0, 1], "state": [3, "|", null, null, null, -1, -1, 0]}, "AA==\n"]}, "inbound_nodes": [[["conv4_block19_1_bn", 0, 0, {}]]], "name": "conv4_block19_1_relu"}, {"class_name": "Conv2D", "config": {"activation": "linear", "activity_regularizer": null, "bias_constraint": null, "bias_initializer": {"class_name": "Zeros", "config": {}}, "bias_regularizer": null, "data_format": "channels_last", "dilation_rate": [1, 1], "filters": 32, "kernel_constraint": null, "kernel_initializer": {"class_name": "VarianceScaling", "config": {"distribution": "uniform", "mode": "fan_avg", "scale": 1.0, "seed": null}}, "kernel_regularizer": null, "kernel_size": [3, 3], "name": "conv4_block19_2_conv", "padding": "same", "strides": [1, 1], "trainable": [{"args": ["b1", 0, 1], "state": [3, "|", null, null, null, -1, -1, 0]}, "AA==\n"], "use_bias": false}, "inbound_nodes": [[["conv4_block19_1_relu", 0, 0, {}]]], "name": "conv4_block19_2_conv"}, {"class_name": "Concatenate", "config": {"axis": 3, "name": "conv4_block19_concat", "trainable": [{"args": ["b1", 0, 1], "state": [3, "|", null, null, null, -1, -1, 0]}, "AA==\n"]}, "inbound_nodes": [[["conv4_block18_concat", 0, 0, {}], ["conv4_block19_2_conv", 0, 0, {}]]], "name": "conv4_block19_concat"}, {"class_name": "BatchNormalization", "config": {"axis": 3, "beta_constraint": null, "beta_initializer": {"class_name": "Zeros", "config": {}}, "beta_regularizer": null, "center": true, "epsilon": 1.001e-05, "gamma_constraint": null, "gamma_initializer": {"class_name": "Ones", "config": {}}, "gamma_regularizer": null, "momentum": 0.99, "moving_mean_initializer": {"class_name": "Zeros", "config": {}}, "moving_variance_initializer": {"class_name": "Ones", "config": {}}, "name": "conv4_block20_0_bn", "scale": true, "trainable": [{"args": ["b1", 0, 1], "state": [3, "|", null, null, null, -1, -1, 0]}, "AA==\n"]}, "inbound_nodes": [[["conv4_block19_concat", 0, 0, {}]]], "name": "con…
l, null, null, -1, -1, 0]}, "AA==\n"]}, "inbound_nodes": [[["block7_sepconv1", 0, 0, {}]]], "name": "block7_sepconv1_bn"}, {"class_name": "Activation", "config": {"activation": "relu", "name": "block7_sepconv2_act", "trainable": [{"args": ["b1", 0, 1], "state": [3, "|", null, null, null, -1, -1, 0]}, "AA==\n"]}, "inbound_nodes": [[["block7_sepconv1_bn", 0, 0, {}]]], "name": "block7_sepconv2_act"}, {"class_name": "SeparableConv2D", "config": {"activation": "linear", "activity_regularizer": null, "bias_constraint": null, "bias_initializer": {"class_name": "Zeros", "config": {}}, "bias_regularizer": null, "data_format": "channels_last", "depth_multiplier": 1, "depthwise_constraint": null, "depthwise_initializer": {"class_name": "VarianceScaling", "config": {"distribution": "uniform", "mode": "fan_avg", "scale": 1.0, "seed": null}}, "depthwise_regularizer": null, "dilation_rate": [1, 1], "filters": 728, "kernel_size": [3, 3], "name": "block7_sepconv2", "padding": "same", "pointwise_constraint": null, "pointwise_initializer": {"class_name": "VarianceScaling", "config": {"distribution": "uniform", "mode": "fan_avg", "scale": 1.0, "seed": null}}, "pointwise_regularizer": null, "strides": [1, 1], "trainable": [{"args": ["b1", 0, 1], "state": [3, "|", null, null, null, -1, -1, 0]}, "AA==\n"], "use_bias": false}, "inbound_nodes": [[["block7_sepconv2_act", 0, 0, {}]]], "name": "block7_sepconv2"}, {"class_name": "BatchNormalization", "config": {"axis": -1, "beta_constraint": null, "beta_initializer": {"class_name": "Zeros", "config": {}}, "beta_regularizer": null, "center": true, "epsilon": 0.001, "gamma_constraint": null, "gamma_initializer": {"class_name": "Ones", "config": {}}, "gamma_regularizer": null, "momentum": 0.99, "moving_mean_initializer": {"class_name": "Zeros", "config": {}}, "moving_variance_initializer": {"class_name": "Ones", "config": {}}, "name": "block7_sepconv2_bn", "scale": true, "trainable": [{"args": ["b1", 0, 1], "state": [3, "|", null, null, null, -1, -1, 0]}, "AA==\n"]}, "inbound_nodes": [[["block7_sepconv2", 0, 0, {}]]], "name": "block7_sepconv2_bn"}, {"class_name": "Activation", "config": {"activation": "relu", "name": "block7_sepconv3_act", "trainable": [{"args": ["b1", 0, 1], "state": [3, "|", null, null, null, -1, -1, 0]}, "AA==\n"]}, "inbound_nodes": [[["block7_sepconv2_bn", 0, 0, {}]]], "name": "block7_sepconv3_act"}, {"class_name": "SeparableConv2D", "config": {"activation": "linear", "activity_regularizer": null, "bias_constraint": null, "bias_initializer": {"class_name": "Zeros", "config": {}}, "bias_regularizer": null, "data_format": "channels_last", "depth_multiplier": 1, "depthwise_constraint": null, "depthwise_initializer": {"class_name": "VarianceScaling", "config": {"distribution": "uniform", "mode": "fan_avg", "scale": 1.0, "seed": null}}, "depthwise_regularizer": null, "dilation_rate": [1, 1], "filters": 728, "kernel_size": [3, 3], "name": "block7_sepconv3", "padding": "same", "pointwise_constraint": null, "pointwise_initializer": {"class_name": "VarianceScaling", "config": {"distribution": "uniform", "mode": "fan_avg", "scale": 1.0, "seed": null}}, "pointwise_regularizer": null, "strides": [1, 1], "trainable": [{"args": ["b1", 0, 1], "state": [3, "|", null, null, null, -1, -1, 0]}, "AA==\n"], "use_bias": false}, "inbound_nodes": [[["block7_sepconv3_act", 0, 0, {}]]], "name": "block7_sepconv3"}, {"class_name": "BatchNormalization", "config": {"axis": -1, "beta_constraint": null, "beta_initializer": {"class_name": "Zeros", "config": {}}, "beta_regularizer": null, "center": true, "epsilon": 0.001, "gamma_constraint": null, "gamma_initializer": {"class_name": "Ones", "config": {}}, "gamma_regularizer": null, "momentum": 0.99, "moving_mean_initializer": {"class_name": "Zeros", "config": {}}, "moving_variance_initializer": {"class_name": "Ones", "config": {}}, "name": "block7_sepconv3_bn", "scale": true, "trainable": [{"args": ["b1", 0, 1], "state": [3, "|", null, null, null, -1, -1, 0]}, "AA==\n"]}, "inbound_nodes": [[["block7_sepconv3", 0, 0, {}]]], "name": "block7_sepconv3_bn"}, {"class_name": "Add", "config": {"name": "add_6", "trainable": [{"args": ["b1", 0, 1], "state": [3, "|", null, null, null, -1, -1, 0]}, "AA==\n"]}, "inbound_nodes": [[["block7_sepconv3_bn", 0, 0, {}], ["add_5", 0, 0, {}]]], "name": "add_6"}, {"class_name": "Activation", "config": {"activation": "relu", "name": "block8_sepconv1_act", "trainable": [{"args": ["b1", 0, 1], "state": [3, "|", null, null, null, -1, -1, 0]}, "AA==\n"]}, "inbound_nodes": [[["add_6", 0, 0, {}]]], "name": "block8_sepconv1_act"}, {"class_name": "SeparableConv2D", "config": {"activation": "linear", "activity_regularizer": null, "bias_constraint": null, "bias_initializer": {"class_name": "Zeros", "config": {}}, "bias_regularizer": null, "data_format": "channels_last", "depth_multiplier": 1, "depthwise_constraint": null, "depthwise_initializer": {"class_name": "VarianceScaling", "config": {"distribution": "uniform", "mode": "fan_avg", "scale": 1.0, "seed": null}}, "depthwise_regularizer": null, "dilation_rate": [1, 1], "filters": 728, "kernel_size": [3, 3], "name": "block8_sepconv1", "padding": "same", "pointwise_constraint": null, "pointwise_initializer": {"class_name": "VarianceScaling", "config": {"distribution": "uniform", "mode": "fan_avg", "scale": 1.0, "seed": null}}, "pointwise_regularizer": null, "strides": [1, 1], "trainable": [{"args": ["b1", 0, 1], "state": [3, "|", null, null, null, -1, -1, 0]}, "AA==\n"], "use_bias": false}, "inbound_nodes": [[["block8_sepconv1_act", 0, 0, {}]]], "name": "block8_sepconv1"}, {"class_name": "BatchNormalization", "config": {"axis": -1, "beta_constraint": null, "beta_initializer": {"class_name": "Zeros", "config": {}}, "beta_regularizer": null, "center": true, "epsilon": 0.001, "gamma_constraint": null, "gamma_initializer": {"class_name": "Ones", "config": {}}, "gamma_regularizer": null, "momentum": 0.99, "moving_mean_initializer": {"class_name": "Zeros", "config": {}}, "moving_variance_initializer": {"class_name": "Ones", "config": {}}, "name": "block8_sepconv1_bn", "scale": true, "trainable": [{"args": ["b1", 0, 1], "state": [3, "|", null, null, null, -1, -1, 0]}, "AA==\n"]}, "inbound_nodes": [[["block8_sepconv1", 0, 0, {}]]], "name": "block8_sepconv1_bn"}, {"class_name": "Activation", "config": {"activation": "relu", "name": "block8_sepconv2_act", "trainable": [{"args": ["b1", 0, 1], "state": [3, "|", null, null, null, -1, -1, 0]}, "AA==\n"]}, "inbound_nodes": [[["block8_sepconv1_bn", 0, 0, {}]]], "name": "block8_sepconv2_act"}, {"class_name": "SeparableConv2D", "config": {"activation": "linear", "activity_regularizer": null, "bias_constraint": null, "bias_initializer": {"class_name": "Zeros", "config": {}}, "bias_regularizer": null, "data_format": "channels_last", "depth_multiplier": 1, "depthwise_constraint": null, "depthwise_initializer": {"class_name": "VarianceScaling", "config": {"distribution": "uniform", "mode": "fan_avg", "scale": 1.0, "seed": null}}, "depthwise_regularizer": null, "dilation_rate": [1, 1], "filters": 728, "kernel_size": [3, 3], "name": "block8_sepconv2", "padding": "same", "pointwise_constraint": null, "pointwise_initializer": {"class_name": "VarianceScaling", "config": {"distribution": "uniform", "mode": "fan_avg", "scale": 1.0, "seed": null}}, "pointwise_regularizer": null, "strides": [1, 1], "trainable": [{"args": ["b1", 0, 1], "state": [3, "|", null, null, null, -1, -1, 0]}, "AA==\n"], "use_bias": false}, "inbound_nodes": [[["block8_sepconv2_act", 0, 0, {}]]], "name": "block8_sepconv2"}, {"class_name": "BatchNormalization", "config": {"axis": -1, "beta_constraint": null, "beta_initializer": {"class_name": "Zeros", "config": {}}, "beta_regularizer": null, "center": true, "epsilon": 0.001, "gamma_constraint": null, "gamma_initializer": {"class_name": "Ones", "config": {}}, "gamma_regularizer": null, "momentum": 0.99, "moving_mean_initializer": {"class_name": "Zeros", "config": {}}, "moving_variance_initializer": {"class_name": "Ones", "config": {}}, "name": "block8_sepconv2_bn", "scale": true, "trainable": [{"args": ["b1", 0, 1], "state": [3, "|", null, null, null, -1, -1, 0]}, "AA==\n"]}, "inbound_nodes": [[["block8_sepconv2", 0, 0, {}]]], "name": "block8_sepconv2_bn"}, {"class_name": "Activation", "config": {"activation": "relu", "name": "block8_sepconv3_act", "trainable": [{"args": ["b1", 0, 1], "state": [3, "|", null, null, null, -1, -1, 0]}, "AA==\n"]}, "inbound_nodes": [[["block8_sepconv2_bn", 0, 0, {}]]], "name": "block8_sepconv3_act"}, {"class_name": "SeparableConv2D", "config": {"activation": "linear", "activity_regularizer": null, "bias_constraint": null, "bias_initializer": {"class_name": "Zeros", "config": {}}, "bias_regularizer": null, "data_format": "channels_last", "depth_multiplier": 1, "depthwise_constraint": null, "depthwise_initializer": {"class_name": "VarianceScaling", "config": {"distribution": "uniform", "mode": "fan_avg", "scale": 1.0, "seed": null}}, "depthwise_regularizer": null, "dilation_rate": [1, 1], "filters": 728, "kernel_size": [3, 3], "name": "block8_sepconv3", "padding": "same", "pointwise_constraint": null, "pointwise_initializer": {"class_name": "VarianceScaling", "config": {"distribution": "uniform", "mode": "fan_avg", "scale": 1.0, "seed": null}}, "pointwise_regularizer": null, "strides": [1, 1], "trainable": [{"args": ["b1", 0, 1], "state": [3, "|", null, null, null, -1, -1, 0]}, "AA==\n"], "use_bias": false}, "inbound_nodes": [[["block8_sepconv3_act", 0, 0, {}]]], "name": "block8_sepconv3"}, {"class_name": "BatchNormalization", "config": {"axis": -1, "beta_constraint": null, "beta_initializer": {"class_name": "Zeros", "config": {}}, "beta_regularizer": null, "center": true, "epsilon": 0.001, "gamma_constraint": null, "gamma_initializer": {"class_name": "Ones", "config": {}}, "gamma_regularizer": null, "momentum": 0.99, "moving_mean_initializer": {"class_name": "Zeros", "config": {}}, "moving_variance_initializer": {"class_name": "Ones", "config": {}}, "name": "block8_sepconv3_bn", "scale": true, "trainable": [{"args": ["b1", 0, 1], "state": [3, "|", null, null, null, -1, -1, 0]}, "AA==\n"]}, "inbound_nodes": [[["block8_sepconv3", 0, 0, {}]]], "name": "block8_sepconv3_bn"}, {"class_name": "Add", "config": {"name": "add_7", "trainable": [{"args": ["b1", 0, 1], "state": [3, "|", null, null, null, -1, -1, 0]}, "AA==\n"]}, "inbound_nodes": [[["block8_sepconv3_bn", 0, 0, {}], ["add_6", 0, 0, {}]]], "name": "add_7"}, {"class_name": "Activation", "config": {"activation": "relu", "name": "block9_sepconv1_act", "trainable": [{"args": ["b1", 0, 1], "state": [3, "|", null, null, null, -1, -1, 0]}, "AA==\n"]}, "inbound_nodes": [[["add_7", 0, 0, {}]]], "name": "block9_sepconv1_act"}, {"class_name": "SeparableConv2D", "config": {"activation": "linear", "activity_regularizer": null, "bias_constraint": null, "bias_initializer": {"class_name": "Zeros", "config": {}}, "bias_regularizer": null, "data_format": "channels_last", "depth_multiplier": 1, "depthwise_constraint": null, "depthwise_initializer": {"class_name": "VarianceScaling", "config": {"distribution": "uniform", "mode": "fan_avg", "scale": 1.0, "seed": null}}, "depthwise_regularizer": null, "dilation_rate": [1, 1], "filters": 728, "kernel_size": [3, 3], "name": "block9_sepconv1", "padding": "same", "pointwise_constraint": null, "pointwise_initializer": {"class_name": "VarianceScaling", "config": {"distribution": "uniform", "mode": "fan_avg", "scale": 1.0, "seed": null}}, "pointwise_regularizer": null, "strides": [1, 1], "trainable": [{"args": ["b1", 0, 1], "state": [3, "|", null, null, null, -1, -1, 0]}, "AA==\n"], "use_bias": false}, "inbound_nodes": [[["block9_sepconv1_act", 0, 0, {}]]], "name": "block9_sepconv1"}, {"class_name": "BatchNormalization", "config": {"axis": -1, "beta_constraint": null, "beta_initializer": {"class_name": "Zeros", "config": {}}, "beta_regularizer": null, "center": true, "epsilon": 0.001, "gamma_constraint": null, "gamma_initializer": {"class_name": "Ones", "config": {}}, "gamma_regularizer": null, "momentum": 0.99, "moving_mean_initializer": {"class_name": "Zeros", "config": {}}, "moving_variance_initializer": {"class_name": "Ones", "config": {}}, "name": "block9_sepconv1_bn", "scale": true, "trainable": [{"args": ["b1", 0, 1], "state": [3, "|", null, null, null, -1, -1, 0]}, "AA==\n"]}, "inbound_nodes": [[["block9_sepconv1", 0, 0, {}]]], "name": "block9_sepconv1_bn"}, {"class_name": "Activation", "config": {"activation": "relu", "name": "block9_sepconv2_act", "trainable": [{"args": ["b1", 0, 1], "state": [3, "|", null, null, null, -1, -1, 0]}, "AA==\n"]}, "inbound_nodes": [[["block9_sepconv1_bn", 0, 0, {}]]], "name": "block9_sepconv2_act"}, {"class_name": "SeparableConv2D", "config": {"activation": "linear", "activity_regularizer": null, "bias_constraint": null, "bias_initializer": {"class_name": "Zeros", "config": {}}, "bias_regularizer": null, "data_format": "channels_last", "depth_multiplier": 1, "depthwise_constraint": null, "depthwise_initializer": {"class_name": "VarianceScaling", "config": {"distribution": "uniform", "mode": "fan_avg", "scale": 1.0, "seed": null}}, "depthwise_regularizer": null, "dilation_rate": [1, 1], "filters": 728, "kernel_size": [3, 3], "name": "block9_sepconv2", "padding": "same", "pointwise_constraint": null, "pointwise_initializer": {"class_name": "VarianceScaling", "config": {"distribution": "uniform", "mode": "fan_avg", "scale": 1.0, "seed": null}}, "pointwise_regularizer": null, "strides": [1, 1], "trainable": [{"args": ["b1", 0, 1], "state": [3, "|", null, null, null, -1, -1, 0]}, "AA==\n"], "use_bias": false}, "inbound_nodes": [[["block9_sepconv2_act", 0, 0, {}]]], "name": "block9_sepconv2"}, {"class_name": "BatchNormalization", "config": {"axis": -1, "beta_constraint": null, "beta_initializer": {"class_name": "Zeros", "config": {}}, "beta_regularizer": null, "center": true, "epsilon": 0.001, "gamma_constraint": null, "gamma_initializer": {"class_name": "Ones", "config": {}}, "gamma_regularizer": null, "momentum": 0.99, "moving_mean_initializer": {"class_name": "Zeros", "config": {}}, "moving_variance_initializer": {"class_name": "Ones", "config": {}}, "name": "block9_sepconv2_bn", "scale": true, "trainable": [{"args": ["b1", 0, 1], "state": [3, "|", null, null, null, -1, -1, 0]}, "AA==\n"]}, "inbound_nodes": [[["block9_sepconv2", 0, 0, {}]]], "name": "block9_sepconv2_bn"}, {"class_name": "Activation", "config": {"activation": "relu", "name": "block9_sepconv3_act", "trainable": [{"args": ["b1", 0, 1], "state": [3, "|", null, null, null, -1, -1, 0]}, "AA==\n"]}, "inbound_nodes": [[["block9_sepconv2_bn", 0, 0, {}]]], "name": "block9_sepconv3_act"}, {"class_name": "SeparableConv2D", "config": {"activation": "linear", "activity_regularizer": null, "bias_constraint": null, "bias_initializer": {"class_name": "Zeros", "config": {}}, "bias_regularizer": null, "data_format": "channels_last", "depth_multiplier": 1, "depthwise_constraint": null, "depthwise_initializer": {"class_name": "VarianceScaling", "config": {"distribution": "uniform", "mode": "fan_avg", "scale": 1.0, "seed": null}}, "depthwise_regularizer": null, "dilation_rate": [1, 1], "filters": 728, "kernel_size": [3, 3], "name": "block9_sepconv3", "padding": "same", "pointwise_constraint": null, "pointwise_initializer": {"class_name": "VarianceScaling", "config": {"distribution": "uniform", "mode": "fan_avg", "scale": 1.0, "seed": null}}, "pointwise_regularizer": null, "strides": [1, 1], "trainable": [{"args": ["b1", 0, 1], "state": [3, "|", null, null, null, -1, -1, 0]}, "AA==\n"], "use_bias": false}, "inbound_nodes": [[["block9_sepconv3_act", 0, 0, {}]]], "name": "block9_sepconv3"}, {"class_name": "BatchNormalization", "config": {"axis": -1, "beta_constraint": null, "beta_initializer": {"class_name": "Zeros", "config": {}}, "beta_regularizer": null, "center": true, "epsilon": 0.001, "gamma_constraint": null, "gamma_initializer": {"class_name": "Ones", "config": {}}, "gamma_regularizer": null, "momentum": 0.99, "moving_mean_initializer": {"class_name": "Zeros", "config": {}}, "moving_variance_initializer": {"class_name": "Ones", "config": {}}, "name": "block9_sepconv3_bn", "scale": true, "trainable": [{"args": ["b1", 0, 1], "state": [3, "|", null, null, null, -1, -1, 0]}, "AA==\n"]}, "inbound_nodes": [[["block9_sepconv3", 0, 0, {}]]], "name": "block9_sepconv3_bn"}, {"class_name": "Add", "config": {"name": "add_8", "trainable": [{"args": ["b1", 0, 1], "state": [3, "|", null, null, null, -1, -1, 0]}, "AA==\n"]}, "inbound_nodes": [[["block9_sepconv3_bn", 0, 0, {}], ["add_7", 0, 0, {}]]], "name": "add_8"}, {"class_name": "Activation", "config": {"activation": "relu", "name": "block10_sepconv1_act", "trainable": [{"args": ["b1", 0, 1], "state": [3, "|", null, null, null, -1, -1, 0]}, "AA==\n"]}, "inbound_nodes": [[["add_8", 0, 0, {}]]], "name": "block10_sepconv1_act"}, {"class_name": "SeparableConv2D", "config": {"activation": "linear", "activity_regularizer": null, "bias_constraint": null, "bias_initializer": {"class_name": "Zeros", "config": {}}, "bias_regularizer": null, "data_format": "channels_last", "depth_multiplier": 1, "depthwise_constraint": null, "depthwise_initializer": {"class_name": "VarianceScaling", "config": {"distribution": "uniform", "mode": "fan_avg", "scale": 1.0, "seed": null}}, "depthwise_regularizer": null, "dilation_rate": [1, 1], "filters": 728, "kernel_size": [3, 3], "name": "block10_sepconv1", "padding": "same", "pointwise_constraint": null, "pointwise_initializer": {"class_name": "VarianceScaling", "config": {"distribution": "uniform", "mode": "fan_avg", "scale": 1.0, "seed": null}}, "pointwise_regularizer": null, "strides": [1, 1], "trainable": [{"args": ["b1", 0, 1], "state": [3, "|", null, null, null, -1, -1, 0]}, "AA==\n"], "use_bias": false}, "inbound_nodes": [[["block10_sepconv1_act", 0, 0, {}]]], "name": "block10_sepconv1"}, {"class_name": "BatchNormalization", "config": {"axis": -1, "beta_constraint": null, "beta_initializer": {"class_name": "Zeros", "config": {}}, "beta_regularizer": null, "center": true, "epsilon": 0.001, "gamma_constraint": null, "gamma_initializer": {"class_name": "Ones", "config": {}}, "gamma_regularizer": null, "momentum": 0.99, "moving_mean_initializer": {"class_name": "Zeros", "config": {}}, "moving_variance_initializer": {"class_name": "Ones", "config": {}}, "name": "block10_sepconv1_bn", "scale": true, "trainable": [{"args": ["b1", 0, 1], "state": [3, "|", null, null, null, -1, -1, 0]}, "AA==\n"]}, "inbound_nodes": [[["block10_sepconv1", 0, 0, {}]]], "name": "block10_sepconv1_bn"}, {"class_name": "Activation", "config": {"activation": "relu", "name": "block10_sepconv2_act", "trainable": [{"args": ["b1", 0, 1], "state": [3, "|", null, null, null, -1, -1, 0]}, "AA==\n"]}, "inbound_nodes": [[["block10_sepconv1_bn", 0, 0, {}]]], "name": "block10_sepconv2_act"}, {"class_name": "SeparableConv2D", "config": {"activation": "linear", "activity_regularizer": null, "bias_constraint": null, "bias_initializer": {"class_name": "Zeros", "config": {}}, "bias_regularizer": null, "data_format": "channels_last", "depth_multiplier": 1, "depthwise_constraint": null, "depthwise_initializer": {"class_name": "VarianceScaling", "config": {"distribution": "uniform", "mode": "fan_avg", "scale": 1.0, "seed": null}}, "depthwise_regularizer": null, "dilation_rate": [1, 1], "filters": 728, "kernel_size": [3, 3], "name": "block10_sepconv2", "padding": "same", "pointwise_constraint": null, "pointwise_initializer": {"class_name": "VarianceScaling", "config": {"distribution": "uniform", "mode": "fan_avg", "scale": 1.0, "seed": null}}, "pointwise_regularizer": null, "strides": [1, 1], "trainable": [{"args": ["b1", 0, 1], "state": [3, "|", null, null, null, -1, -1, 0]}, "AA==\n"], "use_bias": false}, "inbound_nodes": [[["block10_sepconv2_act", 0, 0, {}]]], "name": "block10_sepconv2"}, {"class_name": "BatchNormalization", "config": {"axis": -1, "beta_constraint": null, "beta_initializer": {"class_name": "Zeros", "config": {}}, "beta_regularizer": null, "center": true, "epsilon": 0.001, "gamma_constraint": null, "gamma_initializer": {"class_name": "Ones", "config": {}}, "gamma_regularizer": null, "momentum": 0.99, "moving_mean_initializer": {"class_name": "Zeros", "config": {}}, "moving_variance_initializer": {"class_name": "Ones", "config": {}}, "name": "block10_sepconv2_bn", "scale": true, "trainable": [{"args": ["b1", 0, 1], "state": [3, "|", null, null, null, -1, -1, 0]}, "AA==\n"]}, "inbound_nodes": [[["block10_sepconv2", 0, 0, {}]]], "name": "block10_sepconv2_bn"}, {"class_name": "Activation", "config": {"activation": "relu", "name": "block10_sepconv3_act", "trainable": [{"args": ["b1", 0, 1], "state": [3, "|", null, null, null, -1, -1, 0]}, "AA==\n"]}, "inbound_nodes": [[["block10_sepconv2_bn", 0, 0, {}]]], "name": "block10_sepconv3_act"}, {"class_name": "SeparableConv2D", "config": {"activation": "linear", "activity_regularizer": null, "bias_constraint": null, "bias_initializer": {"class_name": "Zeros", "config": {}}, "bias_regularizer": null, "data_format": "channels_last", "depth_multiplier": 1, "depthwise_constraint": null, "depthwise_initializer": {"class_name": "VarianceScaling", "config": {"distribution": "uniform", "mode": "fan_avg", "scale": 1.0, "seed": null}}, "depthwise_regularizer": null, "dilation_rate": [1, 1], "filters": 728, "kernel_size": [3, 3], "name": "block10_sepconv3", "padding": "same", "pointwise_constraint": null, "pointwise_initializer": {"class_name": "VarianceScaling", "config": {"distribution": "uniform", "mode": "fan_avg", "scale": 1.0, "seed": null}}, "pointwise_regularizer": null, "strides": [1, 1], "trainable": [{"args": ["b1", 0, 1], "state": [3, "|", null, null, null, -1, -1, 0]}, "AA==\n"], "use_bias": false}, "inbound_nodes": [[["block10_sepconv3_act", 0, 0, {}]]], "name": "block10_sepconv3"}, {"class_name": "BatchNormalization", "config": {"axis": -1, "beta_constraint": null, "beta_initializer": {"class_name": "Zeros", "config": {}}, "beta_regularizer": null, "center": true, "epsilon": 0.001, "gamma_constraint": null, "gamma_initializer": {"class_name": "Ones", "config": {}}, "gamma_regularizer": null, "momentum": 0.99, "moving_mean_initializer": {"class_name": "Zeros", "config": {}}, "moving_variance_initializer": {"class_name": "Ones", "config": {}}, "name": "block10_sepconv3_bn", "scale": true, "trainable": [{"args": ["b1", 0, 1], "state": [3, "|", null, null, null, -1, -1, 0]}, "AA==\n"]}, "inbound_nodes": [[["block10_sepconv3", 0, 0, {}]]], "name": "block10_sepconv3_bn"}, {"class_name": "Add", "config": {"name": "add_9", "trainable": [{"args": ["b1", 0, 1], "state": [3, "|", null, null, null, -1, -1, 0]}, "AA==\n"]}, "inbound_nodes": [[["block10_sepconv3_bn", 0, 0, {}], ["add_8", 0, 0, {}]]], "name": "add_9"}, {"class_name": "Activation", "config": {"activation": "relu", "name": "block11_sepconv1_act", "trainable": [{"args": ["b1", 0, 1], "state": [3, "|", null, null, null, -1, -1, 0]}, "AA==\n"]}, "inbound_nodes": [[["add_9", 0, 0, {}]]], "name": "block11_sepconv1_act"}, {"class_name": "SeparableConv2D", "config": {"activation": "linear", "activity_regularizer": null, "bias_constraint": null, "bias_initializer": {"class_name": "Zeros", "config": {}}, "bias_regularizer": null, "data_format": "channels_last", "depth_multiplier": 1, "depthwise_constraint": null, "depthwise_initializer": {"class_name": "VarianceScaling", "config": {"distribution": "uniform", "mode": "fan_avg", "scale": 1.0, "seed": null}}, "depthwise_regularizer": null, "dilation_rate": [1, 1], "filters": 728, "kernel_size": [3, 3], "name": "block11_sepconv1", "padding": "same", "pointwise_constraint": null, "pointwise_initializer": {"class_name": "VarianceScaling", "config": {"distribution": "uniform", "mode": "fan_avg", "scale": 1.0, "seed": null}}, "pointwise_regularizer": null, "strides": [1, 1], "trainable": [{"args": ["b1", 0, 1], "state": [3, "|", null, null, null, -1, -1, 0]}, "AA==\n"], "use_bias": false}, "inbound_nodes": [[["block11_sepconv1_act", 0, 0, {}]]], "name": "block11_sepconv1"}, {"class_name": "BatchNormalization", "config": {"axis": -1, "beta_constraint": null, "beta_initializer": {"class_name": "Zeros", "config": {}}, "beta_regularizer": null, "center": true, "epsilon": 0.001, "gamma_constraint": null, "gamma_initializer": {"class_name": "Ones", "config": {}}, "gamma_regularizer": null, "momentum": 0.99, "moving_mean_initializer": {"class_name": "Zeros", "config": {}}, "moving_variance_initializer": {"class_name": "Ones", "config": {}}, "name": "block11_sepconv1_bn", "scale": true, "trainable": [{"args": ["b1", 0, 1], "state": [3, "|", null, null, null, -1, -1, 0]}, "AA==\n"]}, "inbound_nodes": [[["block11_sepconv1", 0, 0, {}]]], "name": "block11_sepconv1_bn"}, {"class_name": "Activation", "config": {"activation": "relu", "name": "block11_sepconv2_act", "trainable": [{"args": ["b1", 0, 1], "state": [3, "|", null, null, null, -1, -1, 0]}, "AA==\n"]}, "inbound_nodes": [[["block11_sepconv1_bn", 0, 0, {}]]], "name": "block11_sepconv2_act"}, {"class_name": "SeparableConv2D", "config": {"activation": "linear", "activity_regularizer": null, "bias_constraint": null, "bias_initializer": {"class_name": "Zeros", "config": {}}, "bias_regularizer": null, "data_format": "channels_last", "depth_multiplier": 1, "depthwise_constraint": null, "depthwise_initializer": {"class_name": "VarianceScaling", "config": {"distribution": "uniform", "mode": "fan_avg", "scale": 1.0, "seed": null}}, "depthwise_regularizer": null, "dilation_rate": [1, 1], "filters": 728, "kernel_size": [3, 3], "name": "block11_sepconv2", "padding": "same", "pointwise_constraint": null, "pointwise_initializer": {"class_name": "VarianceScaling", "config": {"distribution": "uniform", "mode": "fan_avg", "scale": 1.0, "seed": null}}, "pointwise_regularizer": null, "strides": [1, 1], "trainable": [{"args": ["b1", 0, 1], "state": [3, "|", null, null, null, -1, -1, 0]}, "AA==\n"], "use_bias": false}, "inbound_nodes": [[["block11_sepconv2_act", 0, 0, {}]]], "name": "block11_sepconv2"}, {"class_name": "BatchNormalization", "config": {"axis": -1, "beta_constraint": null, "beta_initializer": {"class_name": "Zeros", "config": {}}, "beta_regularizer": null, "center": true, "epsilon": 0.001, "gamma_constraint": null, "gamma_initializer": {"class_name": "Ones", "config": {}}, "gamma_regularizer": null, "momentum": 0.99, "moving_mean_initializer": {"class_name": "Zeros", "config": {}}, "moving_variance_initializer": {"class_name": "Ones", "config": {}}, "name": "block11_sepconv2_bn", "scale": true, "trainable": [{"args": ["b1", 0, 1], "state": [3, "|", null, null, null, -1, -1, 0]}, "AA==\n"]}, "inbound_nodes": [[["block11_sepconv2", 0, 0, {}]]], "name": "block11_sepconv2_bn"}, {"class_name": "Activation", "config": {"activation": "relu", "name": "block11_sepconv3_act", "trainable": [{"args": ["b1", 0, 1], "state": [3, "|", null, null, null, -1, -1, 0]}, "AA==\n"]}, "inbound_nodes": [[["block11_sepconv2_bn", 0, 0, {}]]], "name": "block11_sepconv3_act"}, {"class_name": "SeparableConv2D", "config": {"activation": "linear", "activity_regularizer": null, "bias_constraint": null, "bias_initializer": {"class_name": "Zeros", "config": {}}, "bias_regularizer": null, "data_format": "channels_last", "depth_multiplier": 1, "depthwise_constraint": null, "depthwise_initializer": {"class_name": "VarianceScaling", "config": {"distribution": "uniform", "mode": "fan_avg", "scale": 1.0, "seed": null}}, "depthwise_regularizer": null, "dilation_rate": [1, 1], "filters": 728, "kernel_size": [3, 3], "name": "block11_sepconv3", "padding": "same", "pointwise_constraint": null, "pointwise_initializer": {"class_name": "VarianceScaling", "config": {"distribution": "uniform", "mode": "fan_avg", "scale": 1.0, "seed": null}}, "pointwise_regularizer": null, "strides": [1, 1], "trainable": [{"args": ["b1", 0, 1], "state": [3, "|", null, null, null, -1, -1, 0]}, "AA==\n"], "use_bias": false}, "inbound_nodes": [[["block11_sepconv3_act", 0, 0, {}]]], "name": "block11_sepconv3"}, {"class_name": "BatchNormalization", "config": {"axis": -1, "beta_constraint": null, "beta_initializer": {"class_name": "Zeros", "config": {}}, "beta_regularizer": null, "center": true, "epsilon": 0.001, "gamma_constraint": null, "gamma_initializer": {"class_name": "Ones", "config": {}}, "gamma_regularizer": null, "momentum": 0.99, "moving_mean_initializer": {"class_name": "Zeros", "config": {}}, "moving_variance_initializer": {"class_name": "Ones", "config": {}}, "name": "block11_sepconv3_bn", "scale": true, "trainable": [{"args": ["b1", 0, 1], "state": [3, "|", null, null, null, -1, -1, 0]}, "AA==\n"]}, "inbound_nodes": [[["block11_sepconv3", 0, 0, {}]]], "name": "block11_sepconv3_bn"}, {"class_name": "Add", "config": {"name": "add_10", "trainable": [{"args": ["b1", 0, 1], "state": [3, "|", null, null, null, -1, -1, 0]}, "AA==\n"]}, "inbound_nodes": [[["block11_sepconv3_bn", 0, 0, {}], ["add_9", 0, 0, {}]]], "name": "add_10"}, {"class_name": "Activation", "config": {"activation": "relu", "name": "block12_sepconv1_act", "trainable": [{"args": ["b1", 0, 1], "state": [3, "|", null, null, null, -1, -1, 0]}, "AA==\n"]}, "inbound_nodes": [[["add_10", 0, 0, {}]]], "name": "block12_sepconv1_act"}, {"class_name": "SeparableConv2D", "config": {"activation": "linear", "activity_regularizer": null, "bias_constraint": null, "bias_initializer": {"class_name": "Zeros", "config": {}}, "bias_regularizer": null, "data_format": "channels_last", "depth_multiplier": 1, "depthwise_constraint": null, "depthwise_initializer": {"class_name": "VarianceScaling", "config": {"distribution": "uniform", "mode": "fan_avg", "scale": 1.0, "seed": null}}, "depthwise_regularizer": null, "dilation_rate": [1, 1], "filters": 728, "kernel_size": [3, 3], "name": "block12_sepconv1", "padding": "same", "pointwise_constraint": null, "pointwise_initializer": {"class_name": "VarianceScaling", "config": {"distribution": "uniform", "mode": "fan_avg", "scale": 1.0, "seed": null}}, "pointwise_regularizer": null, "strides": [1, 1], "trainable": [{"args": ["b1", 0, 1], "state": [3, "|", null, null, null, -1, -1, 0]}, "AA==\n"], "use_bias": false}, "inbound_nodes": [[["block12_sepconv1_act", 0, 0, {}]]], "name": "block12_sepconv1"}, {"class_name": "BatchNormalization", "config": {"axis": -1, "beta_constraint": null, "beta_initializer": {"class_name": "Zeros", "config": {}}, "beta_regularizer": null, "center": true, "epsilon": 0.001, "gamma_constraint": null, "gamma_initializer": {"class_name": "Ones", "config": {}}, "gamma_regularizer": null, "momentum": 0.99, "moving_mean_initializer": {"class_name": "Zeros", "config": {}}, "moving_variance_initializer": {"class_name": "Ones", "config": {}}, "name": "block12_sepconv1_bn", "scale": true, "trainable": [{"args": ["b1", 0, 1], "state": [3, "|", null, null, null, -1, -1, 0]}, "AA==\n"]}, "inbound_nodes": [[["block12_sepconv1", 0, 0, {}]]], "name": "block12_sepconv1_bn"}, {"class_name": "Activation", "config": {"activation": "relu", "name": "block12_sepconv2_act", "trainable": [{"args": ["b1", 0, 1], "state": [3, "|", null, null, null, -1, -1, 0]}, "AA==\n"]}, "inbound_nodes": [[["block12_sepconv1_bn", 0, 0, {}]]], "name": "block12_sepconv2_act"}, {"class_name": "SeparableConv2D", "config": {"activation": "linear", "activity_regularizer": null, "bias_constraint": null, "bias_initializer": {"class_name": "Zeros", "config": {}}, "bias_regularizer": null, "data_format": "channels_last", "depth_multiplier": 1, "depthwise_constraint": null, "depthwise_initializer": {"class_name": "VarianceScaling", "config": {"distribution": "uniform", "mode": "fan_avg", "scale": 1.0, "seed": null}}, "depthwise_regularizer": null, "dilation_rate": [1, 1], "filters": 728, "kernel_size": [3, 3], "name": "block12_sepconv2", "padding": "same", "pointwise_constraint": null, "pointwise_initializer": {"class_name": "VarianceScaling", "config": {"distribution": "uniform", "mode": "fan_avg", "scale": 1.0, "seed": null}}, "pointwise_regularizer": null, "strides": [1, 1], "trainable": [{"args": ["b1", 0, 1], "state": [3, "|", null, null, null, -1, -1, 0]}, "AA==\n"], "use_bias": false}, "inbound_nodes": [[["block12_sepconv2_act", 0, 0, {}]]], "name": "block12_sepconv2"}, {"class_name": "BatchNormalization", "config": {"axis": -1, "beta_constraint": null, "beta_initializer": {"class_name": "Zeros", "config": {}}, "beta_regularizer": null, "center": true, "epsilon": 0.001, "gamma_constraint": null, "gamma_initializer": {"class_name": "Ones", "config": {}}, "gamma_regularizer": null, "momentum": 0.99, "moving_mean_initializer": {"class_name": "Zeros", "config": {}}, "moving_variance_initializer": {"class_name": "Ones", "config": {}}, "name": "block12_sepconv2_bn", "scale": true, "trainable": [{"args": ["b1", 0, 1], "state": [3, "|", null, null, null, -1, -1, 0]}, "AQ==\n"]}, "inbound_nodes": [[["block12_sepconv2", 0, 0, {}]]], "name": "block12_sepconv2_bn"}, {"class_name": "Activation", "config": {"activation": "relu", "name": "block12_sepconv3_act", "trainable": [{"args": ["b1", 0, 1], "state": [3, "|", null, null, null, -1, -1, 0]}, "AA==\n"]}, "inbound_nodes": [[["block12_sepconv2_bn", 0, 0, {}]]], "name": "block12_sepconv3_act"}, {"class_name": "SeparableConv2D", "config": {"activation": "linear", "activity_regularizer": null, "bias_constraint": null, "bias_initializer": {"class_name": "Zeros", "config": {}}, "bias_regularizer": null, "data_format": "channels_last", "depth_multiplier": 1, "depthwise_constraint": null, "depthwise_initializer": {"class_name": "VarianceScaling", "config": {"distribution": "uniform", "mode": "fan_avg", "scale": 1.0, "seed": null}}, "depthwise_regularizer": null, "dilation_rate": [1, 1], "filters": 728, "kernel_size": [3, 3], "name": "block12_sepconv3", "padding": "same", "pointwise_constraint": null, "pointwise_initializer": {"class_name": "VarianceScaling", "config": {"distribution": "uniform", "mode": "fan_avg", "scale": 1.0, "seed": null}}, "pointwise_regularizer": null, "strides": [1, 1], "trainable": [{"args": ["b1", 0, 1], "state": [3, "|", null, null, null, -1, -1, 0]}, "AQ==\n"], "use_bias": false}, "inbound_nodes": [[["block12_sepconv3_act", 0, 0, {}]]], "name": "block12_sepconv3"}, {"class_name": "BatchNormalization", "config": {"axis": -1, "beta_constraint": null, "beta_initializer": {"class_name": "Zeros", "config": {}}, "beta_regularizer": null, "center": true, "epsilon": 0.001, "gamma_constraint": null, "gamma_initializer": {"class_name": "Ones", "config": {}}, "gamma_regularizer": null, "momentum": 0.99, "moving_mean_initializer": {"class_name": "Zeros", "config": {}}, "moving_variance_initializer": {"class_name": "Ones", "config": {}}, "name": "block12_sepconv3_bn", "scale": true, "trainable": [{"args": ["b1", 0, 1], "state": [3, "|", null, null, null, -1, -1, 0]}, "AQ==\n"]}, "inbound_nodes": [[["block12_sepconv3", 0, 0, {}]]], "name": "block12_sepconv3_bn"}, {"class_name": "Add", "config": {"name": "add_11", "trainable": [{"args": ["b1", 0, 1], "state": [3, "|", null, null, null, -1, -1, 0]}, "AA==\n"]}, "inbound_nodes": [[["block12_sepconv3_bn", 0, 0, {}], ["add_10", 0, 0, {}]]], "name": "add_11"}, {"class_name": "Activation", "config": {"activation": "relu", "name": "block13_sepconv1_act", "trainable": [{"args": ["b1", 0, 1], "state": [3, "|", null, null, null, -1, -1, 0]}, "AA==\n"]}, "inbound_nodes": [[["add_11", 0, 0, {}]]], "name": "block13_sepconv1_act"}, {"class_name": "SeparableConv2D", "config": {"activation": "linear", "activity_regularizer": null, "bias_constraint": null, "bias_initializer": {"class_name": "Zeros", "config": {}}, "bias_regularizer": null, "data_format": "channels_last", "depth_multiplier": 1, "depthwise_constraint": null, "depthwise_initializer": {"class_name": "VarianceScaling", "config": {"distribution": "uniform", "mode": "fan_avg", "scale": 1.0, "seed": null}}, "depthwise_regularizer": null, "dilation_rate": [1, 1], "filters": 728, "kernel_size": [3, 3], "name": "block13_sepconv1", "padding": "same", "pointwise_constraint": null, "pointwise_initializer": {"class_name": "VarianceScaling", "config": {"distribution": "uniform", "mode": "fan_avg", "scale": 1.0, "seed": null}}, "pointwise_regularizer": null, "strides": [1, 1], "trainable": [{"args": ["b1", 0, 1], "state": [3, "|", null, null, null, -1, -1, 0]}, "AQ==\n"], "use_bias": false}, "inbound_nodes": [[["block13_sepconv1_act", 0, 0, {}]]], "name": "block13_sepconv1"}, {"class_name": "BatchNormalization", "config": {"axis": -1, "beta_constraint": null, "beta_initializer": {"class_name": "Zeros", "config": {}}, "beta_regularizer": null, "center": true, "epsilon": 0.001, "gamma_constraint": null, "gamma_initializer": {"class_name": "Ones", "config": {}}, "gamma_regularizer": null, "momentum": 0.99, "moving_mean_initializer": {"class_name": "Zeros", "config": {}}, "moving_variance_initializer": {"class_name": "Ones", "config": {}}, "name": "block13_sepconv1_bn", "scale": true, "trainable": [{"args": ["b1", 0, 1], "state": [3, "|", null, null, null, -1, -1, 0]}, "AQ==\n"]}, "inbound_nodes": [[["block13_sepconv1", 0, 0, {}]]], "name": "block13_sepconv1_bn"}, {"class_name": "Activation", "config": {"activation": "relu", "name": "block13_sepconv2_act", "trainable": [{"args": ["b1", 0, 1], "state": [3, "|", null, null, null, -1, -1, 0]}, "AA==\n"]}, "inbound_nodes": [[["block13_sepconv1_bn", 0, 0, {}]]], "name": "block13_sepconv2_act"}, {"class_name": "SeparableConv2D", "config": {"activation": "linear", "activity_regularizer": null, "bias_constraint": null, "bias_initializer": {"class_name": "Zeros", "config": {}}, "bias_regularizer": null, "data_format": "channels_last", "depth_multiplier": 1, "depthwise_constraint": null, "depthwise_initializer": {"class_name": "VarianceScaling", "config": {"distribution": "uniform", "mode": "fan_avg", "scale": 1.0, "seed": null}}, "depthwise_regularizer": null, "dilation_rate": [1, 1], "filters": 1024, "kernel_size": [3, 3], "name": "block13_sepconv2", "padding": "same", "pointwise_constraint": null, "pointwise_initializer": {"class_name": "VarianceScaling", "config": {"distribution": "uniform", "mode": "fan_avg", "scale": 1.0, "seed": null}}, "pointwise_regularizer": null, "strides": [1, 1], "trainable": [{"args": ["b1", 0, 1], "state": [3, "|", null, null, null, -1, -1, 0]}, "AQ==\n"], "use_bias": false}, "inbound_nodes": [[["block13_sepconv2_act", 0, 0, {}]]], "name": "block13_sepconv2"}, {"class_name": "BatchNormalization", "config": {"axis": -1, "beta_constraint": null, "beta_initializer": {"class_name": "Zeros", "config": {}}, "beta_regularizer": null, "center": true, "epsilon": 0.001, "gamma_constraint": null, "gamma_initializer": {"class_name": "Ones", "config": {}}, "gamma_regularizer": null, "momentum": 0.99, "moving_mean_initializer": {"class_name": "Zeros", "config": {}}, "moving_variance_initializer": {"class_name": "Ones", "config": {}}, "name": "block13_sepconv2_bn", "scale": true, "trainable": [{"args": ["b1", 0, 1], "state": [3, "|", null, null, null, -1, -1, 0]}, "AQ==\n"]}, "inbound_nodes": [[["block13_sepconv2", 0, 0, {}]]], "name": "block13_sepconv2_bn"}, {"class_name": "Conv2D", "config": {"activation": "linear", "activity_regularizer": null, "bias_constraint": null, "bias_initializer": {"class_name": "Zeros", "config": {}}, "bias_regularizer": null, "data_format": "channels_last", "dilation_rate": [1, 1], "filters": 1024, "kernel_constraint": null, "kernel_initializer": {"class_name": "VarianceScaling", "config": {"distribution": "uniform", "mode": "fan_avg", "scale": 1.0, "seed": null}}, "kernel_regularizer": null, "kernel_size": [1, 1], "name": "conv2d_6", "padding": "same", "strides": [2, 2], "trainable": [{"args": ["b1", 0, 1], "state": [3, "|", null, null, null, -1, -1, 0]}, "AQ==\n"], "use_bias": false}, "inbound_nodes": [[["add_11", 0, 0, {}]]], "name": "conv2d_6"}, {"class_name": "MaxPooling2D", "config": {"data_format": "channels_last", "name": "block13_pool", "padding": "same", "pool_size": [3, 3], "strides": [2, 2], "trainable": [{"args": ["b1", 0, 1], "state": [3, "|", null, null, null, -1, -1, 0]}, "AA==\n"]}, "inbound_nodes": [[["block13_sepconv2_bn", 0, 0, {}]]], "name": "block13_pool"}, {"class_name": "BatchNormalization", "config": {"axis": -1, "beta_constraint": null, "beta_initializer": {"class_name": "Zeros", "config": {}}, "beta_regularizer": null, "center": true, "epsilon": 0.001, "gamma_constraint": null, "gamma_initializer": {"class_name": "Ones", "config": {}}, "gamma_regularizer": null, "momentum": 0.99, "moving_mean_initializer": {"class_name": "Zeros", "config": {}}, "moving_variance_initializer": {"class_name": "Ones", "config": {}}, "name": "batch_normalization_4", "scale": true, "trainable": [{"args": ["b1", 0, 1], "state": [3, "|", null, null, null, -1, -1, 0]}, "AQ==\n"]}, "inbound_nodes": [[["conv2d_6", 0, 0, {}]]], "name": "batch_normalization_4"}, {"class_name": "Add", "config": {"name": "add_12", "trainable": [{"args": ["b1", 0, 1], "state": [3, "|", null, null, null, -1, -1, 0]}, "AA==\n"]}, "inbound_nodes": [[["block13_pool", 0, 0, {}], ["batch_normalization_4", 0, 0, {}]]], "name": "add_12"}, {"class_name": "SeparableConv2D", "config": {"activation": "linear", "activity_regularizer": null, "bias_constraint": null, "bias_initializer": {"class_name": "Zeros", "config": {}}, "bias_regularizer": null, "data_format": "channels_last", "depth_multiplier": 1, "depthwise_constraint": null, "depthwise_initializer": {"class_name": "VarianceScaling", "config": {"distribution": "uniform", "mode": "fan_avg", "scale": 1.0, "seed": null}}, "depthwise_regularizer": null, "dilation_rate": [1, 1], "filters": 1536, "kernel_size": [3, 3], "name": "block14_sepconv1", "padding": "same", "pointwise_constraint": null, "pointwise_initializer": {"class_name": "VarianceScaling", "config": {"distribution": "uniform", "mode": "fan_avg", "scale": 1.0, "seed": null}}, "pointwise_regularizer": null, "strides": [1, 1], "trainable": [{"args": ["b1", 0, 1], "state": [3, "|", null, null, null, -1, -1, 0]}, "AQ==\n"], "use_bias": false}, "inbound_nodes": [[["add_12", 0, 0, {}]]], "name": "block14_sepconv1"}, {"class_name": "BatchNormalization", "config": {"axis": -1, "beta_constraint": null, "beta_initializer": {"class_name": "Zeros", "config": {}}, "beta_regularizer": null, "center": true, "epsilon": 0.001, "gamma_constraint": null, "gamma_initializer": {"class_name": "Ones", "config": {}}, "gamma_regularizer": null, "momentum": 0.99, "moving_mean_initializer": {"class_name": "Zeros", "config": {}}, "moving_variance_initializer": {"class_name": "Ones", "config": {}}, "name": "block14_sepconv1_bn", "scale": true, "trainable": [{"args": ["b1", 0, 1], "state": [3, "|", null, null, null, -1, -1, 0]}, "AQ==\n"]}, "inbound_nodes": [[["block14_sepconv1", 0, 0, {}]]], "name": "block14_sepconv1_bn"}, {"class_name": "Activation", "config": {"activation": "relu", "name": "block14_sepconv1_act", "trainable": [{"args": ["b1", 0, 1], "state": [3, "|", null, null, null, -1, -1, 0]}, "AA==\n"]}, "inbound_nodes": [[["block14_sepconv1_bn", 0, 0, {}]]], "name": "block14_sepconv1_act"}, {"class_name": "SeparableConv2D", "config": {"activation": "linear", "activity_regularizer": null, "bias_constraint": null, "bias_initializer": {"class_name": "Zeros", "config": {}}, "bias_regularizer": null, "data_format": "channels_last", "depth_multiplier": 1, "depthwise_constraint": null, "depthwise_initializer": {"class_name": "VarianceScaling", "config": {"distribution": "uniform", "mode": "fan_avg", "scale": 1.0, "seed": null}}, "depthwise_regularizer": null, "dilation_rate": [1, 1], "filters": 2048, "kernel_size": [3, 3], "name": "block14_sepconv2", "padding": "same", "pointwise_constraint": null, "pointwise_initializer": {"class_name": "VarianceScaling", "config": {"distribution": "uniform", "mode": "fan_avg", "scale": 1.0, "seed": null}}, "pointwise_regularizer": null, "strides": [1, 1], "trainable": [{"args": ["b1", 0, 1], "state": [3, "|", null, null, null, -1, -1, 0]}, "AQ==\n"], "use_bias": false}, "inbound_nodes": [[["block14_sepconv1_act", 0, 0, {}]]], "name": "block14_sepconv2"}, {"class_name": "BatchNormalization", "config": {"axis": -1, "beta_constraint": null, "beta_initializer": {"class_name": "Zeros", "config": {}}, "beta_regularizer": null, "center": true, "epsilon": 0.001, "gamma_constraint": null, "gamma_initializer": {"class_name": "Ones", "config": {}}, "gamma_regularizer": null, "momentum": 0.99, "moving_mean_initializer": {"class_name": "Zeros", "config": {}}, "moving_variance_initializer": {"class_name": "Ones", "config": {}}, "name": "block14_sepconv2_bn", "scale": true, "trainable": [{"args": ["b1", 0, 1], "state": [3, "|", null, null, null, -1, -1, 0]}, "AQ==\n"]}, "inbound_nodes": [[["block14_sepconv2", 0, 0, {}]]], "name": "block14_sepconv2_bn"}, {"class_name": "Activation", "config": {"activation": "relu", "name": "block14_sepconv2_act", "trainable": [{"args": ["b1", 0, 1], "state": [3, "|", null, null, null, -1, -1, 0]}, "AA==\n"]}, "inbound_nodes": [[["block14_sepconv2_bn", 0, 0, {}]]], "name": "block14_sepconv2_act"}, {"class_name": "GlobalMaxPooling2D", "config": {"data_format": "channels_last", "name": "global_max_pooling2d_1", "trainable": [{"args": ["b1", 0, 1], "state": [3, "|", null, null, null, -1, -1, 0]}, "AA==\n"]}, "inbound_nodes": [[["block14_sepconv2_act", 0, 0, {}]]], "name": "global_max_pooling2d_1"}], "name": "xception__1", "output_layers": [["global_max_pooling2d_1", 0, 0]]}, "inbound_nodes": [[["conv2d_2__1", 0, 0, {}]]], "name": "xception__1"}, {"class_name": "BatchNormalization", "config": {"axis": -1, "beta_constraint": null, "beta_initializer": {"class_name": "Zeros", "config": {}}, "beta_regularizer": null, "center": true, "epsilon": 0.001, "gamma_constraint": null, "gamma_initializer": {"class_name": "Ones", "config": {}}, "gamma_regularizer": null, "momentum": 0.99, "moving_mean_initializer": {"class_name": "Zeros", "config": {}}, "moving_variance_initializer": {"class_name": "Ones", "config": {}}, "name": "batch_normalization_5", "scale": true, "trainable": true}, "inbound_nodes": [[["densenet169__0", 1, 0, {}]]], "name": "batch_normalization_5"}, {"class_name": "BatchNormalization", "config": {"axis": -1, "beta_constraint": null, "beta_initializer": {"class_name": "Zeros", "config": {}}, "beta_regularizer": null, "center": true, "epsilon": 0.001, "gamma_constraint": null, "gamma_initializer": {"class_name": "Ones", "config": {}}, "gamma_regularizer": null, "momentum": 0.99, "moving_mean_initializer": {"class_name": "Zeros", "config": {}}, "moving_variance_initializer": {"class_name": "Ones", "config": {}}, "name": "batch_normalization_6", "scale": true, "trainable": true}, "inbound_nodes": [[["xception__1", 1, 0, {}]]], "name": "batch_normalization_6"}, {"class_name": "Dropout", "config": {"name": "dropout_1", "noise_shape": null, "rate": 0.3, "seed": null, "trainable": true}, "inbound_nodes": [[["batch_normalization_5", 0, 0, {}]]], "name": "dropout_1"}, {"class_name": "Dropout", "config": {"name": "dropout_2", "noise_shape": null, "rate": 0.3, "seed": null, "trainable": true}, "inbound_nodes": [[["batch_normalization_6", 0, 0, {}]]], "name": "dropout_2"}, {"class_name": "Dense", "config": {"activation": "linear", "activity_regularizer": null, "bias_constraint": null, "bias_initializer": {"class_name": "Zeros", "config": {}}, "bias_regularizer": null, "kernel_constraint": null, "kernel_initializer": {"class_name": "VarianceScaling", "config": {"distribution": "uniform", "mode": "fan_avg", "scale": 1.0, "seed": null}}, "kernel_regularizer": null, "name": "dense_1", "trainable": true, "units": 112, "use_bias": true}, "inbound_nodes": [[["dropout_1", 0, 0, {}]]], "name": "dense_1"}, {"class_name": "Dense", "config": {"activation": "linear", "activity_regularizer": null, "bias_constraint": null, "bias_initializer": {"class_name": "Zeros", "config": {}}, "bias_regularizer": null, "kernel_constraint": null, "kernel_initializer": {"class_name": "VarianceScaling", "config": {"distribution": "uniform", "mode": "fan_avg", "scale": 1.0, "seed": null}}, "kernel_regularizer": null, "name": "dense_2", "trainable": true, "units": 112, "use_bias": true}, "inbound_nodes": [[["dropout_2", 0, 0, {}]]], "name": "dense_2"}, {"class_name": "Multiply", "config": {"name": "multiply_1", "trainable": true}, "inbound_nodes": [[["dense_1", 0, 0, {}], ["dense_2", 0, 0, {}]]], "name": "multiply_1"}, {"class_name": "BatchNormalization", "config": {"axis": -1, "beta_constraint": null, "beta_initializer": {"class_name": "Zeros", "config": {}}, "beta_regularizer": null, "center": true, "epsilon": 0.001, "gamma_constraint": null, "gamma_initializer": {"class_name": "Ones", "config": {}}, "gamma_regularizer": null, "momentum": 0.99, "moving_mean_initializer": {"class_name": "Zeros", "config": {}}, "moving_variance_initializer": {"class_name": "Ones", "config": {}}, "name": "batch_normalization_7", "scale": true, "trainable": true}, "inbound_nodes": [[["multiply_1", 0, 0, {}]]], "name": "batch_normalization_7"}, {"class_name": "Activation", "config": {"activation": "relu", "name": "activation_1", "trainable": true}, "inbound_nodes": [[["batch_normalization_7", 0, 0, {}]]], "name": "activation_1"}, {"class_name": "Dense", "config": {"activation": "softmax", "activity_regularizer": null, "bias_constraint": null, "bias_initializer": {"class_name": "Zeros", "config": {}}, "bias_regularizer": null, "kernel_constraint": null, "kernel_initializer": {"class_name": "VarianceScaling", "config": {"distribution": "uniform", "mode": "fan_avg", "scale": 1.0, "seed": null}}, "kernel_regularizer": null, "name": "dense_3", "trainable": true, "units": 2, "use_bias": true}, "inbound_nodes": [[["activation_1", 0, 0, {}]]], "name": "dense_3"}], "name": "model_3", "output_layers": [["dense_3", 0, 0]]}, "keras_version": "2.2.2"}