{"backend": "tensorflow", "class_name": "Model", "config": {"input_layers": [["data_freq_time", 0, 0], ["data_dm_time", 0, 0]], "layers": [{"class_name": "InputLayer", "config": {"batch_input_shape": [null, 256, 256, 1], "dtype": "float32", "name": "data_freq_time", "sparse": false}, "inbound_nodes": [], "name": "data_freq_time"}, {"class_name": "InputLayer", "config": {"batch_input_shape": [null, 256, 256, 1], "dtype": "float32", "name": "data_dm_time", "sparse": false}, "inbound_nodes": [], "name": "data_dm_time"}, {"class_name": "Conv2D", "config": {"activation": "relu", "activity_regularizer": null, "bias_constraint": null, "bias_initializer": {"class_name": "Zeros", "config": {}}, "bias_regularizer": null, "data_format": "channels_last", "dilation_rate": [1, 1], "filters": 3, "kernel_constraint": null, "kernel_initializer": {"class_name": "VarianceScaling", "config": {"distribution": "uniform", "mode": "fan_avg", "scale": 1.0, "seed": null}}, "kernel_regularizer": null, "kernel_size": [2, 2], "name": "conv2d_1__0", "padding": "valid", "strides": [1, 1], "trainable": true, "use_bias": true}, "inbound_nodes": [[["data_freq_time", 0, 0, {}]]], "name": "conv2d_1__0"}, {"class_name": "Conv2D", "config": {"activation": "relu", "activity_regularizer": null, "bias_constraint": null, "bias_initializer": {"class_name": "Zeros", "config": {}}, "bias_regularizer": null, "data_format": "channels_last", "dilation_rate": [1, 1], "filters": 3, "kernel_constraint": null, "kernel_initializer": {"class_name": "VarianceScaling", "config": {"distribution": "uniform", "mode": "fan_avg", "scale": 1.0, "seed": null}}, "kernel_regularizer": null, "kernel_size": [2, 2], "name": "conv2d_2__1", "padding": "valid", "strides": [1, 1], "trainable": true, "use_bias": true}, "inbound_nodes": [[["data_dm_time", 0, 0, {}]]], "name": "conv2d_2__1"}, {"class_name": "Model", "config": {"input_layers": [["input_2", 0, 0]], "layers": [{"class_name": "InputLayer", "config": {"batch_input_shape": [null, null, null, 3], "dtype": "float32", "name": "input_2", "sparse": false}, "inbound_nodes": [], "name": "input_2"}, {"class_name": "ZeroPadding2D", "config": {"data_format": "channels_last", "name": "zero_padding2d_1", "padding": [[3, 3], [3, 3]], "trainable": [{"args": ["b1", 0, 1], "state": [3, "|", null, null, null, -1, -1, 0]}, "AA==\n"]}, "inbound_nodes": [[["input_2", 0, 0, {}]]], "name": "zero_padding2d_1"}, {"class_name": "Conv2D", "config": {"activation": "linear", "activity_regularizer": null, "bias_constraint": null, "bias_initializer": {"class_name": "Zeros", "config": {}}, "bias_regularizer": null, "data_format": "channels_last", "dilation_rate": [1, 1], "filters": 64, "kernel_constraint": null, "kernel_initializer": {"class_name": "VarianceScaling", "config": {"distribution": "uniform", "mode": "fan_avg", "scale": 1.0, "seed": null}}, "kernel_regularizer": null, "kernel_size": [7, 7], "name": "conv1/conv", "padding": "valid", "strides": [2, 2], "trainable": [{"args": ["b1", 0, 1], "state": [3, "|", null, null, null, -1, -1, 0]}, "AA==\n"], "use_bias": false}, "inbound_nodes": [[["zero_padding2d_1", 0, 0, {}]]], "name": "conv1/conv"}, {"class_name": "BatchNormalization", "config": {"axis": 3, "beta_constraint": null, "beta_initializer": {"class_name": "Zeros", "config": {}}, "beta_regularizer": null, "center": true, "epsilon": 1.001e-05, "gamma_constraint": null, "gamma_initializer": {"class_name": "Ones", "config": {}}, "gamma_regularizer": null, "momentum": 0.99, "moving_mean_initializer": {"class_name": "Zeros", "config": {}}, "moving_variance_initializer": {"class_name": "Ones", "config": {}}, "name": "conv1/bn", "scale": true, "trainable": [{"args": ["b1", 0, 1], "state": [3, "|", null, null, null, -1, -1, 0]}, "AA==\n"]}, "inbound_nodes": [[["conv1/conv", 0, 0, {}]]], "name": "conv1/bn"}, {"class_name": "Activation", "config": {"activation": "relu", "name": "conv1/relu", "trainable": [{"args": ["b1", 0, 1], "state": [3, "|", null, null, null, -1, -1, 0]}, "AA==\n"]}, "inbound_nodes": [[["conv1/bn", 0, 0, {}]]], "name": "conv1/relu"}, {"class_name": "ZeroPadding2D", "config": {"data_format": "channels_last", "name": "zero_padding2d_2", "padding": [[1, 1], [1, 1]], "trainable": [{"args": ["b1", 0, 1], "state": [3, "|", null, null, null, -1, -1, 0]}, "AA==\n"]}, "inbound_nodes": [[["conv1/relu", 0, 0, {}]]], "name": "zero_padding2d_2"}, {"class_name": "MaxPooling2D", "config": {"data_format": "channels_last", "name": "pool1", "padding": "valid", "pool_size": [3, 3], "strides": [2, 2], "trainable": [{"args": ["b1", 0, 1], "state": [3, "|", null, null, null, -1, -1, 0]}, "AA==\n"]}, "inbound_nodes": [[["zero_padding2d_2", 0, 0, {}]]], "name": "pool1"}, {"class_name": "BatchNormalization", "config": {"axis": 3, "beta_constraint": null, "beta_initializer": {"class_name": "Zeros", "config": {}}, "beta_regularizer": null, "center": true, "epsilon": 1.001e-05, "gamma_constraint": null, "gamma_initializer": {"class_name": "Ones", "config": {}}, "gamma_regularizer": null, "momentum": 0.99, "moving_mean_initializer": {"class_name": "Zeros", "config": {}}, "moving_variance_initializer": {"class_name": "Ones", "config": {}}, "name": "conv2_block1_0_bn", "scale": true, "trainable": [{"args": ["b1", 0, 1], "state": [3, "|", null, null, null, -1, -1, 0]}, "AA==\n"]}, "inbound_nodes": [[["pool1", 0, 0, {}]]], "name": "conv2_block1_0_bn"}, {"class_name": "Activation", "config": {"activation": "relu", "name": "conv2_block1_0_relu", "trainable": [{"args": ["b1", 0, 1], "state": [3, "|", null, null, null, -1, -1, 0]}, "AA==\n"]}, "inbound_nodes": [[["conv2_block1_0_bn", 0, 0, {}]]], "name": "conv2_block1_0_relu"}, {"class_name": "Conv2D", "config": {"activation": "linear", "activity_regularizer": null, "bias_constraint": null, "bias_initializer": {"class_name": "Zeros", "config": {}}, "bias_regularizer": null, "data_format": "channels_last", "dilation_rate": [1, 1], "filters": 128, "kernel_constraint": null, "kernel_initializer": {"class_name": "VarianceScaling", "config": {"distribution": "uniform", "mode": "fan_avg", "scale": 1.0, "seed": null}}, "kernel_regularizer": null, "kernel_size": [1, 1], "name": "conv2_block1_1_conv", "padding": "valid", "strides": [1, 1], "trainable": [{"args": ["b1", 0, 1], "state": [3, "|", null, null, null, -1, -1, 0]}, "AA==\n"], "use_bias": false}, "inbound_nodes": [[["conv2_block1_0_relu", 0, 0, {}]]], "name": "conv2_block1_1_conv"}, {"class_name": "BatchNormalization", "config": {"axis": 3, "beta_constraint": null, "beta_initializer": {"class_name": "Zeros", "config": {}}, "beta_regularizer": null, "center": true, "epsilon": 1.001e-05, "gamma_constraint": null, "gamma_initializer": {"class_name": "Ones", "config": {}}, "gamma_regularizer": null, "momentum": 0.99, "moving_mean_initializer": {"class_name": "Zeros", "config": {}}, "moving_variance_initializer": {"class_name": "Ones", "config": {}}, "name": "conv2_block1_1_bn", "scale": true, "trainable": [{"args": ["b1", 0, 1], "state": [3, "|", null, null, null, -1, -1, 0]}, "AA==\n"]}, "inbound_nodes": [[["conv2_block1_1_conv", 0, 0, {}]]], "name": "conv2_block1_1_bn"}, {"class_name": "Activation", "config": {"activation": "relu", "name": "conv2_block1_1_relu", "trainable": [{"args": ["b1", 0, 1], "state": [3, "|", null, null, null, -1, -1, 0]}, "AA==\n"]}, "inbound_nodes": [[["conv2_block1_1_bn", 0, 0, {}]]], "name": "conv2_block1_1_relu"}, {"class_name": "Conv2D", "config": {"activation": "linear", "activity_regularizer": null, "bias_constraint": null, "bias_initializer": {"class_name": "Zeros", "config": {}}, "bias_regularizer": null, "data_format": "channels_last", "dilation_rate": [1, 1], "filters": 32, "kernel_constraint": null, "kernel_initializer": {"class_name": "VarianceScaling", "config": {"distribution": "uniform", "mode": "fan_avg", "scale": 1.0, "seed": null}}, "kernel_regularizer": null, "kernel_size": [3, 3], "name": "conv2_block1_2_conv", "padding": "same", "strides": [1, 1], "trainable": [{"args": ["b1", 0, 1], "state": [3, "|", null, null, null, -1, -1, 0]}, "AA==\n"], "use_bias": false}, "inbound_nodes": [[["conv2_block1_1_relu", 0, 0, {}]]], "name": "conv2_block1_2_conv"}, {"class_name": "Concatenate", "config": {"axis": 3, "name": "conv2_block1_concat", "trainable": [{"args": ["b1", 0, 1], "state": [3, "|", null, null, null, -1, -1, 0]}, "AA==\n"]}, "inbound_nodes": [[["pool1", 0, 0, {}], ["conv2_block1_2_conv", 0, 0, {}]]], "name": "conv2_block1_concat"}, {"class_name": "BatchNormalization", "config": {"axis": 3, "beta_constraint": null, "beta_initializer": {"class_name": "Zeros", "config": {}}, "beta_regularizer": null, "center": true, "epsilon": 1.001e-05, "gamma_constraint": null, "gamma_initializer": {"class_name": "Ones", "config": {}}, "gamma_regularizer": null, "momentum": 0.99, "moving_mean_initializer": {"class_name": "Zeros", "config": {}}, "moving_variance_initializer": {"class_name": "Ones", "config": {}}, "name": "conv2_block2_0_bn", "scale": true, "trainable": [{"args": ["b1", 0, 1], "state": [3, "|", null, null, null, -1, -1, 0]}, "AA==\n"]}, "inbound_nodes": [[["conv2_block1_concat", 0, 0, {}]]], "name": "conv2_block2_0_bn"}, {"class_name": "Activation", "config": {"activation": "relu", "name": "conv2_block2_0_relu", "trainable": [{"args": ["b1", 0, 1], "state": [3, "|", null, null, null, -1, -1, 0]}, "AA==\n"]}, "inbound_nodes": [[["conv2_block2_0_bn", 0, 0, {}]]], "name": "conv2_block2_0_relu"}, {"class_name": "Conv2D", "config": {"activation": "linear", "activity_regularizer": null, "bias_constraint": null, "bias_initializer": {"class_name": "Zeros", "config": {}}, "bias_regularizer": null, "data_format": "channels_last", "dilation_rate": [1, 1], "filters": 128, "kernel_constraint": null, "kernel_initializer": {"class_name": "VarianceScaling", "config": {"distribution": "uniform", "mode": "fan_avg", "scale": 1.0, "seed": null}}, "kernel_regularizer": null, "kernel_size": [1, 1], "name": "conv2_block2_1_conv", "padding": "valid", "strides": [1, 1], "trainable": [{"args": ["b1", 0, 1], "state": [3, "|", null, null, null, -1, -1, 0]}, "AA==\n"], "use_bias": false}, "inbound_nodes": [[["conv2_block2_0_relu", 0, 0, {}]]], "name": "conv2_block2_1_conv"}, {"class_name": "BatchNormalization", "config": {"axis": 3, "beta_constraint": null, "beta_initializer": {"class_name": "Zeros", "config": {}}, "beta_regularizer": null, "center": true, "epsilon": 1.001e-05, "gamma_constraint": null, "gamma_initializer": {"class_name": "Ones", "config": {}}, "gamma_regularizer": null, "momentum": 0.99, "moving_mean_initializer": {"class_name": "Zeros", "config": {}}, "moving_variance_initializer": {"class_name": "Ones", "config": {}}, "name": "conv2_block2_1_bn", "scale": true, "trainable": [{"args": ["b1", 0, 1], "state": [3, "|", null, null, null, -1, -1, 0]}, "AA==\n"]}, "inbound_nodes": [[["conv2_block2_1_conv", 0, 0, {}]]], "name": "conv2_block2_1_bn"}, {"class_name": "Activation", "config": {"activation": "relu", "name": "conv2_block2_1_relu", "trainable": [{"args": ["b1", 0, 1], "state": [3, "|", null, null, null, -1, -1, 0]}, "AA==\n"]}, "inbound_nodes": [[["conv2_block2_1_bn", 0, 0, {}]]], "name": "conv2_block2_1_relu"}, {"class_name": "Conv2D", "config": {"activation": "linear", "activity_regularizer": null, "bias_constraint": null, "bias_initializer": {"class_name": "Zeros", "config": {}}, "bias_regularizer": null, "data_format": "channels_last", "dilation_rate": [1, 1], "filters": 32, "kernel_constraint": null, "kernel_initializer": {"class_name": "VarianceScaling", "config": {"distribution": "uniform", "mode": "fan_avg", "scale": 1.0, "seed": null}}, "kernel_regularizer": null, "kernel_size": [3, 3], "name": "conv2_block2_2_conv", "padding": "same", "strides": [1, 1], "trainable": [{"args": ["b1", 0, 1], "state": [3, "|", null, null, null, -1, -1, 0]}, "AA==\n"], "use_bias": false}, "inbound_nodes": [[["conv2_block2_1_relu", 0, 0, {}]]], "name": "conv2_block2_2_conv"}, {"class_name": "Concatenate", "config": {"axis": 3, "name": "conv2_block2_concat", "trainable": [{"args": ["b1", 0, 1], "state": [3, "|", null, null, null, -1, -1, 0]}, "AA==\n"]}, "inbound_nodes": [[["conv2_block1_concat", 0, 0, {}], ["conv2_block2_2_conv", 0, 0, {}]]], "name": "conv2_block2_concat"}, {"class_name": "BatchNormalization", "config": {"axis": 3, "beta_constraint": null, "beta_initializer": {"class_name": "Zeros", "config": {}}, "beta_regularizer": null, "center": true, "epsilon": 1.001e-05, "gamma_constraint": null, "gamma_initializer": {"class_name": "Ones", "config": {}}, "gamma_regularizer": null, "momentum": 0.99, "moving_mean_initializer": {"class_name": "Zeros", "config": {}}, "moving_variance_initializer": {"class_name": "Ones", "config": {}}, "name": "conv2_block3_0_bn", "scale": true, "trainable": [{"args": ["b1", 0, 1], "state": [3, "|", null, null, null, -1, -1, 0]}, "AA==\n"]}, "inbound_nodes": [[["conv2_block2_concat", 0, 0, {}]]], "name": "conv2_block3_0_bn"}, {"class_name": "Activation", "config": {"activation": "relu", "name": "conv2_block3_0_relu", "trainable": [{"args": ["b1", 0, 1], "state": [3, "|", null, null, null, -1, -1, 0]}, "AA==\n"]}, "inbound_nodes": [[["conv2_block3_0_bn", 0, 0, {}]]], "name": "conv2_block3_0_relu"}, {"class_name": "Conv2D", "config": {"activation": "linear", "activity_regularizer": null, "bias_constraint": null, "bias_initializer": {"class_name": "Zeros", "config": {}}, "bias_regularizer": null, "data_format": "channels_last", "dilation_rate": [1, 1], "filters": 128, "kernel_constraint": null, "kernel_initializer": {"class_name": "VarianceScaling", "config": {"distribution": "uniform", "mode": "fan_avg", "scale": 1.0, "seed": null}}, "kernel_regularizer": null, "kernel_size": [1, 1], "name": "conv2_block3_1_conv", "padding": "valid", "strides": [1, 1], "trainable": [{"args": ["b1", 0, 1], "state": [3, "|", null, null, null, -1, -1, 0]}, "AA==\n"], "use_bias": false}, "inbound_nodes": [[["conv2_block3_0_relu", 0, 0, {}]]], "name": "conv2_block3_1_conv"}, {"class_name": "BatchNormalization", "config": {"axis": 3, "beta_constraint": null, "beta_initializer": {"class_name": "Zeros", "config": {}}, "beta_regularizer": null, "center": true, "epsilon": 1.001e-05, "gamma_constraint": null, "gamma_initializer": {"class_name": "Ones", "config": {}}, "gamma_regularizer": null, "momentum": 0.99, "moving_mean_initializer": {"class_name": "Zeros", "config": {}}, "moving_variance_initializer": {"class_name": "Ones", "config": {}}, "name": "conv2_block3_1_bn", "scale": true, "trainable": [{"args": ["b1", 0, 1], "state": [3, "|", null, null, null, -1, -1, 0]}, "AA==\n"]}, "inbound_nodes": [[["conv2_block3_1_conv", 0, 0, {}]]], "name": "conv2_block3_1_bn"}, {"class_name": "Activation", "config": {"activation": "relu", "name": "conv2_block3_1_relu", "trainable": [{"args": ["b1", 0, 1], "state": [3, "|", null, null, null, -1, -1, 0]}, "AA==\n"]}, "inbound_nodes": [[["conv2_block3_1_bn", 0, 0, {}]]], "name": "conv2_block3_1_relu"}, {"class_name": "Conv2D", "config": {"activation": "linear", "activity_regularizer": null, "bias_constraint": null, "bias_initializer": {"class_name": "Zeros", "config": {}}, "bias_regularizer": null, "data_format": "channels_last", "dilation_rate": [1, 1], "filters": 32, "kernel_constraint": null, "kernel_initializer": {"class_name": "VarianceScaling", "config": {"distribution": "uniform", "mode": "fan_avg", "scale": 1.0, "seed": null}}, "kernel_regularizer": null, "kernel_size": [3, 3], "name": "conv2_block3_2_conv", "padding": "same", "strides": [1, 1], "trainable": [{"args": ["b1", 0, 1], "state": [3, "|", null, null, null, -1, -1, 0]}, "AA==\n"], "use_bias": false}, "inbound_nodes": [[["conv2_block3_1_relu", 0, 0, {}]]], "name": "conv2_block3_2_conv"}, {"class_name": "Concatenate", "config": {"axis": 3, "name": "conv2_block3_concat", "trainable": [{"args": ["b1", 0, 1], "state": [3, "|", null, null, null, -1, -1, 0]}, "AA==\n"]}, "inbound_nodes": [[["conv2_block2_concat", 0, 0, {}], ["conv2_block3_2_conv", 0, 0, {}]]], "name": "conv2_block3_concat"}, {"class_name": "BatchNormalization", "config": {"axis": 3, "beta_constraint": null, "beta_initializer": {"class_name": "Zeros", "config": {}}, "beta_regularizer": null, "center": true, "epsilon": 1.001e-05, "gamma_constraint": null, "gamma_initializer": {"class_name": "Ones", "config": {}}, "gamma_regularizer": null, "momentum": 0.99, "moving_mean_initializer": {"class_name": "Zeros", "config": {}}, "moving_variance_initializer": {"class_name": "Ones", "config": {}}, "name": "conv2_block4_0_bn", "scale": true, "trainable": [{"args": ["b1", 0, 1], "state": [3, "|", null, null, null, -1, -1, 0]}, "AA==\n"]}, "inbound_nodes": [[["conv2_block3_concat", 0, 0, {}]]], "name": "conv2_block4_0_bn"}, {"class_name": "Activation", "config": {"activation": "relu", "name": "conv2_block4_0_relu", "trainable": [{"args": ["b1", 0, 1], "state": [3, "|", null, null, null, -1, -1, 0]}, "AA==\n"]}, "inbound_nodes": [[["conv2_block4_0_bn", 0, 0, {}]]], "name": "conv2_block4_0_relu"}, {"class_name": "Conv2D", "config": {"activation": "linear", "activity_regularizer": null, "bias_constraint": null, "bias_initializer": {"class_name": "Zeros", "config": {}}, "bias_regularizer": null, "data_format": "channels_last", "dilation_rate": [1, 1], "filters": 128, "kernel_constraint": null, "kernel_initializer": {"class_name": "VarianceScaling", "config": {"distribution": "uniform", "mode": "fan_avg", "scale": 1.0, "seed": null}}, "kernel_regularizer": null, "kernel_size": [1, 1], "name": "conv2_block4_1_conv", "padding": "valid", "strides": [1, 1], "trainable": [{"args": ["b1", 0, 1], "state": [3, "|", null, null, null, -1, -1, 0]}, "AA==\n"], "use_bias": false}, "inbound_nodes": [[["conv2_block4_0_relu", 0, 0, {}]]], "name": "conv2_block4_1_conv"}, {"class_name": "BatchNormalization", "config": {"axis": 3, "beta_constraint": null, "beta_initializer": {"class_name": "Zeros", "config": {}}, "beta_regularizer": null, "center": true, "epsilon": 1.001e-05, "gamma_constraint": null, "gamma_initializer": {"class_name": "Ones", "config": {}}, "gamma_regularizer": null, "momentum": 0.99, "moving_mean_initializer": {"class_name": "Zeros", "config": {}}, "moving_variance_initializer": {"class_name": "Ones", "config": {}}, "name": "conv2_block4_1_bn", "scale": true, "trainable": [{"args": ["b1", 0, 1], "state": [3, "|", null, null, null, -1, -1, 0]}, "AA==\n"]}, "inbound_nodes": [[["conv2_block4_1_conv", 0, 0, {}]]], "name": "conv2_block4_1_bn"}, {"class_name": "Activation", "config": {"activation": "relu", "name": "conv2_block4_1_relu", "trainable": [{"args": ["b1", 0, 1], "state": [3, "|", null, null, null, -1, -1, 0]}, "AA==\n"]}, "inbound_nodes": [[["conv2_block4_1_bn", 0, 0, {}]]], "name": "conv2_block4_1_relu"}, {"class_name": "Conv2D", "config": {"activation": "linear", "activity_regularizer": null, "bias_constraint": null, "bias_initializer": {"class_name": "Zeros", "config": {}}, "bias_regularizer": null, "data_format": "channels_last", "dilation_rate": [1, 1], "filters": 32, "kernel_constraint": null, "kernel_initializer": {"class_name": "VarianceScaling", "config": {"distribution": "uniform", "mode": "fan_avg", "scale": 1.0, "seed": null}}, "kernel_regularizer": null, "kernel_size": [3, 3], "name": "conv2_block4_2_conv", "padding": "same", "strides": [1, 1], "trainable": [{"args": ["b1", 0, 1], "state": [3, "|", null, null, null, -1, -1, 0]}, "AA==\n"], "use_bias": false}, "inbound_nodes": [[["conv2_block4_1_relu", 0, 0, {}]]], "name": "conv2_block4_2_conv"}, {"class_name": "Concatenate", "config": {"axis": 3, "name": "conv2_block4_concat", "trainable": [{"args": ["b1", 0, 1], "state": [3, "|", null, null, null, -1, -1, 0]}, "AA==\n"]}, "inbound_nodes": [[["conv2_block3_concat", 0, 0, {}], ["conv2_block4_2_conv", 0, 0, {}]]], "name": "conv2_block4_concat"}, {"class_name": "BatchNormalization", "config": {"axis": 3, "beta_constraint": null, "beta_initializer": {"class_name": "Zeros", "config": {}}, "beta_regularizer": null, "center": true, "epsilon": 1.001e-05, "gamma_constraint": null, "gamma_initializer": {"class_name": "Ones", "config": {}}, "gamma_regularizer": null, "momentum": 0.99, "moving_mean_initializer": {"class_name": "Zeros", "config": {}}, "moving_variance_initializer": {"class_name": "Ones", "config": {}}, "name": "conv2_block5_0_bn", "scale": true, "trainable": [{"args": ["b1", 0, 1], "state": [3, "|", null, null, null, -1, -1, 0]}, "AA==\n"]}, "inbound_nodes": [[["conv2_block4_concat", 0, 0, {}]]], "name": "conv2_block5_0_bn"}, {"class_name": "Activation", "config": {"activation": "relu", "name": "conv2_block5_0_relu", "trainable": [{"args": ["b1", 0, 1], "state": [3, "|", null, null, null, -1, -1, 0]}, "AA==\n"]}, "inbound_nodes": [[["conv2_block5_0_bn", 0, 0, {}]]], "name": "conv2_block5_0_relu"}, {"class_name": "Conv2D", "config": {"activation": "linear", "activity_regularizer": null, "bias_constraint": null, "bias_initializer": {"class_name": "Zeros", "config": {}}, "bias_regularizer": null, "data_format": "channels_last", "dilation_rate": [1, 1], "filters": 128, "kernel_constraint": null, "kernel_initializer": {"class_name": "VarianceScaling", "config": {"distribution": "uniform", "mode": "fan_avg", "scale": 1.0, "seed": null}}, "kernel_regularizer": null, "kernel_size": [1, 1], "name": "conv2_block5_1_conv", "padding": "valid", "strides": [1, 1], "trainable": [{"args": ["b1", 0, 1], "state": [3, "|", null, null, null, -1, -1, 0]}, "AA==\n"], "use_bias": false}, "inbound_nodes": [[["conv2_block5_0_relu", 0, 0, {}]]], "name": "conv2_block5_1_conv"}, {"class_name": "BatchNormalization", "config": {"axis": 3, "beta_constraint": null, "beta_initializer": {"class_name": "Zeros", "config": {}}, "beta_regularizer": null, "center": true, "epsilon": 1.001e-05, "gamma_constraint": null, "gamma_initializer": {"class_name": "Ones", "config": {}}, "gamma_regularizer": null, "momentum": 0.99, "moving_mean_initializer": {"class_name": "Zeros", "config": {}}, "moving_variance_initializer": {"class_name": "Ones", "config": {}}, "name": "conv2_block5_1_bn", "scale": true, "trainable": [{"args": ["b1", 0, 1], "state": [3, "|", null, null, null, -1, -1, 0]}, "AA==\n"]}, "inbound_nodes": [[["conv2_block5_1_conv", 0, 0, {}]]], "name": "conv2_block5_1_bn"}, {"class_name": "Activation", "config": {"activation": "relu", "name": "conv2_block5_1_relu", "trainable": [{"args": ["b1", 0, 1], "state": [3, "|", null, null, null, -1, -1, 0]}, "AA==\n"]}, "inbound_nodes": [[["conv2_block5_1_bn", 0, 0, {}]]], "name": "conv2_block5_1_relu"}, {"class_name": "Conv2D", "config": {"activation": "linear", "activity_regularizer": null, "bias_constraint": null, "bias_initializer": {"class_name": "Zeros", "config": {}}, "bias_regularizer": null, "data_format": "channels_last", "dilation_rate": [1, 1], "filters": 32, "kernel_constraint": null, "kernel_initializer": {"class_name": "VarianceScaling", "config": {"distribution": "uniform", "mode": "fan_avg", "scale": 1.0, "seed": null}}, "kernel_regularizer": null, "kernel_size": [3, 3], "name": "conv2_block5_2_conv", "padding": "same", "strides": [1, 1], "trainable": [{"args": ["b1", 0, 1], "state": [3, "|", null, null, null, -1, -1, 0]}, "AA==\n"], "use_bias": false}, "inbound_nodes": [[["conv2_block5_1_relu", 0, 0, {}]]], "name": "conv2_block5_2_conv"}, {"class_name": "Concatenate", "config": {"axis": 3, "name": "conv2_block5_concat", "trainable": [{"args": ["b1", 0, 1], "state": [3, "|", null, null, null, -1, -1, 0]}, "AA==\n"]}, "inbound_nodes": [[["conv2_block4_concat", 0, 0, {}], ["conv2_block5_2_conv", 0, 0, {}]]], "name": "conv2_block5_concat"}, {"class_name": "BatchNormalization", "config": {"axis": 3, "beta_constraint": null, "beta_initializer": {"class_name": "Zeros", "config": {}}, "beta_regularizer": null, "center": true, "epsilon": 1.001e-05, "gamma_constraint": null, "gamma_initializer": {"class_name": "Ones", "config": {}}, "gamma_regularizer": null, "momentum": 0.99, "moving_mean_initializer": {"class_name": "Zeros", "config": {}}, "moving_variance_initializer": {"class_name": "Ones", "config": {}}, "name": "conv2_block6_0_bn", "scale": true, "trainable": [{"args": ["b1", 0, 1], "state": [3, "|", null, null, null, -1, -1, 0]}, "AA==\n"]}, "inbound_nodes": [[["conv2_block5_concat", 0, 0, {}]]], "name": "conv2_block6_0_bn"}, {"class_name": "Activation", "config": {"activation": "relu", "name": "conv2_block6_0_relu", "trainable": [{"args": ["b1", 0, 1], "state": [3, "|", null, null, null, -1, -1, 0]}, "AA==\n"]}, "inbound_nodes": [[["conv2_block6_0_bn", 0, 0, {}]]], "name": "conv2_block6_0_relu"}, {"class_name": "Conv2D", "config": {"activation": "linear", "activity_regularizer": null, "bias_constraint": null, "bias_initializer": {"class_name": "Zeros", "config": {}}, "bias_regularizer": null, "data_format": "channels_last", "dilation_rate": [1, 1], "filters": 128, "kernel_constraint": null, "kernel_initializer": {"class_name": "VarianceScaling", "config": {"distribution": "uniform", "mode": "fan_avg", "scale": 1.0, "seed": null}}, "kernel_regularizer": null, "kernel_size": [1, 1], "name": "conv2_block6_1_conv", "padding": "valid", "strides": [1, 1], "trainable": [{"args": ["b1", 0, 1], "state": [3, "|", null, null, null, -1, -1, 0]}, "AA==\n"], "use_bias": false}, "inbound_nodes": [[["conv2_block6_0_relu", 0, 0, {}]]], "name": "conv2_block6_1_conv"}, {"class_name": "BatchNormalization", "config": {"axis": 3, "beta_constraint": null, "beta_initializer": {"class_name": "Zeros", "config": {}}, "beta_regularizer": null, "center": true, "epsilon": 1.001e-05, "gamma_constraint": null, "gamma_initializer": {"class_name": "Ones", "config": {}}, "gamma_regularizer": null, "momentum": 0.99, "moving_mean_initializer": {"class_name": "Zeros", "config": {}}, "moving_variance_initializer": {"class_name": "Ones", "config": {}}, "name": "conv2_block6_1_bn", "scale": true, "trainable": [{"args": ["b1", 0, 1], "state": [3, "|", null, null, null, -1, -1, 0]}, "AA==\n"]}, "inbound_nodes": [[["conv2_block6_1_conv", 0, 0, {}]]], "name": "conv2_block6_1_bn"}, {"class_name": "Activation", "config": {"activation": "relu", "name": "conv2_block6_1_relu", "trainable": [{"args": ["b1", 0, 1], "state": [3, "|", null, null, null, -1, -1, 0]}, "AA==\n"]}, "inbound_nodes": [[["conv2_block6_1_bn", 0, 0, {}]]], "name": "conv2_block6_1_relu"}, {"class_name": "Conv2D", "config": {"activation": "linear", "activity_regularizer": null, "bias_constraint": null, "bias_initializer": {"class_name": "Zeros", "config": {}}, "bias_regularizer": null, "data_format": "channels_last", "dilation_rate": [1, 1], "filters": 32, "kernel_constraint": null, "kernel_initializer": {"class_name": "VarianceScaling", "config": {"distribution": "uniform", "mode": "fan_avg", "scale": 1.0, "seed": null}}, "kernel_regularizer": null, "kernel_size": [3, 3], "name": "conv2_block6_2_conv", "padding": "same", "strides": [1, 1], "trainable": [{"args": ["b1", 0, 1], "state": [3, "|", null, null, null, -1, -1, 0]}, "AA==\n"], "use_bias": false}, "inbound_nodes": [[["conv2_block6_1_relu", 0, 0, {}]]], "name": "conv2_block6_2_conv"}, {"class_name": "Concatenate", "config": {"axis": 3, "name": "conv2_block6_concat", "trainable": [{"args": ["b1", 0, 1], "state": [3, "|", null, null, null, -1, -1, 0]}, "AA==\n"]}, "inbound_nodes": [[["conv2_block5_concat", 0, 0, {}], ["conv2_block6_2_conv", 0, 0, {}]]], "name": "conv2_block6_concat"}, {"class_name": "BatchNormalization", "config": {"axis": 3, "beta_constraint": null, "beta_initializer": {"class_name": "Zeros", "config": {}}, "beta_regularizer": null, "center": true, "epsilon": 1.001e-05, "gamma_constraint": null, "gamma_initializer": {"class_name": "Ones", "config": {}}, "gamma_regularizer": null, "momentum": 0.99, "moving_mean_initializer": {"class_name": "Zeros", "config": {}}, "moving_variance_initializer": {"class_name": "Ones", "config": {}}, "name": "pool2_bn", "scale": true, "trainable": [{"args": ["b1", 0, 1], "state": [3, "|", null, null, null, -1, -1, 0]}, "AA==\n"]}, "inbound_nodes": [[["conv2_block6_concat", 0, 0, {}]]], "name": "pool2_bn"}, {"class_name": "Activation", "config": {"activation": "relu", "name": "pool2_relu", "trainable": [{"args": ["b1", 0, 1], "state": [3, "|", null, null, null, -1, -1, 0]}, "AA==\n"]}, "inbound_nodes": [[["pool2_bn", 0, 0, {}]]], "name": "pool2_relu"}, {"class_name": "Conv2D", "config": {"activation": "linear", "activity_regularizer": null, "bias_constraint": null, "bias_initializer": {"class_name": "Zeros", "config": {}}, "bias_regularizer": null, "data_format": "channels_last", "dilation_rate": [1, 1], "filters": 128, "kernel_constraint": null, "kernel_initializer": {"class_name": "VarianceScaling", "config": {"distribution": "uniform", "mode": "fan_avg", "scale": 1.0, "seed": null}}, "kernel_regularizer": null, "kernel_size": [1, 1], "name": "pool2_conv", "padding": "valid", "strides": [1, 1], "trainable": [{"args": ["b1", 0, 1], "state": [3, "|", null, null, null, -1, -1, 0]}, "AA==\n"], "use_bias": false}, "inbound_nodes": [[["pool2_relu", 0, 0, {}]]], "name": "pool2_conv"}, {"class_name": "AveragePooling2D", "config": {"data_format": "channels_last", "name": "pool2_pool", "padding": "valid", "pool_size": [2, 2], "strides": [2, 2], "trainable": [{"args": ["b1", 0, 1], "state": [3, "|", null, null, null, -1, -1, 0]}, "AA==\n"]}, "inbound_nodes": [[["pool2_conv", 0, 0, {}]]], "name": "pool2_pool"}, {"class_name": "BatchNormalization", "config": {"axis": 3, "beta_constraint": null, "beta_initializer": {"class_name": "Zeros", "config": {}}, "beta_regularizer": null, "center": true, "epsilon": 1.001e-05, "gamma_constraint": null, "gamma_initializer": {"class_name": "Ones", "config": {}}, "gamma_regularizer": null, "momentum": 0.99, "moving_mean_initializer": {"class_name": "Zeros", "config": {}}, "moving_variance_initializer": {"class_name": "Ones", "config": {}}, "name": "conv3_block1_0_bn", "scale": true, "trainable": [{"args": ["b1", 0, 1], "state": [3, "|", null, null, null, -1, -1, 0]}, "AA==\n"]}, "inbound_nodes": [[["pool2_pool", 0, 0, {}]]], "name": "conv3_block1_0_bn"}, {"class_name": "Activation", "config": {"activation": "relu", "name": "conv3_block1_0_relu", "trainable": [{"args": ["b1", 0, 1], "state": [3, "|", null, null, null, -1, -1, 0]}, "AA==\n"]}, "inbound_nodes": [[["conv3_block1_0_bn", 0, 0, {}]]], "name": "conv3_block1_0_relu"}, {"class_name": "Conv2D", "config": {"activation": "linear", "activity_regularizer": null, "bias_constraint": null, "bias_initializer": {"class_name": "Zeros", "config": {}}, "bias_regularizer": null, "data_format": "channels_last", "dilation_rate": [1, 1], "filters": 128, "kernel_constraint": null, "kernel_initializer": {"class_name": "VarianceScaling", "config": {"distribution": "uniform", "mode": "fan_avg", "scale": 1.0, "seed": null}}, "kernel_regularizer": null, "kernel_size": [1, 1], "name": "conv3_block1_1_conv", "padding": "valid", "strides": [1, 1], "trainable": [{"args": ["b1", 0, 1], "state": [3, "|", null, null, null, -1, -1, 0]}, "AA==\n"], "use_bias": false}, "inbound_nodes": [[["conv3_block1_0_relu", 0, 0, {}]]], "name": "conv3_block1_1_conv"}, {"class_name": "BatchNormalization", "config": {"axis": 3, "beta_constraint": null, "beta_initializer": {"class_name": "Zeros", "config": {}}, "beta_regularizer": null, "center": true, "epsilon": 1.001e-05, "gamma_constraint": null, "gamma_initializer": {"class_name": "Ones", "config": {}}, "gamma_regularizer": null, "momentum": 0.99, "moving_mean_initializer": {"class_name": "Zeros", "config": {}}, "moving_variance_initializer": {"class_name": "Ones", "config": {}}, "name": "conv3_block1_1_bn", "scale": true, "trainable": [{"args": ["b1", 0, 1], "state": [3, "|", null, null, null, -1, -1, 0]}, "AA==\n"]}, "inbound_nodes": [[["conv3_block1_1_conv", 0, 0, {}]]], "name": "conv3_block1_1_bn"}, {"class_name": "Activation", "config": {"activation": "relu", "name": "conv3_block1_1_relu", "trainable": [{"args": ["b1", 0, 1], "state": [3, "|", null, null, null, -1, -1, 0]}, "AA==\n"]}, "inbound_nodes": [[["conv3_block1_1_bn", 0, 0, {}]]], "name": "conv3_block1_1_relu"}, {"class_name": "Conv2D", "config": {"activation": "linear", "activity_regularizer": null, "bias_constraint": null, "bias_initializer": {"class_name": "Zeros", "config": {}}, "bias_regularizer": null, "data_format": "channels_last", "dilation_rate": [1, 1], "filters": 32, "kernel_constraint": null, "kernel_initializer": {"class_name": "VarianceScaling", "config": {"distribution": "uniform", "mode": "fan_avg", "scale": 1.0, "seed": null}}, "kernel_regularizer": null, "kernel_size": [3, 3], "name": "conv3_block1_2_conv", "padding": "same", "strides": [1, 1], "trainable": [{"args": ["b1", 0, 1], "state": [3, "|", null, null, null, -1, -1, 0]}, "AA==\n"], "use_bias": false}, "inbound_nodes": [[["conv3_block1_1_relu", 0, 0, {}]]], "name": "conv3_block1_2_conv"}, {"class_name": "Concatenate", "config": {"axis": 3, "name": "conv3_block1_concat", "trainable": [{"args": ["b1", 0, 1], "state": [3, "|", null, null, null, -1, -1, 0]}, "AA==\n"]}, "inbound_nodes": [[["pool2_pool", 0, 0, {}], ["conv3_block1_2_conv", 0, 0, {}]]], "name": "conv3_block1_concat"}, {"class_name": "BatchNormalization", "config": {"axis": 3, "beta_constraint": null, "beta_initializer": {"class_name": "Zeros", "config": {}}, "beta_regularizer": null, "center": true, "epsilon": 1.001e-05, "gamma_constraint": null, "gamma_initializer": {"class_name": "Ones", "config": {}}, "gamma_regularizer": null, "momentum": 0.99, "moving_mean_initializer": {"class_name": "Zeros", "config": {}}, "moving_variance_initializer": {"class_name": "Ones", "config": {}}, "name": "conv3_block2_0_bn", "scale": true, "trainable": [{"args": ["b1", 0, 1], "state": [3, "|", null, null, null, -1, -1, 0]}, "AA==\n"]}, "inbound_nodes": [[["conv3_block1_concat", 0, 0, {}]]], "name": "conv3_block2_0_bn"}, {"class_name": "Activation", "config": {"activation": "relu", "name": "conv3_block2_0_relu", "trainable": [{"args": ["b1", 0, 1], "state": [3, "|", null, null, null, -1, -1, 0]}, "AA==\n"]}, "inbound_nodes": [[["conv3_block2_0_bn", 0, 0, {}]]], "name": "conv3_block2_0_relu"}, {"class_name": "Conv2D", "config": {"activation": "linear", "activity_regularizer": null, "bias_constraint": null, "bias_initializer": {"class_name": "Zeros", "config": {}}, "bias_regularizer": null, "data_format": "channels_last", "dilation_rate": [1, 1], "filters": 128, "kernel_constraint": null, "kernel_initializer": {"class_name": "VarianceScaling", "config": {"distribution": "uniform", "mode": "fan_avg", "scale": 1.0, "seed": null}}, "kernel_regularizer": null, "kernel_size": [1, 1], "name": "conv3_block2_1_conv", "padding": "valid", "strides": [1, 1], "trainable": [{"args": ["b1", 0, 1], "state": [3, "|", null, null, null, -1, -1, 0]}, "AA==\n"], "use_bias": false}, "inbound_nodes": [[["conv3_block2_0_relu", 0, 0, {}]]], "name": "conv3_block2_1_conv"}, {"class_name": "BatchNormalization", "config": {"axis": 3, "beta_constraint": null, "beta_initializer": {"class_name": "Zeros", "config": {}}, "beta_regularizer": null, "center": true, "epsilon": 1.001e-05, "gamma_constraint": null, "gamma_initializer": {"class_name": "Ones", "config": {}}, "gamma_regularizer": null, "momentum": 0.99, "moving_mean_initializer": {"class_name": "Zeros", "config": {}}, "moving_variance_initializer": {"class_name": "Ones", "config": {}}, "name": "conv3_block2_1_bn", "scale": true, "trainable": [{"args": ["b1", 0, 1], "state": [3, "|", null, null, null, -1, -1, 0]}, "AA==\n"]}, "inbound_nodes": [[["conv3_block2_1_conv", 0, 0, {}]]], "name": "conv3_block2_1_bn"}, {"class_name": "Activation", "config": {"activation": "relu", "name": "conv3_block2_1_relu", "trainable": [{"args": ["b1", 0, 1], "state": [3, "|", null, null, null, -1, -1, 0]}, "AA==\n"]}, "inbound_nodes": [[["conv3_block2_1_bn", 0, 0, {}]]], "name": "conv3_block2_1_relu"}, {"class_name": "Conv2D", "config": {"activation": "linear", "activity_regularizer": null, "bias_constraint": null, "bias_initializer": {"class_name": "Zeros", "config": {}}, "bias_regularizer": null, "data_format": "channels_last", "dilation_rate": [1, 1], "filters": 32, "kernel_constraint": null, "kernel_initializer": {"class_name": "VarianceScaling", "config": {"distribution": "uniform", "mode": "fan_avg", "scale": 1.0, "seed": null}}, "kernel_regularizer": null, "kernel_size": [3, 3], "name": "conv3_block2_2_conv", "padding": "same", "strides": [1, 1], "trainable": [{"args": ["b1", 0, 1], "state": [3, "|", null, null, null, -1, -1, 0]}, "AA==\n"], "use_bias": false}, "inbound_nodes": [[["conv3_block2_1_relu", 0, 0, {}]]], "name": "conv3_block2_2_conv"}, {"class_name": "Concatenate", "config": {"axis": 3, "name": "conv3_block2_concat", "trainable": [{"args": ["b1", 0, 1], "state": [3, "|", null, null, null, -1, -1, 0]}, "AA==\n"]}, "inbound_nodes": [[["conv3_block1_concat", 0, 0, {}], ["conv3_block2_2_conv", 0, 0, {}]]], "name": "conv3_block2_concat"}, {"class_name": "BatchNormalization", "config": {"axis": 3, "beta_constraint": null, "beta_initializer": {"class_name": "Zeros", "config": {}}, "beta_regularizer": null, "center": true, "epsilon": 1.001e-05, "gamma_constraint": null, "gamma_initializer": {"class_name": "Ones", "config": {}}, "gamma_regularizer": null, "momentum": 0.99, "moving_mean_initializer": {"class_name": "Zeros", "config": {}}, "moving_variance_initializer": {"class_name": "Ones", "config": {}}, "name": "conv3_block3_0_bn", "scale": true, "trainable": [{"args": ["b1", 0, 1], "state": [3, "|", null, null, null, -1, -1, 0]}, "AA==\n"]}, "inbound_nodes": [[["conv3_block2_concat", 0, 0, {}]]], "name": "conv3_block3_0_bn"}, {"class_name": "Activation", "config": {"activation": "relu", "name": "conv3_block3_0_relu", "trainable": [{"args": ["b1", 0, 1], "state": [3, "|", null, null, null, -1, -1, 0]}, "AA==\n"]}, "inbound_nodes": [[["conv3_block3_0_bn", 0, 0, {}]]], "name": "conv3_block3_0_relu"}, {"class_name": "Conv2D", "config": {"activation": "linear", "activity_regularizer": null, "bias_constraint": null, "bias_initializer": {"class_name": "Zeros", "config": {}}, "bias_regularizer": null, "data_format": "channels_last", "dilation_rate": [1, 1], "filters": 128, "kernel_constraint": null, "kernel_initializer": {"class_name": "VarianceScaling", "config": {"distribution": "uniform", "mode": "fan_avg", "scale": 1.0, "seed": null}}, "kernel_regularizer": null, "kernel_size": [1, 1], "name": "conv3_block3_1_conv", "padding": "valid", "strides": [1, 1], "trainable": [{"args": ["b1", 0, 1], "state": [3, "|", null, null, null, -1, -1, 0]}, "AA==\n"], "use_bias": false}, "inbound_nodes": [[["conv3_block3_0_relu", 0, 0, {}]]], "name": "conv3_block3_1_conv"}, {"class_name": "BatchNormalization", "config": {"axis": 3, "beta_constraint": null, "beta_initializer": {"class_name": "Zeros", "config": {}}, "beta_regularizer": null, "center": true, "epsilon": 1.001e-05, "gamma_constraint": null, "gamma_initializer": {"class_name": "Ones", "config": {}}, "gamma_regularizer": null, "momentum": 0.99, "moving_mean_initializer": {"class_name": "Zeros", "config": {}}, "moving_variance_initializer": {"class_name": "Ones", "config": {}}, "name": "conv3_block3_1_bn", "scale": true, "trainable": [{"args": ["b1", 0, 1], "state": [3, "|", null, null, null, -1, -1, 0]}, "AA==\n"]}, "inbound_nodes": [[["conv3_block3_1_conv", 0, 0, {}]]], "name": "conv3_block3_1_bn"}, {"class_name": "Activation", "config": {"activation": "relu", "name": "conv3_block3_1_relu", "trainable": [{"args": ["b1", 0, 1], "state": [3, "|", null, null, null, -1, -1, 0]}, "AA==\n"]}, "inbound_nodes": [[["conv3_block3_1_bn", 0, 0, {}]]], "name": "conv3_block3_1_relu"}, {"class_name": "Conv2D", "config": {"activation": "linear", "activity_regularizer": null, "bias_constraint": null, "bias_initializer": {"class_name": "Zeros", "config": {}}, "bias_regularizer": null, "data_format": "channels_last", "dilation_rate": [1, 1], "filters": 32, "kernel_constraint": null, "kernel_initializer": {"class_name": "VarianceScaling", "config": {"distribution": "uniform", "mode": "fan_avg", "scale": 1.0, "seed": null}}, "kernel_regularizer": null, "kernel_size": [3, 3], "name": "conv3_block3_2_conv", "padding": "same", "strides": [1, 1], "trainable": [{"args": ["b1", 0, 1], "state": [3, "|", null, null, null, -1, -1, 0]}, "AA==\n"], "use_bias": false}, "inbound_nodes": [[["conv3_block3_1_relu", 0, 0, {}]]], "name": "conv3_block3_2_conv"}, {"class_name": "Concatenate", "config": {"axis": 3, "name": "conv3_block3_concat", "trainable": [{"args": ["b1", 0, 1], "state": [3, "|", null, null, null, -1, -1, 0]}, "AA==\n"]}, "inbound_nodes": [[["conv3_block2_concat", 0, 0, {}], ["conv3_block3_2_conv", 0, 0, {}]]], "name": "conv3_block3_concat"}, {"class_name": "BatchNormalization", "config": {"axis": 3, "beta_constraint": null, "beta_initializer": {"class_name": "Zeros", "config": {}}, "beta_regularizer": null, "center": true, "epsilon": 1.001e-05, "gamma_constraint": null, "gamma_initializer": {"class_name": "Ones", "config": {}}, "gamma_regularizer": null, "momentum": 0.99, "moving_mean_initializer": {"class_name": "Zeros", "config": {}}, "moving_variance_initializer": {"class_name": "Ones", "config": {}}, "name": "conv3_block4_0_bn", "scale": true, "trainable": [{"args": ["b1", 0, 1], "state": [3, "|", null, null, null, -1, -1, 0]}, "AA==\n"]}, "inbound_nodes": [[["conv3_block3_concat", 0, 0, {}]]], "name": "conv3_block4_0_bn"}, {"class_name": "Activation", "config": {"activation": "relu", "name": "conv3_block4_0_relu", "trainable": [{"args": ["b1", 0, 1], "state": [3, "|", null, null, null, -1, -1, 0]}, "AA==\n"]}, "inbound_nodes": [[["conv3_block4_0_bn", 0, 0, {}]]], "name": "conv3_block4_0_relu"}, {"class_name": "Conv2D", "config": {"activation": "linear", "activity_regularizer": null, "bias_constraint": null, "bias_initializer": {"class_name": "Zeros", "config": {}}, "bias_regularizer": null, "data_format": "channels_last", "dilation_rate": [1, 1], "filters": 128, "kernel_constraint": null, "kernel_initializer": {"class_name": "VarianceScaling", "config": {"distribution": "uniform", "mode": "fan_avg", "scale": 1.0, "seed": null}}, "kernel_regularizer": null, "kernel_size": [1, 1], "name": "conv3_block4_1_conv", "padding": "valid", "strides": [1, 1], "trainable": [{"args": ["b1", 0, 1], "state": [3, "|", null, null, null, -1, -1, 0]}, "AA==\n"], "use_bias": false}, "inbound_nodes": [[["conv3_block4_0_relu", 0, 0, {}]]], "name": "conv3_block4_1_conv"}, {"class_name": "BatchNormalization", "config": {"axis": 3, "beta_constraint": null, "beta_initializer": {"class_name": "Zeros", "config": {}}, "beta_regularizer": null, "center": true, "epsilon": 1.001e-05, "gamma_constraint": null, "gamma_initializer": {"class_name": "Ones", "config": {}}, "gamma_regularizer": null, "momentum": 0.99, "moving_mean_initializer": {"class_name": "Zeros", "config": {}}, "moving_variance_initializer": {"class_name": "Ones", "config": {}}, "name": "conv3_block4_1_bn", "scale": true, "trainable": [{"args": ["b1", 0, 1], "state": [3, "|", null, null, null, -1, -1, 0]}, "AA==\n"]}, "inbound_nodes": [[["conv3_block4_1_conv", 0, 0, {}]]], "name": "conv3_block4_1_bn"}, {"class_name": "Activation", "config": {"activation": "relu", "name": "conv3_block4_1_relu", "trainable": [{"args": ["b1", 0, 1], "state": [3, "|", null, null, null, -1, -1, 0]}, "AA==\n"]}, "inbound_nodes": [[["conv3_block4_1_bn", 0, 0, {}]]], "name": "conv3_block4_1_relu"}, {"class_name": "Conv2D", "config": {"activation": "linear", "activity_regularizer": null, "bias_constraint": null, "bias_initializer": {"class_name": "Zeros", "config": {}}, "bias_regularizer": null, "data_format": "channels_last", "dilation_rate": [1, 1], "filters": 32, "kernel_constraint": null, "kernel_initializer": {"class_name": "VarianceScaling", "config": {"distribution": "uniform", "mode": "fan_avg", "scale": 1.0, "seed": null}}, "kernel_regularizer": null, "kernel_size": [3, 3], "name": "conv3_block4_2_conv", "padding": "same", "strides": [1, 1], "trainable": [{"args": ["b1", 0, 1], "state": [3, "|", null, null, null, -1, -1, 0]}, "AA==\n"], "use_bias": false}, "inbound_nodes": [[["conv3_block4_1_relu", 0, 0, {}]]], "name": "conv3_block4_2_conv"}, {"class_name": "Concatenate", "config": {"axis": 3, "name": "conv3_block4_concat", "trainable": [{"args": ["b1", 0, 1], "state": [3, "|", null, null, null, -1, -1, 0]}, "AA==\n"]}, "inbound_nodes": [[["conv3_block3_concat", 0, 0, {}], ["conv3_block4_2_conv", 0, 0, {}]]], "name": "conv3_block4_concat"}, {"class_name": "BatchNormalization", "config": {"axis": 3, "beta_constraint": null, "beta_initializer": {"class_name": "Zeros", "config": {}}, "beta_regularizer": null, "center": true, "epsilon": 1.001e-05, "gamma_constraint": null, "gamma_initializer": {"class_name": "Ones", "config": {}}, "gamma_regularizer": null, "momentum": 0.99, "moving_mean_initializer": {"class_name": "Zeros", "config": {}}, "moving_variance_initializer": {"class_name": "Ones", "config": {}}, "name": "conv3_block5_0_bn", "scale": true, "trainable": [{"args": ["b1", 0, 1], "state": [3, "|", null, null, null, -1, -1, 0]}, "AA==\n"]}, "inbound_nodes": [[["conv3_block4_concat", 0, 0, {}]]], "name": "conv3_block5_0_bn"}, {"class_name": "Activation", "config": {"activation": "relu", "name": "conv3_block5_0_relu", "trainable": [{"args": ["b1", 0, 1], "state": [3, "|", null, null, null, -1, -1, 0]}, "AA==\n"]}, "inbound_nodes": [[["conv3_block5_0_bn", 0, 0, {}]]], "name": "conv3_block5_0_relu"}, {"class_name": "Conv2D", "config": {"activation": "linear", "activity_regularizer": null, "bias_constraint": null, "bias_initializer": {"class_name": "Zeros", "config": {}}, "bias_regularizer": null, "data_format": "channels_last", "dilation_rate": [1, 1], "filters": 128, "kernel_constraint": null, "kernel_initializer": {"class_name": "VarianceScaling", "config": {"distribution": "uniform", "mode": "fan_avg", "scale": 1.0, "seed": null}}, "kernel_regularizer": null, "kernel_size": [1, 1], "name": "conv3_block5_1_conv", "padding": "valid", "strides": [1, 1], "trainable": [{"args": ["b1", 0, 1], "state": [3, "|", null, null, null, -1, -1, 0]}, "AA==\n"], "use_bias": false}, "inbound_nodes": [[["conv3_block5_0_relu", 0, 0, {}]]], "name": "conv3_block5_1_conv"}, {"class_name": "BatchNormalization", "config": {"axis": 3, "beta_constraint": null, "beta_initializer": {"class_name": "Zeros", "config": {}}, "beta_regularizer": null, "center": true, "epsilon": 1.001e-05, "gamma_constraint": null, "gamma_initializer": {"class_name": "Ones", "config": {}}, "gamma_regularizer": null, "momentum": 0.99, "moving_mean_initializer": {"class_name": "Zeros", "config": {}}, "moving_variance_initializer": {"class_name": "Ones", "config": {}}, "name": "conv3_block5_1_bn", "scale": true, "trainable": [{"args": ["b1", 0, 1], "state": [3, "|", null, null, null, -1, -1, 0]}, "AA==\n"]}, "inbound_nodes": [[["conv3_block5_1_conv", 0, 0, {}]]], "name": "conv3_block5_1_bn"}, {"class_name": "Activation", "config": {"activation": "relu", "name": "conv3_block5_1_relu", "trainable": [{"args": ["b1", 0, 1], "state": [3, "|", null, null, null, -1, -1, 0]}, "AA==\n"]}, "inbound_nodes": [[["conv3_block5_1_bn", 0, 0, {}]]], "name": "conv3_block5_1_relu"}, {"class_name": "Conv2D", "config": {"activation": "linear", "activity_regularizer": null, "bias_constraint": null, "bias_initializer": {"class_name": "Zeros", "config": {}}, "bias_regularizer": null, "data_format": "channels_last", "dilation_rate": [1, 1], "filters": 32, "kernel_constraint": null, "kernel_initializer": {"class_name": "VarianceScaling", "config": {"distribution": "uniform", "mode": "fan_avg", "scale": 1.0, "seed": null}}, "kernel_regularizer": null, "kernel_size": [3, 3], "name": "conv3_block5_2_conv", "padding": "same", "strides": [1, 1], "trainable": [{"args": ["b1", 0, 1], "state": [3, "|", null, null, null, -1, -1, 0]}, "AA==\n"], "use_bias": false}, "inbound_nodes": [[["conv3_block5_1_relu", 0, 0, {}]]], "name": "conv3_block5_2_conv"}, {"class_name": "Concatenate", "config": {"axis": 3, "name": "conv3_block5_concat", "trainable": [{"args": ["b1", 0, 1], "state": [3, "|", null, null, null, -1, -1, 0]}, "AA==\n"]}, "inbound_nodes": [[["conv3_block4_concat", 0, 0, {}], ["conv3_block5_2_conv", 0, 0, {}]]], "name": "conv3_block5_concat"}, {"class_name": "BatchNormalization", "config": {"axis": 3, "beta_constraint": null, "beta_initializer": {"class_name": "Zeros", "config": {}}, "beta_regularizer": null, "center": true, "epsilon": 1.001e-05, "gamma_constraint": null, "gamma_initializer": {"class_name": "Ones", "config": {}}, "gamma_regularizer": null, "momentum": 0.99, "moving_mean_initializer": {"class_name": "Zeros", "config": {}}, "moving_variance_initializer": {"class_name": "Ones", "config": {}}, "name": "conv3_block6_0_bn", "scale": true, "trainable": [{"args": ["b1", 0, 1], "state": [3, "|", null, null, null, -1, -1, 0]}, "AA==\n"]}, "inbound_nodes": [[["conv3_block5_concat", 0, 0, {}]]], "name": "conv3_block6_0_bn"}, {"class_name": "Activation", "config": {"activation": "relu", "name": "conv3_block6_0_relu", "trainable": [{"args": ["b1", 0, 1], "state": [3, "|", null, null, null, -1, -1, 0]}, "AA==\n"]}, "inbound_nodes": [[["conv3_block6_0_bn", 0, 0, {}]]], "name": "conv3_block6_0_relu"}, {"class_name": "Conv2D", "config": {"activation": "linear", "activity_regularizer": null, "bias_constraint": null, "bias_initializer": {"class_name": "Zeros", "config": {}}, "bias_regularizer": null, "data_format": "channels_last", "dilation_rate": [1, 1], "filters": 128, "kernel_constraint": null, "kernel_initializer": {"class_name": "VarianceScaling", "config": {"distribution": "uniform", "mode": "fan_avg", "scale": 1.0, "seed": null}}, "kernel_regularizer": null, "kernel_size": [1, 1], "name": "conv3_block6_1_conv", "padding": "valid", "strides": [1, 1], "trainable": [{"args": ["b1", 0, 1], "state": [3, "|", null, null, null, -1, -1, 0]}, "AA==\n"], "use_bias": false}, "inbound_nodes": [[["conv3_block6_0_relu", 0, 0, {}]]], "name": "conv3_block6_1_conv"}, {"class_name": "BatchNormalization", "config": {"axis": 3, "beta_constraint": null, "beta_initializer": {"class_name": "Zeros", "config": {}}, "beta_regularizer": null, "center": true, "epsilon": 1.001e-05, "gamma_constraint": null, "gamma_initializer": {"class_name": "Ones", "config": {}}, "gamma_regularizer": null, "momentum": 0.99, "moving_mean_initializer": {"class_name": "Zeros", "config": {}}, "moving_variance_initializer": {"class_name": "Ones", "config": {}}, "name": "conv3_block6_1_bn", "scale": true, "trainable": [{"args": ["b1", 0, 1], "state": [3, "|", null, null, null, -1, -1, 0]}, "AA==\n"]}, "inbound_nodes": [[["conv3_block6_1_conv", 0, 0, {}]]], "name": "conv3_block6_1_bn"}, {"class_name": "Activation", "config": {"activation": "relu", "name": "conv3_block6_1_relu", "trainable": [{"args": ["b1", 0, 1], "state": [3, "|", null, null, null, -1, -1, 0]}, "AA==\n"]}, "inbound_nodes": [[["conv3_block6_1_bn", 0, 0, {}]]], "name": "conv3_block6_1_relu"}, {"class_name": "Conv2D", "config": {"activation": "linear", "activity_regularizer": null, "bias_constraint": null, "bias_initializer": {"class_name": "Zeros", "config": {}}, "bias_regularizer": null, "data_format": "channels_last", "dilation_rate": [1, 1], "filters": 32, "kernel_constraint": null, "kernel_initializer": {"class_name": "VarianceScaling", "config": {"distribution": "uniform", "mode": "fan_avg", "scale": 1.0, "seed": null}}, "kernel_regularizer": null, "kernel_size": [3, 3], "name": "conv3_block6_2_conv", "padding": "same", "strides": [1, 1], "trainable": [{"args": ["b1", 0, 1], "state": [3, "|", null, null, null, -1, -1, 0]}, "AA==\n"], "use_bias": false}, "inbound_nodes": [[["conv3_block6_1_relu", 0, 0, {}]]], "name": "conv3_block6_2_conv"}, {"class_name": "Concatenate", "config": {"axis": 3, "name": "conv3_block6_concat", "trainable": [{"args": ["b1", 0, 1], "state": [3, "|", null, null, null, -1, -1, 0]}, "AA==\n"]}, "inbound_nodes": [[["conv3_block5_concat", 0, 0, {}], ["conv3_block6_2_conv", 0, 0, {}]]], "name": "conv3_block6_concat"}, {"class_name": "BatchNormalization", "config": {"axis": 3, "beta_constraint": null, "beta_initializer": {"class_name": "Zeros", "config": {}}, "beta_regularizer": null, "center": true, "epsilon": 1.001e-05, "gamma_constraint": null, "gamma_initializer": {"class_name": "Ones", "config": {}}, "gamma_regularizer": null, "momentum": 0.99, "moving_mean_initializer": {"class_name": "Zeros", "config": {}}, "moving_variance_initializer": {"class_name": "Ones", "config": {}}, "name": "conv3_block7_0_bn", "scale": true, "trainable": [{"args": ["b1", 0, 1], "state": [3, "|", null, null, null, -1, -1, 0]}, "AA==\n"]}, "inbound_nodes": [[["conv3_block6_concat", 0, 0, {}]]], "name": "conv3_block7_0_bn"}, {"class_name": "Activation", "config": {"activation": "relu", "name": "conv3_block7_0_relu", "trainable": [{"args": ["b1", 0, 1], "state": [3, "|", null, null, null, -1, -1, 0]}, "AA==\n"]}, "inbound_nodes": [[["conv3_block7_0_bn", 0, 0, {}]]], "name": "conv3_block7_0_relu"}, {"class_name": "Conv2D", "config": {"activation": "linear", "activity_regularizer": null, "bias_constraint": null, "bias_initializer": {"class_name": "Zeros", "config": {}}, "bias_regularizer": null, "data_format": "channels_last", "dilation_rate": [1, 1], "filters": 128, "kernel_constraint": null, "kernel_initializer": {"class_name": "VarianceScaling", "config": {"distribution": "uniform", "mode": "fan_avg", "scale": 1.0, "seed": null}}, "kernel_regularizer": null, "kernel_size": [1, 1], "name": "conv3_block7_1_conv", "padding": "valid", "strides": [1, 1], "trainable": [{"args": ["b1", 0, 1], "state": [3, "|", null, null, null, -1, -1, 0]}, "AA==\n"], "use_bias": false}, "inbound_nodes": [[["conv3_block7_0_relu", 0, 0, {}]]], "name": "conv3_block7_1_conv"}, {"class_name": "BatchNormalization", "config": {"axis": 3, "beta_constraint": null, "beta_initializer": {"class_name": "Zeros", "config": {}}, "beta_regularizer": null, "center": true, "epsilon": 1.001e-05, "gamma_constraint": null, "gamma_initializer": {"class_name": "Ones", "config": {}}, "gamma_regularizer": null, "momentum": 0.99, "moving_mean_initializer": {"class_name": "Zeros", "config": {}}, "moving_variance_initializer": {"class_name": "Ones", "config": {}}, "name": "conv3_block7_1_bn", "scale": true, "trainable": [{"args": ["b1", 0, 1], "state": [3, "|", null, null, null, -1, -1, 0]}, "AA==\n"]}, "inbound_nodes": [[["conv3_block7_1_conv", 0, 0, {}]]], "name": "conv3_block7_1_bn"}, {"class_name": "Activation", "config": {"activation": "relu", "name": "conv3_block7_1_relu", "trainable": [{"args": ["b1", 0, 1], "state": [3, "|", null, null, null, -1, -1, 0]}, "AA==\n"]}, "inbound_nodes": [[["conv3_block7_1_bn", 0, 0, {}]]], "name": "conv3_block7_1_relu"}, {"class_name": "Conv2D", "config": {"activation": "linear", "activity_regularizer": null, "bias_constraint": null, "bias_initializer": {"class_name": "Zeros", "config": {}}, "bias_regularizer": null, "data_format": "channels_last", "dilation_rate": [1, 1], "filters": 32, "kernel_constraint": null, "kernel_initializer": {"class_name": "VarianceScaling", "config": {"distribution": "uniform", "mode": "fan_avg", "scale": 1.0, "seed": null}}, "kernel_regularizer": null, "kernel_size": [3, 3], "name": "conv3_block7_2_conv", "padding": "same", "strides": [1, 1], "trainable": [{"args": ["b1", 0, 1], "state": [3, "|", null, null, null, -1, -1, 0]}, "AA==\n"], "use_bias": false}, "inbound_nodes": [[["conv3_block7_1_relu", 0, 0, {}]]], "name": "conv3_block7_2_conv"}, {"class_name": "Concatenate", "config": {"axis": 3, "name": "conv3_block7_concat", "trainable": [{"args": ["b1", 0, 1], "state": [3, "|", null, null, null, -1, -1, 0]}, "AA==\n"]}, "inbound_nodes": [[["conv3_block6_concat", 0, 0, {}], ["conv3_block7_2_conv", 0, 0, {}]]], "name": "conv3_block7_concat"}, {"class_name": "BatchNormalization", "config": {"axis": 3, "beta_constraint": null, "beta_initializer": {"class_name": "Zeros", "config": {}}, "beta_regularizer": null, "center": true, "epsilon": 1.001e-05, "gamma_constraint": null, "gamma_initializer": {"class_name": "Ones", "config": {}}, "gamma_regularizer": null, "momentum": 0.99, "moving_mean_initializer": {"class_name": "Zeros", "config": {}}, "moving_variance_initializer": {"class_name": "Ones", "config": {}}, "name": "conv3_block8_0_bn", "scale": true, "trainable": [{"args": ["b1", 0, 1], "state": [3, "|", null, null, null, -1, -1, 0]}, "AA==\n"]}, "inbound_nodes": [[["conv3_block7_concat", 0, 0, {}]]], "name": "conv3_block8_0_bn"}, {"class_name": "Activation", "config": {"activation": "relu", "name": "conv3_block8_0_relu", "trainable": [{"args": ["b1", 0, 1], "state": [3, "|", null, null, null, -1, -1, 0]}, "AA==\n"]}, "inbound_nodes": [[["conv3_block8_0_bn", 0, 0, {}]]], "name": "conv3_block8_0_relu"}, {"class_name": "Conv2D", "config": {"activation": "linear", "activity_regularizer": null, "bias_constraint": null, "bias_initializer": {"class_name": "Zeros", "config": {}}, "bias_regularizer": null, "data_format": "channels_last", "dilation_rate": [1, 1], "filters": 128, "kernel_constraint": null, "kernel_initializer": {"class_name": "VarianceScaling", "config": {"distribution": "uniform", "mode": "fan_avg", "scale": 1.0, "seed": null}}, "kernel_regularizer": null, "kernel_size": [1, 1], "name": "conv3_block8_1_conv", "padding": "valid", "strides": [1, 1], "trainable": [{"args": ["b1", 0, 1], "state": [3, "|", null, null, null, -1, -1, 0]}, "AA==\n"], "use_bias": false}, "inbound_nodes": [[["conv3_block8_0_relu", 0, 0, {}]]], "name": "conv3_block8_1_conv"}, {"class_name": "BatchNormalization", "config": {"axis": 3, "beta_constraint": null, "beta_initializer": {"class_name": "Zeros", "config": {}}, "beta_regularizer": null, "center": true, "epsilon": 1.001e-05, "gamma_constraint": null, "gamma_initializer": {"class_name": "Ones", "config": {}}, "gamma_regularizer": null, "momentum": 0.99, "moving_mean_initializer": {"class_name": "Zeros", "config": {}}, "moving_variance_initializer": {"class_name": "Ones", "config": {}}, "name": "conv3_block8_1_bn", "scale": true, "trainable": [{"args": ["b1", 0, 1], "state": [3, "|", null, null, null, -1, -1, 0]}, "AA==\n"]}, "inbound_nodes": [[["conv3_block8_1_conv", 0, 0, {}]]], "name": "conv3_block8_1_bn"}, {"class_name": "Activation", "config": {"activation": "relu", "name": "conv3_block8_1_relu", "trainable": [{"args": ["b1", 0, 1], "state": [3, "|", null, null, null, -1, -1, 0]}, "AA==\n"]}, "inbound_nodes": [[["conv3_block8_1_bn", 0, 0, {}]]], "name": "conv3_block8_1_relu"}, {"class_name": "Conv2D", "config": {"activation": "linear", "activity_regularizer": null, "bias_constraint": null, "bias_initializer": {"class_name": "Zeros", "config": {}}, "bias_regularizer": null, "data_format": "channels_last", "dilation_rate": [1, 1], "filters": 32, "kernel_constraint": null, "kernel_initializer": {"class_name": "VarianceScaling", "config": {"distribution": "uniform", "mode": "fan_avg", "scale": 1.0, "seed": null}}, "kernel_regularizer": null, "kernel_size": [3, 3], "name": "conv3_block8_2_conv", "padding": "same", "strides": [1, 1], "trainable": [{"args": ["b1", 0, 1], "state": [3, "|", null, null, null, -1, -1, 0]}, "AA==\n"], "use_bias": false}, "inbound_nodes": [[["conv3_block8_1_relu", 0, 0, {}]]], "name": "conv3_block8_2_conv"}, {"class_name": "Concatenate", "config": {"axis": 3, "name": "conv3_block8_concat", "trainable": [{"args": ["b1", 0, 1], "state": [3, "|", null, null, null, -1, -1, 0]}, "AA==\n"]}, "inbound_nodes": [[["conv3_block7_concat", 0, 0, {}], ["conv3_block8_2_conv", 0, 0, {}]]], "name": "conv3_block8_concat"}, {"class_name": "BatchNormalization", "config": {"axis": 3, "beta_constraint": null, "beta_initializer": {"class_name": "Zeros", "config": {}}, "beta_regularizer": null, "center": true, "epsilon": 1.001e-05, "gamma_constraint": null, "gamma_initializer": {"class_name": "Ones", "config": {}}, "gamma_regularizer": null, "momentum": 0.99, "moving_mean_initializer": {"class_name": "Zeros", "config": {}}, "moving_variance_initializer": {"class_name": "Ones", "config": {}}, "name": "conv3_block9_0_bn", "scale": true, "trainable": [{"args": ["b1", 0, 1], "state": [3, "|", null, null, null, -1, -1, 0]}, "AA==\n"]}, "inbound_nodes": [[["conv3_block8_concat", 0, 0, {}]]], "name": "conv3_block9_0_bn"}, {"class_name": "Activation", "config": {"activation": "relu", "name": "conv3_block9_0_relu", "trainable": [{"args": ["b1", 0, 1], "state": [3, "|", null, null, null, -1, -1, 0]}, "AA==\n"]}, "inbound_nodes": [[["conv3_block9_0_bn", 0, 0, {}]]], "name": "conv3_block9_0_relu"}, {"class_name": "Conv2D", "config": {"activation": "linear", "activity_regularizer": null, "bias_constraint": null, "bias_initializer": {"class_name": "Zeros", "config": {}}, "bias_regularizer": null, "data_format": "channels_last", "dilation_rate": [1, 1], "filters": 128, "kernel_constraint": null, "kernel_initializer": {"class_name": "VarianceScaling", "config": {"distribution": "uniform", "mode": "fan_avg", "scale": 1.0, "seed": null}}, "kernel_regularizer": null, "kernel_size": [1, 1], "name": "conv3_block9_1_conv", "padding": "valid", "strides": [1, 1], "trainable": [{"args": ["b1", 0, 1], "state": [3, "|", null, null, null, -1, -1, 0]}, "AA==\n"], "use_bias": false}, "inbound_nodes": [[["conv3_block9_0_relu", 0, 0, {}]]], "name": "conv3_block9_1_conv"}, {"class_name": "BatchNormalization", "config": {"axis": 3, "beta_constraint": null, "beta_initializer": {"class_name": "Zeros", "config": {}}, "beta_regularizer": null, "center": true, "epsilon": 1.001e-05, "gamma_constraint": null, "gamma_initializer": {"class_name": "Ones", "config": {}}, "gamma_regularizer": null, "momentum": 0.99, "moving_mean_initializer": {"class_name": "Zeros", "config": {}}, "moving_variance_initializer": {"class_name": "Ones", "config": {}}, "name": "conv3_block9_1_bn", "scale": true, "trainable": [{"args": ["b1", 0, 1], "state": [3, "|", null, null, null, -1, -1, 0]}, "AA==\n"]}, "inbound_nodes": [[["conv3_block9_1_conv", 0, 0, {}]]], "name": "conv3_block9_1_bn"}, {"class_name": "Activation", "config": {"activation": "relu", "name": "conv3_block9_1_relu", "trainable": [{"args": ["b1", 0, 1], "state": [3, "|", null, null, null, -1, -1, 0]}, "AA==\n"]}, "inbound_nodes": [[["conv3_block9_1_bn", 0, 0, {}]]], "name": "conv3_block9_1_relu"}, {"class_name": "Conv2D", "config": {"activation": "linear", "activity_regularizer": null, "bias_constraint": null, "bias_initializer": {"class_name": "Zeros", "config": {}}, "bias_regularizer": null, "data_format": "channels_last", "dilation_rate": [1, 1], "filters": 32, "kernel_constraint": null, "kernel_initializer": {"class_name": "VarianceScaling", "config": {"distribution": "uniform", "mode": "fan_avg", "scale": 1.0, "seed": null}}, "kernel_regularizer": null, "kernel_size": [3, 3], "name": "conv3_block9_2_conv", "padding": "same", "strides": [1, 1], "trainable": [{"args": ["b1", 0, 1], "state": [3, "|", null, null, null, -1, -1, 0]}, "AA==\n"], "use_bias": false}, "inbound_nodes": [[["conv3_block9_1_relu", 0, 0, {}]]], "name": "conv3_block9_2_conv"}, {"class_name": "Concatenate", "config": {"axis": 3, "name": "conv3_block9_concat", "trainable": [{"args": ["b1", 0, 1], "state": [3, "|", null, null, null, -1, -1, 0]}, "AA==\n"]}, "inbound_nodes": [[["conv3_block8_concat", 0, 0, {}], ["conv3_block9_2_conv", 0, 0, {}]]], "name": "conv3_block9_concat"}, {"class_name": "BatchNormalization", "config": {"axis": 3, "beta_constraint": null, "beta_initializer": {"class_name": "Zeros", "config": {}}, "beta_regularizer": null, "center": true, "epsilon": 1.001e-05, "gamma_constraint": null, "gamma_initializer": {"class_name": "Ones", "config": {}}, "gamma_regularizer": null, "momentum": 0.99, "moving_mean_initializer": {"class_name": "Zeros", "config": {}}, "moving_variance_initializer": {"class_name": "Ones", "config": {}}, "name": "conv3_block10_0_bn", "scale": true, "trainable": [{"args": ["b1", 0, 1], "state": [3, "|", null, null, null, -1, -1, 0]}, "AA==\n"]}, "inbound_nodes": [[["conv3_block9_concat", 0, 0, {}]]], "name": "conv3_block10_0_bn"}, {"class_name": "Activation", "config": {"activation": "relu", "name": "conv3_block10_0_relu", "trainable": [{"args": ["b1", 0, 1], "state": [3, "|", null, null, null, -1, -1, 0]}, "AA==\n"]}, "inbound_nodes": [[["conv3_block10_0_bn", 0, 0, {}]]], "name": "conv3_block10_0_relu"}, {"class_name": "Conv2D", "config": {"activation": "linear", "activity_regularizer": null, "bias_constraint": null, "bias_initializer": {"class_name": "Zeros", "config": {}}, "bias_regularizer": null, "data_format": "channels_last", "dilation_rate": [1, 1], "filters": 128, "kernel_constraint": null, "kernel_initializer": {"class_name": "VarianceScaling", "config": {"distribution": "uniform", "mode": "fan_avg", "scale": 1.0, "seed": null}}, "kernel_regularizer": null, "kernel_size": [1, 1], "name": "conv3_block10_1_conv", "padding": "valid", "strides": [1, 1], "trainable": [{"args": ["b1", 0, 1], "state": [3, "|", null, null, null, -1, -1, 0]}, "AA==\n"], "use_bias": false}, "inbound_nodes": [[["conv3_block10_0_relu", 0, 0, {}]]], "name": "conv3_block10_1_conv"}, {"class_name": "BatchNormalization", "config": {"axis": 3, "beta_constraint": null, "beta_initializer": {"class_name": "Zeros", "config": {}}, "beta_regularizer": null, "center": true, "epsilon": 1.001e-05, "gamma_constraint": null, "gamma_initializer": {"class_name": "Ones", "config": {}}, "gamma_regularizer": null, "momentum": 0.99, "moving_mean_initializer": {"class_name": "Zeros", "config": {}}, "moving_variance_initializer": {"class_name": "Ones", "config": {}}, "name": "conv3_block10_1_bn", "scale": true, "trainable": [{"args": ["b1", 0, 1], "state": [3, "|", null, null, null, -1, -1, 0]}, "AA==\n"]}, "inbound_nodes": [[["conv3_block10_1_conv", 0, 0, {}]]], "name": "conv3_block10_1_bn"}, {"class_name": "Activation", "config": {"activation": "relu", "name": "conv3_block10_1_relu", "trainable": [{"args": ["b1", 0, 1], "state": [3, "|", null, null, null, -1, -1, 0]}, "AA==\n"]}, "inbound_nodes": [[["conv3_block10_1_bn", 0, 0, {}]]], "name": "conv3_block10_1_relu"}, {"class_name": "Conv2D", "config": {"activation": "linear", "activity_regularizer": null, "bias_constraint": null, "bias_initializer": {"class_name": "Zeros", "config": {}}, "bias_regularizer": null, "data_format": "channels_last", "dilation_rate": [1, 1], "filters": 32, "kernel_constraint": null, "kernel_initializer": {"class_name": "VarianceScaling", "config": {"distribution": "uniform", "mode": "fan_avg", "scale": 1.0, "seed": null}}, "kernel_regularizer": null, "kernel_size": [3, 3], "name": "conv3_block10_2_conv", "padding": "same", "strides": [1, 1], "trainable": [{"args": ["b1", 0, 1], "state": [3, "|", null, null, null, -1, -1, 0]}, "AA==\n"], "use_bias": false}, "inbound_nodes": [[["conv3_block10_1_relu", 0, 0, {}]]], "name": "conv3_block10_2_conv"}, {"class_name": "Concatenate", "config": {"axis": 3, "name": "conv3_block10_concat", "trainable": [{"args": ["b1", 0, 1], "state": [3, "|", null, null, null, -1, -1, 0]}, "AA==\n"]}, "inbound_nodes": [[["conv3_block9_concat", 0, 0, {}], ["conv3_block10_2_conv", 0, 0, {}]]], "name": "conv3_block10_concat"}, {"class_name": "BatchNormalization", "config": {"axis": 3, "beta_constraint": null, "beta_initializer": {"class_name": "Zeros", "config": {}}, "beta_regularizer": null, "center": true, "epsilon": 1.001e-05, "gamma_constraint": null, "gamma_initializer": {"class_name": "Ones", "config": {}}, "gamma_regularizer": null, "momentum": 0.99, "moving_mean_initializer": {"class_name": "Zeros", "config": {}}, "moving_variance_initializer": {"class_name": "Ones", "config": {}}, "name": "conv3_block11_0_bn", "scale": true, "trainable": [{"args": ["b1", 0, 1], "state": [3, "|", null, null, null, -1, -1, 0]}, "AA==\n"]}, "inbound_nodes": [[["conv3_block10_concat", 0, 0, {}]]], "name": "conv3_block11_0_bn"}, {"class_name": "Activation", "config": {"activation": "relu", "name": "conv3_block11_0_relu", "trainable": [{"args": ["b1", 0, 1], "state": [3, "|", null, null, null, -1, -1, 0]}, "AA==\n"]}, "inbound_nodes": [[["conv3_block11_0_bn", 0, 0, {}]]], "name": "conv3_block11_0_relu"}, {"class_name": "Conv2D", "config": {"activation": "linear", "activity_regularizer": null, "bias_constraint": null, "bias_initializer": {"class_name": "Zeros", "config": {}}, "bias_regularizer": null, "data_format": "channels_last", "dilation_rate": [1, 1], "filters": 128, "kernel_constraint": null, "kernel_initializer": {"class_name": "VarianceScaling", "config": {"distribution": "uniform", "mode": "fan_avg", "scale": 1.0, "seed": null}}, "kernel_regularizer": null, "kernel_size": [1, 1], "name": "conv3_block11_1_conv", "padding": "valid", "strides": [1, 1], "trainable": [{"args": ["b1", 0, 1], "state": [3, "|", null, null, null, -1, -1, 0]}, "AA==\n"], "use_bias": false}, "inbound_nodes": [[["conv3_block11_0_relu", 0, 0, {}]]], "name": "conv3_block11_1_conv"}, {"class_name": "BatchNormalization", "config": {"axis": 3, "beta_constraint": null, "beta_initializer": {"class_name": "Zeros", "config": {}}, "beta_regularizer": null, "center": true, "epsilon": 1.001e-05, "gamma_constraint": null, "gamma_initializer": {"class_name": "Ones", "config": {}}, "gamma_regularizer": null, "momentum": 0.99, "moving_mean_initializer": {"class_name": "Zeros", "config": {}}, "moving_variance_initializer": {"class_name": "Ones", "config": {}}, "name": "conv3_block11_1_bn", "scale": true, "trainable": [{"args": ["b1", 0, 1], "state": [3, "|", null, null, null, -1, -1, 0]}, "AA==\n"]}, "inbound_nodes": [[["conv3_block11_1_conv", 0, 0, {}]]], "name": "conv3_block11_1_bn"}, {"class_name": "Activation", "config": {"activation": "relu", "name": "conv3_block11_1_relu", "trainable": [{"args": ["b1", 0, 1], "state": [3, "|", null, null, null, -1, -1, 0]}, "AA==\n"]}, "inbound_nodes": [[["conv3_block11_1_bn", 0, 0, {}]]], "name": "conv3_block11_1_relu"}, {"class_name": "Conv2D", "config": {"activation": "linear", "activity_regularizer": null, "bias_constraint": null, "bias_initializer": {"class_name": "Zeros", "config": {}}, "bias_regularizer": null, "data_format": "channels_last", "dilation_rate": [1, 1], "filters": 32, "kernel_constraint": null, "kernel_initializer": {"class_name": "VarianceScaling", "config": {"distribution": "uniform", "mode": "fan_avg", "scale": 1.0, "seed": null}}, "kernel_regularizer": null, "kernel_size": [3, 3], "name": "conv3_block11_2_conv", "padding": "same", "strides": [1, 1], "trainable": [{"args": ["b1", 0, 1], "state": [3, "|", null, null, null, -1, -1, 0]}, "AA==\n"], "use_bias": false}, "inbound_nodes": [[["conv3_block11_1_relu", 0, 0, {}]]], "name": "conv3_block11_2_conv"}, {"class_name": "Concatenate", "config": {"axis": 3, "name": "conv3_block11_concat", "trainable": [{"args": ["b1", 0, 1], "state": [3, "|", null, null, null, -1, -1, 0]}, "AA==\n"]}, "inbound_nodes": [[["conv3_block10_concat", 0, 0, {}], ["conv3_block11_2_conv", 0, 0, {}]]], "name": "conv3_block11_concat"}, {"class_name": "BatchNormalization", "config": {"axis": 3, "beta_constraint": null, "beta_initializer": {"class_name": "Zeros", "config": {}}, "beta_regularizer": null, "center": true, "epsilon": 1.001e-05, "gamma_constraint": null, "gamma_initializer": {"class_name": "Ones", "config": {}}, "gamma_regularizer": null, "momentum": 0.99, "moving_mean_initializer": {"class_name": "Zeros", "config": {}}, "moving_variance_initializer": {"class_name": "Ones", "config": {}}, "name": "conv3_block12_0_bn", "scale": true, "trainable": [{"args": ["b1", 0, 1], "state": [3, "|", null, null, null, -1, -1, 0]}, "AA==\n"]}, "inbound_nodes": [[["conv3_block11_concat", 0, 0, {}]]], "name": "conv3_block12_0_bn"}, {"class_name": "Activation", "config": {"activation": "relu", "name": "conv3_block12_0_relu", "trainable": [{"args": ["b1", 0, 1], "state": [3, "|", null, null, null, -1, -1, 0]}, "AA==\n"]}, "inbound_nodes": [[["conv3_block12_0_bn", 0, 0, {}]]], "name": "conv3_block12_0_relu"}, {"class_name": "Conv2D", "config": {"activation": "linear", "activity_regularizer": null, "bias_constraint": null, "bias_initializer": {"class_name": "Zeros", "config": {}}, "bias_regularizer": null, "data_format": "channels_last", "dilation_rate": [1, 1], "filters": 128, "kernel_constraint": null, "kernel_initializer": {"class_name": "VarianceScaling", "config": {"distribution": "uniform", "mode": "fan_avg", "scale": 1.0, "seed": null}}, "kernel_regularizer": null, "kernel_size": [1, 1], "name": "conv3_block12_1_conv", "padding": "valid", "strides": [1, 1], "trainable": [{"args": ["b1", 0, 1], "state": [3, "|", null, null, null, -1, -1, 0]}, "AA==\n"], "use_bias": false}, "inbound_nodes": [[["conv3_block12_0_relu", 0, 0, {}]]], "name": "conv3_block12_1_conv"}, {"class_name": "BatchNormalization", "config": {"axis": 3, "beta_constraint": null, "beta_initializer": {"class_name": "Zeros", "config": {}}, "beta_regularizer": null, "center": true, "epsilon": 1.001e-05, "gamma_constraint": null, "gamma_initializer": {"class_name": "Ones", "config": {}}, "gamma_regularizer": null, "momentum": 0.99, "moving_mean_initializer": {"class_name": "Zeros", "config": {}}, "moving_variance_initializer": {"class_name": "Ones", "config": {}}, "name": "conv3_block12_1_bn", "scale": true, "trainable": [{"args": ["b1", 0, 1], "state": [3, "|", null, null, null, -1, -1, 0]}, "AA==\n"]}, "inbound_nodes": [[["conv3_block12_1_conv", 0, 0, {}]]], "name": "conv3_block12_1_bn"}, {"class_name": "Activation", "config": {"activation": "relu", "name": "conv3_block12_1_relu", "trainable": [{"args": ["b1", 0, 1], "state": [3, "|", null, null, null, -1, -1, 0]}, "AA==\n"]}, "inbound_nodes": [[["conv3_block12_1_bn", 0, 0, {}]]], "name": "conv3_block12_1_relu"}, {"class_name": "Conv2D", "config": {"activation": "linear", "activity_regularizer": null, "bias_constraint": null, "bias_initializer": {"class_name": "Zeros", "config": {}}, "bias_regularizer": null, "data_format": "channels_last", "dilation_rate": [1, 1], "filters": 32, "kernel_constraint": null, "kernel_initializer": {"class_name": "VarianceScaling", "config": {"distribution": "uniform", "mode": "fan_avg", "scale": 1.0, "seed": null}}, "kernel_regularizer": null, "kernel_size": [3, 3], "name": "conv3_block12_2_conv", "padding": "same", "strides": [1, 1], "trainable": [{"args": ["b1", 0, 1], "state": [3, "|", null, null, null, -1, -1, 0]}, "AA==\n"], "use_bias": false}, "inbound_nodes": [[["conv3_block12_1_relu", 0, 0, {}]]], "name": "conv3_block12_2_conv"}, {"class_name": "Concatenate", "config": {"axis": 3, "name": "conv3_block12_concat", "trainable": [{"args": ["b1", 0, 1], "state": [3, "|", null, null, null, -1, -1, 0]}, "AA==\n"]}, "inbound_nodes": [[["conv3_block11_concat", 0, 0, {}], ["conv3_block12_2_conv", 0, 0, {}]]], "name": "conv3_block12_concat"}, {"class_name": "BatchNormalization", "config": {"axis": 3, "beta_constraint": null, "beta_initializer": {"class_name": "Zeros", "config": {}}, "beta_regularizer": null, "center": true, "epsilon": 1.001e-05, "gamma_constraint": null, "gamma_initializer": {"class_name": "Ones", "config": {}}, "gamma_regularizer": null, "momentum": 0.99, "moving_mean_initializer": {"class_name": "Zeros", "config": {}}, "moving_variance_initializer": {"class_name": "Ones", "config": {}}, "name": "pool3_bn", "scale": true, "trainable": [{"args": ["b1", 0, 1], "state": [3, "|", null, null, null, -1, -1, 0]}, "AA==\n"]}, "inbound_nodes": [[["conv3_block12_concat", 0, 0, {}]]], "name": "pool3_bn"}, {"class_name": "Activation", "config": {"activation": "relu", "name": "pool3_relu", "trainable": [{"args": ["b1", 0, 1], "state": [3, "|", null, null, null, -1, -1, 0]}, "AA==\n"]}, "inbound_nodes": [[["pool3_bn", 0, 0, {}]]], "name": "pool3_relu"}, {"class_name": "Conv2D", "config": {"activation": "linear", "activity_regularizer": null, "bias_constraint": null, "bias_initializer": {"class_name": "Zeros", "config": {}}, "bias_regularizer": null, "data_format": "channels_last", "dilation_rate": [1, 1], "filters": 256, "kernel_constraint": null, "kernel_initializer": {"class_name": "VarianceScaling", "config": {"distribution": "uniform", "mode": "fan_avg", "scale": 1.0, "seed": null}}, "kernel_regularizer": null, "kernel_size": [1, 1], "name": "pool3_conv", "padding": "valid", "strides": [1, 1], "trainable": [{"args": ["b1", 0, 1], "state": [3, "|", null, null, null, -1, -1, 0]}, "AA==\n"], "use_bias": false}, "inbound_nodes": [[["pool3_relu", 0, 0, {}]]], "name": "pool3_conv"}, {"class_name": "AveragePooling2D", "config": {"data_format": "channels_last", "name": "pool3_pool", "padding": "valid", "pool_size": [2, 2], "strides": [2, 2], "trainable": [{"args": ["b1", 0, 1], "state": [3, "|", null, null, null, -1, -1, 0]}, "AA==\n"]}, "inbound_nodes": [[["pool3_conv", 0, 0, {}]]], "name": "pool3_pool"}, {"class_name": "BatchNormalization", "config": {"axis": 3, "beta_constraint": null, "beta_initializer": {"class_name": "Zeros", "config": {}}, "beta_regularizer": null, "center": true, "epsilon": 1.001e-05, "gamma_constraint": null, "gamma_initializer": {"class_name": "Ones", "config": {}}, "gamma_regularizer": null, "momentum": 0.99, "moving_mean_initializer": {"class_name": "Zeros", "config": {}}, "moving_variance_initializer": {"class_name": "Ones", "config": {}}, "name": "conv4_block1_0_bn", "scale": true, "trainable": [{"args": ["b1", 0, 1], "state": [3, "|", null, null, null, -1, -1, 0]}, "AA==\n"]}, "inbound_nodes": [[["pool3_pool", 0, 0, {}]]], "name": "conv4_block1_0_bn"}, {"class_name": "Activation", "config": {"activation": "relu", "name": "conv4_block1_0_relu", "trainable": [{"args": ["b1", 0, 1], "state": [3, "|", null, null, null, -1, -1, 0]}, "AA==\n"]}, "inbound_nodes": [[["conv4_block1_0_bn", 0, 0, {}]]], "name": "conv4_block1_0_relu"}, {"class_name": "Conv2D", "config": {"activation": "linear", "activity_regularizer": null, "bias_constraint": null, "bias_initializer": {"class_name": "Zeros", "config": {}}, "bias_regularizer": null, "data_format": "channels_last", "dilation_rate": [1, 1], "filters": 128, "kernel_constraint": null, "kernel_initializer": {"class_name": "VarianceScaling", "config": {"distribution": "uniform", "mode": "fan_avg", "scale": 1.0, "seed": null}}, "kernel_regularizer": null, "kernel_size": [1, 1], "name": "conv4_block1_1_conv", "padding": "valid", "strides": [1, 1], "trainable": [{"args": ["b1", 0, 1], "state": [3, "|", null, null, null, -1, -1, 0]}, "AA==\n"], "use_bias": false}, "inbound_nodes": [[["conv4_block1_0_relu", 0, 0, {}]]], "name": "conv4_block1_1_conv"}, {"class_name": "BatchNormalization", "config": {"axis": 3, "beta_constraint": null, "beta_initializer": {"class_name": "Zeros", "config": {}}, "beta_regularizer": null, "center": true, "epsilon": 1.001e-05, "gamma_constraint": null, "gamma_initializer": {"class_name": "Ones", "config": {}}, "gamma_regularizer": null, "momentum": 0.99, "moving_mean_initializer": {"class_name": "Zeros", "config": {}}, "moving_variance_initializer": {"class_name": "Ones", "config": {}}, "name": "conv4_block1_1_bn", "scale": true, "trainable": [{"args": ["b1", 0, 1], "state": [3, "|", null, null, null, -1, -1, 0]}, "AA==\n"]}, "inbound_nodes": [[["conv4_block1_1_conv", 0, 0, {}]]], "name": "conv4_block1_1_bn"}, {"class_name": "Activation", "config": {"activation": "relu", "name": "conv4_block1_1_relu", "trainable": [{"args": ["b1", 0, 1], "state": [3, "|", null, null, null, -1, -1, 0]}, "AA==\n"]}, "inbound_nodes": [[["conv4_block1_1_bn", 0, 0, {}]]], "name": "conv4_block1_1_relu"}, {"class_name": "Conv2D", "config": {"activation": "linear", "activity_regularizer": null, "bias_constraint": null, "bias_initializer": {"class_name": "Zeros", "config": {}}, "bias_regularizer": null, "data_format": "channels_last", "dilation_rate": [1, 1], "filters": 32, "kernel_constraint": null, "kernel_initializer": {"class_name": "VarianceScaling", "config": {"distribution": "uniform", "mode": "fan_avg", "scale": 1.0, "seed": null}}, "kernel_regularizer": null, "kernel_size": [3, 3], "name": "conv4_block1_2_conv", "padding": "same", "strides": [1, 1], "trainable": [{"args": ["b1", 0, 1], "state": [3, "|", null, null, null, -1, -1, 0]}, "AA==\n"], "use_bias": false}, "inbound_nodes": [[["conv4_block1_1_relu", 0, 0, {}]]], "name": "conv4_block1_2_conv"}, {"class_name": "Concatenate", "config": {"axis": 3, "name": "conv4_block1_concat", "trainable": [{"args": ["b1", 0, 1], "state": [3, "|", null, null, null, -1, -1, 0]}, "AA==\n"]}, "inbound_nodes": [[["pool3_pool", 0, 0, {}], ["conv4_block1_2_conv", 0, 0, {}]]], "name": "conv4_block1_concat"}, {"class_name": "BatchNormalization", "config": {"axis": 3, "beta_constraint": null, "beta_initializer": {"class_name": "Zeros", "config": {}}, "beta_regularizer": null, "center": true, "epsilon": 1.001e-05, "gamma_constraint": null, "gamma_initializer": {"class_name": "Ones", "config": {}}, "gamma_regularizer": null, "momentum": 0.99, "moving_mean_initializer": {"class_name": "Zeros", "config": {}}, "moving_variance_initializer": {"class_name": "Ones", "config": {}}, "name": "conv4_block2_0_bn", "scale": true, "trainable": [{"args": ["b1", 0, 1], "state": [3, "|", null, null, null, -1, -1, 0]}, "AA==\n"]}, "inbound_nodes": [[["conv4_block1_concat", 0, 0, {}]]], "name": "conv4_block2_0_bn"}, {"class_name": "Activation", "config": {"activation": "relu", "name": "conv4_block2_0_relu", "trainable": [{"args": ["b1", 0, 1], "state": [3, "|", null, null, null, -1, -1, 0]}, "AA==\n"]}, "inbound_nodes": [[["conv4_block2_0_bn", 0, 0, {}]]], "name": "conv4_block2_0_relu"}, {"class_name": "Conv2D", "config": {"activation": "linear", "activity_regularizer": null, "bias_constraint": null, "bias_initializer": {"class_name": "Zeros", "config": {}}, "bias_regularizer": null, "data_format": "channels_last", "dilation_rate": [1, 1], "filters": 128, "kernel_constraint": null, "kernel_initializer": {"class_name": "VarianceScaling", "config": {"distribution": "uniform", "mode": "fan_avg", "scale": 1.0, "seed": null}}, "kernel_regularizer": null, "kernel_size": [1, 1], "name": "conv4_block2_1_conv", "padding": "valid", "strides": [1, 1], "trainable": [{"args": ["b1", 0, 1], "state": [3, "|", null, null, null, -1, -1, 0]}, "AA==\n"], "use_bias": false}, "inbound_nodes": [[["conv4_block2_0_relu", 0, 0, {}]]], "name": "conv4_block2_1_conv"}, {"class_name": "BatchNormalization", "config": {"axis": 3, "beta_constraint": null, "beta_initializer": {"class_name": "Zeros", "config": {}}, "beta_regularizer": null, "center": true, "epsilon": 1.001e-05, "gamma_constraint": null, "gamma_initializer": {"class_name": "Ones", "config": {}}, "gamma_regularizer": null, "momentum": 0.99, "moving_mean_initializer": {"class_name": "Zeros", "config": {}}, "moving_variance_initializer": {"class_name": "Ones", "config": {}}, "name": "conv4_block2_1_bn", "scale": true, "trainable": [{"args": ["b1", 0, 1], "state": [3, "|", null, null, null, -1, -1, 0]}, "AA==\n"]}, "inbound_nodes": [[["conv4_block2_1_conv", 0, 0, {}]]], "name": "conv4_block2_1_bn"}, {"class_name": "Activation", "config": {"activation": "relu", "name": "conv4_block2_1_relu", "trainable": [{"args": ["b1", 0, 1], "state": [3, "|", null, null, null, -1, -1, 0]}, "AA==\n"]}, "inbound_nodes": [[["conv4_block2_1_bn", 0, 0, {}]]], "name": "conv4_block2_1_relu"}, {"class_name": "Conv2D", "config": {"activation": "linear", "activity_regularizer": null, "bias_constraint": null, "bias_initializer": {"class_name": "Zeros", "config": {}}, "bias_regularizer": null, "data_format": "channels_last", "dilation_rate": [1, 1], "filters": 32, "kernel_constraint": null, "kernel_initializer": {"class_name": "VarianceScaling", "config": {"distribution": "uniform", "mode": "fan_avg", "scale": 1.0, "seed": null}}, "kernel_regularizer": null, "kernel_size": [3, 3], "name": "conv4_block2_2_conv", "padding": "same", "strides": [1, 1], "trainable": [{"args": ["b1", 0, 1], "state": [3, "|", null, null, null, -1, -1, 0]}, "AA==\n"], "use_bias": false}, "inbound_nodes": [[["conv4_block2_1_relu", 0, 0, {}]]], "name": "conv4_block2_2_conv"}, {"class_name": "Concatenate", "config": {"axis": 3, "name": "conv4_block2_concat", "trainable": [{"args": ["b1", 0, 1], "state": [3, "|", null, null, null, -1, -1, 0]}, "AA==\n"]}, "inbound_nodes": [[["conv4_block1_concat", 0, 0, {}], ["conv4_block2_2_conv", 0, 0, {}]]], "name": "conv4_block2_concat"}, {"class_name": "BatchNormalization", "config": {"axis": 3, "beta_constraint": null, "beta_initializer": {"class_name": "Zeros", "config": {}}, "beta_regularizer": null, "center": true, "epsilon": 1.001e-05, "gamma_constraint": null, "gamma_initializer": {"class_name": "Ones", "config": {}}, "gamma_regularizer": null, "momentum": 0.99, "moving_mean_initializer": {"class_name": "Zeros", "config": {}}, "moving_variance_initializer": {"class_name": "Ones", "config": {}}, "name": "conv4_block3_0_bn", "scale": true, "trainable": [{"args": ["b1", 0, 1], "state": [3, "|", null, null, null, -1, -1, 0]}, "AA==\n"]}, "inbound_nodes": [[["conv4_block2_concat", 0, 0, {}]]], "name": "conv4_block3_0_bn"}, {"class_name": "Activation", "config": {"activation": "relu", "name": "conv4_block3_0_relu", "trainable": [{"args": ["b1", 0, 1], "state": [3, "|", null, null, null, -1, -1, 0]}, "AA==\n"]}, "inbound_nodes": [[["conv4_block3_0_bn", 0, 0, {}]]], "name": "conv4_block3_0_relu"}, {"class_name": "Conv2D", "config": {"activation": "linear", "activity_regularizer": null, "bias_constraint": null, "bias_initializer": {"class_name": "Zeros", "config": {}}, "bias_regularizer": null, "data_format": "channels_last", "dilation_rate": [1, 1], "filters": 128, "kernel_constraint": null, "kernel_initializer": {"class_name": "VarianceScaling", "config": {"distribution": "uniform", "mode": "fan_avg", "scale": 1.0, "seed": null}}, "kernel_regularizer": null, "kernel_size": [1, 1], "name": "conv4_block3_1_conv", "padding": "valid", "strides": [1, 1], "trainable": [{"args": ["b1", 0, 1], "state": [3, "|", null, null, null, -1, -1, 0]}, "AA==\n"], "use_bias": false}, "inbound_nodes": [[["conv4_block3_0_relu", 0, 0, {}]]], "name": "conv4_block3_1_conv"}, {"class_name": "BatchNormalization", "config": {"axis": 3, "beta_constraint": null, "beta_initializer": {"class_name": "Zeros", "config": {}}, "beta_regularizer": null, "center": true, "epsilon": 1.001e-05, "gamma_constraint": null, "gamma_initializer": {"class_name": "Ones", "config": {}}, "gamma_regularizer": null, "momentum": 0.99, "moving_mean_initializer": {"class_name": "Zeros", "config": {}}, "moving_variance_initializer": {"class_name": "Ones", "config": {}}, "name": "conv4_block3_1_bn", "scale": true, "trainable": [{"args": ["b1", 0, 1], "state": [3, "|", null, null, null, -1, -1, 0]}, "AA==\n"]}, "inbound_nodes": [[["conv4_block3_1_conv", 0, 0, {}]]], "name": "conv4_block3_1_bn"}, {"class_name": "Activation", "config": {"activation": "relu", "name": "conv4_block3_1_relu", "trainable": [{"args": ["b1", 0, 1], "state": [3, "|", null, null, null, -1, -1, 0]}, "AA==\n"]}, "inbound_nodes": [[["conv4_block3_1_bn", 0, 0, {}]]], "name": "conv4_block3_1_relu"}, {"class_name": "Conv2D", "config": {"activation": "linear", "activity_regularizer": null, "bias_constraint": null, "bias_initializer": {"class_name": "Zeros", "config": {}}, "bias_regularizer": null, "data_format": "channels_last", "dilation_rate": [1, 1], "filters": 32, "kernel_constraint": null, "kernel_initializer": {"class_name": "VarianceScaling", "config": {"distribution": "uniform", "mode": "fan_avg", "scale": 1.0, "seed": null}}, "kernel_regularizer": null, "kernel_size": [3, 3], "name": "conv4_block3_2_conv", "padding": "same", "strides": [1, 1], "trainable": [{"args": ["b1", 0, 1], "state": [3, "|", null, null, null, -1, -1, 0]}, "AA==\n"], "use_bias": false}, "inbound_nodes": [[["conv4_block3_1_relu", 0, 0, {}]]], "name": "conv4_block3_2_conv"}, {"class_name": "Concatenate", "config": {"axis": 3, "name": "conv4_block3_concat", "trainable": [{"args": ["b1", 0, 1], "state": [3, "|", null, null, null, -1, -1, 0]}, "AA==\n"]}, "inbound_nodes": [[["conv4_block2_concat", 0, 0, {}], ["conv4_block3_2_conv", 0, 0, {}]]], "name": "conv4_block3_concat"}, {"class_name": "BatchNormalization", "config": {"axis": 3, "beta_constraint": null, "beta_initializer": {"class_name": "Zeros", "config": {}}, "beta_regularizer": null, "center": true, "epsilon": 1.001e-05, "gamma_constraint": null, "gamma_initializer": {"class_name": "Ones", "config": {}}, "gamma_regularizer": null, "momentum": 0.99, "moving_mean_initializer": {"class_name": "Zeros", "config": {}}, "moving_variance_initializer": {"class_name": "Ones", "config": {}}, "name": "conv4_block4_0_bn", "scale": true, "trainable": [{"args": ["b1", 0, 1], "state": [3, "|", null, null, null, -1, -1, 0]}, "AA==\n"]}, "inbound_nodes": [[["conv4_block3_concat", 0, 0, {}]]], "name": "conv4_block4_0_bn"}, {"class_name": "Activation", "config": {"activation": "relu", "name": "conv4_block4_0_relu", "trainable": [{"args": ["b1", 0, 1], "state": [3, "|", null, null, null, -1, -1, 0]}, "AA==\n"]}, "inbound_nodes": [[["conv4_block4_0_bn", 0, 0, {}]]], "name": "conv4_block4_0_relu"}, {"class_name": "Conv2D", "config": {"activation": "linear", "activity_regularizer": null, "bias_constraint": null, "bias_initializer": {"class_name": "Zeros", "config": {}}, "bias_regularizer": null, "data_format": "channels_last", "dilation_rate": [1, 1], "filters": 128, "kernel_constraint": null, "kernel_initializer": {"class_name": "VarianceScaling", "config": {"distribution": "uniform", "mode": "fan_avg", "scale": 1.0, "seed": null}}, "kernel_regularizer": null, "kernel_size": [1, 1], "name": "conv4_block4_1_conv", "padding": "valid", "strides": [1, 1], "trainable": [{"args": ["b1", 0, 1], "state": [3, "|", null, null, null, -1, -1, 0]}, "AA==\n"], "use_bias": false}, "inbound_nodes": [[["conv4_block4_0_relu", 0, 0, {}]]], "name": "conv4_block4_1_conv"}, {"class_name": "BatchNormalization", "config": {"axis": 3, "beta_constraint": null, "beta_initializer": {"class_name": "Zeros", "config": {}}, "beta_regularizer": null, "center": true, "epsilon": 1.001e-05, "gamma_constraint": null, "gamma_initializer": {"class_name": "Ones", "config": {}}, "gamma_regularizer": null, "momentum": 0.99, "moving_mean_initializer": {"class_name": "Zeros", "config": {}}, "moving_variance_initializer": {"class_name": "Ones", "config": {}}, "name": "conv4_block4_1_bn", "scale": true, "trainable": [{"args": ["b1", 0, 1], "state": [3, "|", null, null, null, -1, -1, 0]}, "AA==\n"]}, "inbound_nodes": [[["conv4_block4_1_conv", 0, 0, {}]]], "name": "conv4_block4_1_bn"}, {"class_name": "Activation", "config": {"activation": "relu", "name": "conv4_block4_1_relu", "trainable": [{"args": ["b1", 0, 1], "state": [3, "|", null, null, null, -1, -1, 0]}, "AA==\n"]}, "inbound_nodes": [[["conv4_block4_1_bn", 0, 0, {}]]], "name": "conv4_block4_1_relu"}, {"class_name": "Conv2D", "config": {"activation": "linear", "activity_regularizer": null, "bias_constraint": null, "bias_initializer": {"class_name": "Zeros", "config": {}}, "bias_regularizer": null, "data_format": "channels_last", "dilation_rate": [1, 1], "filters": 32, "kernel_constraint": null, "kernel_initializer": {"class_name": "VarianceScaling", "config": {"distribution": "uniform", "mode": "fan_avg", "scale": 1.0, "seed": null}}, "kernel_regularizer": null, "kernel_size": [3, 3], "name": "conv4_block4_2_conv", "padding": "same", "strides": [1, 1], "trainable": [{"args": ["b1", 0, 1], "state": [3, "|", null, null, null, -1, -1, 0]}, "AA==\n"], "use_bias": false}, "inbound_nodes": [[["conv4_block4_1_relu", 0, 0, {}]]], "name": "conv4_block4_2_conv"}, {"class_name": "Concatenate", "config": {"axis": 3, "name": "conv4_block4_concat", "trainable": [{"args": ["b1", 0, 1], "state": [3, "|", null, null, null, -1, -1, 0]}, "AA==\n"]}, "inbound_nodes": [[["conv4_block3_concat", 0, 0, {}], ["conv4_block4_2_conv", 0, 0, {}]]], "name": "conv4_block4_concat"}, {"class_name": "BatchNormalization", "config": {"axis": 3, "beta_constraint": null, "beta_initializer": {"class_name": "Zeros", "config": {}}, "beta_regularizer": null, "center": true, "epsilon": 1.001e-05, "gamma_constraint": null, "gamma_initializer": {"class_name": "Ones", "config": {}}, "gamma_regularizer": null, "momentum": 0.99, "moving_mean_initializer": {"class_name": "Zeros", "config": {}}, "moving_variance_initializer": {"class_name": "Ones", "config": {}}, "name": "conv4_block5_0_bn", "scale": true, "trainable": [{"args": ["b1", 0, 1], "state": [3, "|", null, null, null, -1, -1, 0]}, "AA==\n"]}, "inbound_nodes": [[["conv4_block4_concat", 0, 0, {}]]], "name": "conv4_block5_0_bn"}, {"class_name": "Activation", "config": {"activation": "relu", "name": "conv4_block5_0_relu", "trainable": [{"args": ["b1", 0, 1], "state": [3, "|", null, null, null, -1, -1, 0]}, "AA==\n"]}, "inbound_nodes": [[["conv4_block5_0_bn", 0, 0, {}]]], "name": "conv4_block5_0_relu"}, {"class_name": "Conv2D", "config": {"activation": "linear", "activity_regularizer": null, "bias_constraint": null, "bias_initializer": {"class_name": "Zeros", "config": {}}, "bias_regularizer": null, "data_format": "channels_last", "dilation_rate": [1, 1], "filters": 128, "kernel_constraint": null, "kernel_initializer": {"class_name": "VarianceScaling", "config": {"distribution": "uniform", "mode": "fan_avg", "scale": 1.0, "seed": null}}, "kernel_regularizer": null, "kernel_size": [1, 1], "name": "conv4_block5_1_conv", "padding": "valid", "strides": [1, 1], "trainable": [{"args": ["b1", 0, 1], "state": [3, "|", null, null, null, -1, -1, 0]}, "AA==\n"], "use_bias": false}, "inbound_nodes": [[["conv4_block5_0_relu", 0, 0, {}]]], "name": "conv4_block5_1_conv"}, {"class_name": "BatchNormalization", "config": {"axis": 3, "beta_constraint": null, "beta_initializer": {"class_name": "Zeros", "config": {}}, "beta_regularizer": null, "center": true, "epsilon": 1.001e-05, "gamma_constraint": null, "gamma_initializer": {"class_name": "Ones", "config": {}}, "gamma_regularizer": null, "momentum": 0.99, "moving_mean_initializer": {"class_name": "Zeros", "config": {}}, "moving_variance_initializer": {"class_name": "Ones", "config": {}}, "name": "conv4_block5_1_bn", "scale": true, "trainable": [{"args": ["b1", 0, 1], "state": [3, "|", null, null, null, -1, -1, 0]}, "AA==\n"]}, "inbound_nodes": [[["conv4_block5_1_conv", 0, 0, {}]]], "name": "conv4_block5_1_bn"}, {"class_name": "Activation", "config": {"activation": "relu", "name": "conv4_block5_1_relu", "trainable": [{"args": ["b1", 0, 1], "state": [3, "|", null, null, null, -1, -1, 0]}, "AA==\n"]}, "inbound_nodes": [[["conv4_block5_1_bn", 0, 0, {}]]], "name": "conv4_block5_1_relu"}, {"class_name": "Conv2D", "config": {"activation": "linear", "activity_regularizer": null, "bias_constraint": null, "bias_initializer": {"class_name": "Zeros", "config": {}}, "bias_regularizer": null, "data_format": "channels_last", "dilation_rate": [1, 1], "filters": 32, "kernel_constraint": null, "kernel_initializer": {"class_name": "VarianceScaling", "config": {"distribution": "uniform", "mode": "fan_avg", "scale": 1.0, "seed": null}}, "kernel_regularizer": null, "kernel_size": [3, 3], "name": "conv4_block5_2_conv", "padding": "same", "strides": [1, 1], "trainable": [{"args": ["b1", 0, 1], "state": [3, "|", null, null, null, -1, -1, 0]}, "AA==\n"], "use_bias": false}, "inbound_nodes": [[["conv4_block5_1_relu", 0, 0, {}]]], "name": "conv4_block5_2_conv"}, {"class_name": "Concatenate", "config": {"axis": 3, "name": "conv4_block5_concat", "trainable": [{"args": ["b1", 0, 1], "state": [3, "|", null, null, null, -1, -1, 0]}, "AA==\n"]}, "inbound_nodes": [[["conv4_block4_concat", 0, 0, {}], ["conv4_block5_2_conv", 0, 0, {}]]], "name": "conv4_block5_concat"}, {"class_name": "BatchNormalization", "config": {"axis": 3, "beta_constraint": null, "beta_initializer": {"class_name": "Zeros", "config": {}}, "beta_regularizer": null, "center": true, "epsilon": 1.001e-05, "gamma_constraint": null, "gamma_initializer": {"class_name": "Ones", "config": {}}, "gamma_regularizer": null, "momentum": 0.99, "moving_mean_initializer": {"class_name": "Zeros", "config": {}}, "moving_variance_initializer": {"class_name": "Ones", "config": {}}, "name": "conv4_block6_0_bn", "scale": true, "trainable": [{"args": ["b1", 0, 1], "state": [3, "|", null, null, null, -1, -1, 0]}, "AA==\n"]}, "inbound_nodes": [[["conv4_block5_concat", 0, 0, {}]]], "name": "conv4_block6_0_bn"}, {"class_name": "Activation", "config": {"activation": "relu", "name": "conv4_block6_0_relu", "trainable": [{"args": ["b1", 0, 1], "state": [3, "|", null, null, null, -1, -1, 0]}, "AA==\n"]}, "inbound_nodes": [[["conv4_block6_0_bn", 0, 0, {}]]], "name": "conv4_block6_0_relu"}, {"class_name": "Conv2D", "config": {"activation": "linear", "activity_regularizer": null, "bias_constraint": null, "bias_initializer": {"class_name": "Zeros", "config": {}}, "bias_regularizer": null, "data_format": "channels_last", "dilation_rate": [1, 1], "filters": 128, "kernel_constraint": null, "kernel_initializer": {"class_name": "VarianceScaling", "config": {"distribution": "uniform", "mode": "fan_avg", "scale": 1.0, "seed": null}}, "kernel_regularizer": null, "kernel_size": [1, 1], "name": "conv4_block6_1_conv", "padding": "valid", "strides": [1, 1], "trainable": [{"args": ["b1", 0, 1], "state": [3, "|", null, null, null, -1, -1, 0]}, "AA==\n"], "use_bias": false}, "inbound_nodes": [[["conv4_block6_0_relu", 0, 0, {}]]], "name": "conv4_block6_1_conv"}, {"class_name": "BatchNormalization", "config": {"axis": 3, "beta_constraint": null, "beta_initializer": {"class_name": "Zeros", "config": {}}, "beta_regularizer": null, "center": true, "epsilon": 1.001e-05, "gamma_constraint": null, "gamma_initializer": {"class_name": "Ones", "config": {}}, "gamma_regularizer": null, "momentum": 0.99, "moving_mean_initializer": {"class_name": "Zeros", "config": {}}, "moving_variance_initializer": {"class_name": "Ones", "config": {}}, "name": "conv4_block6_1_bn", "scale": true, "trainable": [{"args": ["b1", 0, 1], "state": [3, "|", null, null, null, -1, -1, 0]}, "AA==\n"]}, "inbound_nodes": [[["conv4_block6_1_conv", 0, 0, {}]]], "name": "conv4_block6_1_bn"}, {"class_name": "Activation", "config": {"activation": "relu", "name": "conv4_block6_1_relu", "trainable": [{"args": ["b1", 0, 1], "state": [3, "|", null, null, null, -1, -1, 0]}, "AA==\n"]}, "inbound_nodes": [[["conv4_block6_1_bn", 0, 0, {}]]], "name": "conv4_block6_1_relu"}, {"class_name": "Conv2D", "config": {"activation": "linear", "activity_regularizer": null, "bias_constraint": null, "bias_initializer": {"class_name": "Zeros", "config": {}}, "bias_regularizer": null, "data_format": "channels_last", "dilation_rate": [1, 1], "filters": 32, "kernel_constraint": null, "kernel_initializer": {"class_name": "VarianceScaling", "config": {"distribution": "uniform", "mode": "fan_avg", "scale": 1.0, "seed": null}}, "kernel_regularizer": null, "kernel_size": [3, 3], "name": "conv4_block6_2_conv", "padding": "same", "strides": [1, 1], "trainable": [{"args": ["b1", 0, 1], "state": [3, "|", null, null, null, -1, -1, 0]}, "AA==\n"], "use_bias": false}, "inbound_nodes": [[["conv4_block6_1_relu", 0, 0, {}]]], "name": "conv4_block6_2_conv"}, {"class_name": "Concatenate", "config": {"axis": 3, "name": "conv4_block6_concat", "trainable": [{"args": ["b1", 0, 1], "state": [3, "|", null, null, null, -1, -1, 0]}, "AA==\n"]}, "inbound_nodes": [[["conv4_block5_concat", 0, 0, {}], ["conv4_block6_2_conv", 0, 0, {}]]], "name": "conv4_block6_concat"}, {"class_name": "BatchNormalization", "config": {"axis": 3, "beta_constraint": null, "beta_initializer": {"class_name": "Zeros", "config": {}}, "beta_regularizer": null, "center": true, "epsilon": 1.001e-05, "gamma_constraint": null, "gamma_initializer": {"class_name": "Ones", "config": {}}, "gamma_regularizer": null, "momentum": 0.99, "moving_mean_initializer": {"class_name": "Zeros", "config": {}}, "moving_variance_initializer": {"class_name": "Ones", "config": {}}, "name": "conv4_block7_0_bn", "scale": true, "trainable": [{"args": ["b1", 0, 1], "state": [3, "|", null, null, null, -1, -1, 0]}, "AA==\n"]}, "inbound_nodes": [[["conv4_block6_concat", 0, 0, {}]]], "name": "conv4_block7_0_bn"}, {"class_name": "Activation", "config": {"activation": "relu", "name": "conv4_block7_0_relu", "trainable": [{"args": ["b1", 0, 1], "state": [3, "|", null, null, null, -1, -1, 0]}, "AA==\n"]}, "inbound_nodes": [[["conv4_block7_0_bn", 0, 0, {}]]], "name": "conv4_block7_0_relu"}, {"class_name": "Conv2D", "config": {"activation": "linear", "activity_regularizer": null, "bias_constraint": null, "bias_initializer": {"class_name": "Zeros", "config": {}}, "bias_regularizer": null, "data_format": "channels_last", "dilation_rate": [1, 1], "filters": 128, "kernel_constraint": null, "kernel_initializer": {"class_name": "VarianceScaling", "config": {"distribution": "uniform", "mode": "fan_avg", "scale": 1.0, "seed": null}}, "kernel_regularizer": null, "kernel_size": [1, 1], "name": "conv4_block7_1_conv", "padding": "valid", "strides": [1, 1], "trainable": [{"args": ["b1", 0, 1], "state": [3, "|", null, null, null, -1, -1, 0]}, "AA==\n"], "use_bias": false}, "inbound_nodes": [[["conv4_block7_0_relu", 0, 0, {}]]], "name": "conv4_block7_1_conv"}, {"class_name": "BatchNormalization", "config": {"axis": 3, "beta_constraint": null, "beta_initializer": {"class_name": "Zeros", "config": {}}, "beta_regularizer": null, "center": true, "epsilon": 1.001e-05, "gamma_constraint": null, "gamma_initializer": {"class_name": "Ones", "config": {}}, "gamma_regularizer": null, "momentum": 0.99, "moving_mean_initializer": {"class_name": "Zeros", "config": {}}, "moving_variance_initializer": {"class_name": "Ones", "config": {}}, "name": "conv4_block7_1_bn", "scale": true, "trainable": [{"args": ["b1", 0, 1], "state": [3, "|", null, null, null, -1, -1, 0]}, "AA==\n"]}, "inbound_nodes": [[["conv4_block7_1_conv", 0, 0, {}]]], "name": "conv4_block7_1_bn"}, {"class_name": "Activation", "config": {"activation": "relu", "name": "conv4_block7_1_relu", "trainable": [{"args": ["b1", 0, 1], "state": [3, "|", null, null, null, -1, -1, 0]}, "AA==\n"]}, "inbound_nodes": [[["conv4_block7_1_bn", 0, 0, {}]]], "name": "conv4_block7_1_relu"}, {"class_name": "Conv2D", "config": {"activation": "linear", "activity_regularizer": null, "bias_constraint": null, "bias_initializer": {"class_name": "Zeros", "config": {}}, "bias_regularizer": null, "data_format": "channels_last", "dilation_rate": [1, 1], "filters": 32, "kernel_constraint": null, "kernel_initializer": {"class_name": "VarianceScaling", "config": {"distribution": "uniform", "mode": "fan_avg", "scale": 1.0, "seed": null}}, "kernel_regularizer": null, "kernel_size": [3, 3], "name": "conv4_block7_2_conv", "padding": "same", "strides": [1, 1], "trainable": [{"args": ["b1", 0, 1], "state": [3, "|", null, null, null, -1, -1, 0]}, "AA==\n"], "use_bias": false}, "inbound_nodes": [[["conv4_block7_1_relu", 0, 0, {}]]], "name": "conv4_block7_2_conv"}, {"class_name": "Concatenate", "config": {"axis": 3, "name": "conv4_block7_concat", "trainable": [{"args": ["b1", 0, 1], "state": [3, "|", null, null, null, -1, -1, 0]}, "AA==\n"]}, "inbound_nodes": [[["conv4_block6_concat", 0, 0, {}], ["conv4_block7_2_conv", 0, 0, {}]]], "name": "conv4_block7_concat"}, {"class_name": "BatchNormalization", "config": {"axis": 3, "beta_constraint": null, "beta_initializer": {"class_name": "Zeros", "config": {}}, "beta_regularizer": null, "center": true, "epsilon": 1.001e-05, "gamma_constraint": null, "gamma_initializer": {"class_name": "Ones", "config": {}}, "gamma_regularizer": null, "momentum": 0.99, "moving_mean_initializer": {"class_name": "Zeros", "config": {}}, "moving_variance_initializer": {"class_name": "Ones", "config": {}}, "name": "conv4_block8_0_bn", "scale": true, "trainable": [{"args": ["b1", 0, 1], "state": [3, "|", null, null, null, -1, -1, 0]}, "AA==\n"]}, "inbound_nodes": [[["conv4_block7_concat", 0, 0, {}]]], "name": "conv4_block8_0_bn"}, {"class_name": "Activation", "config": {"activation": "relu", "name": "conv4_block8_0_relu", "trainable": [{"args": ["b1", 0, 1], "state": [3, "|", null, null, null, -1, -1, 0]}, "AA==\n"]}, "inbound_nodes": [[["conv4_block8_0_bn", 0, 0, {}]]], "name": "conv4_block8_0_relu"}, {"class_name": "Conv2D", "config": {"activation": "linear", "activity_regularizer": null, "bias_constraint": null, "bias_initializer": {"class_name": "Zeros", "config": {}}, "bias_regularizer": null, "data_format": "channels_last", "dilation_rate": [1, 1], "filters": 128, "kernel_constraint": null, "kernel_initializer": {"class_name": "VarianceScaling", "config": {"distribution": "uniform", "mode": "fan_avg", "scale": 1.0, "seed": null}}, "kernel_regularizer": null, "kernel_size": [1, 1], "name": "conv4_block8_1_conv", "padding": "valid", "strides": [1, 1], "trainable": [{"args": ["b1", 0, 1], "state": [3, "|", null, null, null, -1, -1, 0]}, "AA==\n"], "use_bias": false}, "inbound_nodes": [[["conv4_block8_0_relu", 0, 0, {}]]], "name": "conv4_block8_1_conv"}, {"class_name": "BatchNormalization", "config": {"axis": 3, "beta_constraint": null, "beta_initializer": {"class_name": "Zeros", "config": {}}, "beta_regularizer": null, "center": true, "epsilon": 1.001e-05, "gamma_constraint": null, "gamma_initializer": {"class_name": "Ones", "config": {}}, "gamma_regularizer": null, "momentum": 0.99, "moving_mean_initializer": {"class_name": "Zeros", "config": {}}, "moving_variance_initializer": {"class_name": "Ones", "config": {}}, "name": "conv4_block8_1_bn", "scale": true, "trainable": [{"args": ["b1", 0, 1], "state": [3, "|", null, null, null, -1, -1, 0]}, "AA==\n"]}, "inbound_nodes": [[["conv4_block8_1_conv", 0, 0, {}]]], "name": "conv4_block8_1_bn"}, {"class_name": "Activation", "config": {"activation": "relu", "name": "conv4_block8_1_relu", "trainable": [{"args": ["b1", 0, 1], "state": [3, "|", null, null, null, -1, -1, 0]}, "AA==\n"]}, "inbound_nodes": [[["conv4_block8_1_bn", 0, 0, {}]]], "name": "conv4_block8_1_relu"}, {"class_name": "Conv2D", "config": {"activation": "linear", "activity_regularizer": null, "bias_constraint": null, "bias_initializer": {"class_name": "Zeros", "config": {}}, "bias_regularizer": null, "data_format": "channels_last", "dilation_rate": [1, 1], "filters": 32, "kernel_constraint": null, "kernel_initializer": {"class_name": "VarianceScaling", "config": {"distribution": "uniform", "mode": "fan_avg", "scale": 1.0, "seed": null}}, "kernel_regularizer": null, "kernel_size": [3, 3], "name": "conv4_block8_2_conv", "padding": "same", "strides": [1, 1], "trainable": [{"args": ["b1", 0, 1], "state": [3, "|", null, null, null, -1, -1, 0]}, "AA==\n"], "use_bias": false}, "inbound_nodes": [[["conv4_block8_1_relu", 0, 0, {}]]], "name": "conv4_block8_2_conv"}, {"class_name": "Concatenate", "config": {"axis": 3, "name": "conv4_block8_concat", "trainable": [{"args": ["b1", 0, 1], "state": [3, "|", null, null, null, -1, -1, 0]}, "AA==\n"]}, "inbound_nodes": [[["conv4_block7_concat", 0, 0, {}], ["conv4_block8_2_conv", 0, 0, {}]]], "name": "conv4_block8_concat"}, {"class_name": "BatchNormalization", "config": {"axis": 3, "beta_constraint": null, "beta_initializer": {"class_name": "Zeros", "config": {}}, "beta_regularizer": null, "center": true, "epsilon": 1.001e-05, "gamma_constraint": null, "gamma_initializer": {"class_name": "Ones", "config": {}}, "gamma_regularizer": null, "momentum": 0.99, "moving_mean_initializer": {"class_name": "Zeros", "config": {}}, "moving_variance_initializer": {"class_name": "Ones", "config": {}}, "name": "conv4_block9_0_bn", "scale": true, "trainable": [{"args": ["b1", 0, 1], "state": [3, "|", null, null, null, -1, -1, 0]}, "AA==\n"]}, "inbound_nodes": [[["conv4_block8_concat", 0, 0, {}]]], "name": "conv4_block9_0_bn"}, {"class_name": "Activation", "config": {"activation": "relu", "name": "conv4_block9_0_relu", "trainable": [{"args": ["b1", 0, 1], "state": [3, "|", null, null, null, -1, -1, 0]}, "AA==\n"]}, "inbound_nodes": [[["conv4_block9_0_bn", 0, 0, {}]]], "name": "conv4_block9_0_relu"}, {"class_name": "Conv2D", "config": {"activation": "linear", "activity_regularizer": null, "bias_constraint": null, "bias_initializer": {"class_name": "Zeros", "config": {}}, "bias_regularizer": null, "data_format": "channels_last", "dilation_rate": [1, 1], "filters": 128, "kernel_constraint": null, "kernel_initializer": {"class_name": "VarianceScaling", "config": {"distribution": "uniform", "mode": "fan_avg", "scale": 1.0, "seed": null}}, "kernel_regularizer": null, "kernel_size": [1, 1], "name": "conv4_block9_1_conv", "padding": "valid", "strides": [1, 1], "trainable": [{"args": ["b1", 0, 1], "state": [3, "|", null, null, null, -1, -1, 0]}, "AA==\n"], "use_bias": false}, "inbound_nodes": [[["conv4_block9_0_relu", 0, 0, {}]]], "name": "conv4_block9_1_conv"}, {"class_name": "BatchNormalization", "config": {"axis": 3, "beta_constraint": null, "beta_initializer": {"class_name": "Zeros", "config": {}}, "beta_regularizer": null, "center": true, "epsilon": 1.001e-05, "gamma_constraint": null, "gamma_initializer": {"class_name": "Ones", "config": {}}, "gamma_regularizer": null, "momentum": 0.99, "moving_mean_initializer": {"class_name": "Zeros", "config": {}}, "moving_variance_initializer": {"class_name": "Ones", "config": {}}, "name": "conv4_block9_1_bn", "scale": true, "trainable": [{"args": ["b1", 0, 1], "state": [3, "|", null, null, null, -1, -1, 0]}, "AA==\n"]}, "inbound_nodes": [[["conv4_block9_1_conv", 0, 0, {}]]], "name": "conv4_block9_1_bn"}, {"class_name": "Activation", "config": {"activation": "relu", "name": "conv4_block9_1_relu", "trainable": [{"args": ["b1", 0, 1], "state": [3, "|", null, null, null, -1, -1, 0]}, "AA==\n"]}, "inbound_nodes": [[["conv4_block9_1_bn", 0, 0, {}]]], "name": "conv4_block9_1_relu"}, {"class_name": "Conv2D", "config": {"activation": "linear", "activity_regularizer": null, "bias_constraint": null, "bias_initializer": {"class_name": "Zeros", "config": {}}, "bias_regularizer": null, "data_format": "channels_last", "dilation_rate": [1, 1], "filters": 32, "kernel_constraint": null, "kernel_initializer": {"class_name": "VarianceScaling", "config": {"distribution": "uniform", "mode": "fan_avg", "scale": 1.0, "seed": null}}, "kernel_regularizer": null, "kernel_size": [3, 3], "name": "conv4_block9_2_conv", "padding": "same", "strides": [1, 1], "trainable": [{"args": ["b1", 0, 1], "state": [3, "|", null, null, null, -1, -1, 0]}, "AA==\n"], "use_bias": false}, "inbound_nodes": [[["conv4_block9_1_relu", 0, 0, {}]]], "name": "conv4_block9_2_conv"}, {"class_name": "Concatenate", "config": {"axis": 3, "name": "conv4_block9_concat", "trainable": [{"args": ["b1", 0, 1], "state": [3, "|", null, null, null, -1, -1, 0]}, "AA==\n"]}, "inbound_nodes": [[["conv4_block8_concat", 0, 0, {}], ["conv4_block9_2_conv", 0, 0, {}]]], "name": "conv4_block9_concat"}, {"class_name": "BatchNormalization", "config": {"axis": 3, "beta_constraint": null, "beta_initializer": {"class_name": "Zeros", "config": {}}, "beta_regularizer": null, "center": true, "epsilon": 1.001e-05, "gamma_constraint": null, "gamma_initializer": {"class_name": "Ones", "config": {}}, "gamma_regularizer": null, "momentum": 0.99, "moving_mean_initializer": {"class_name": "Zeros", "config": {}}, "moving_variance_initializer": {"class_name": "Ones", "config": {}}, "name": "conv4_block10_0_bn", "scale": true, "trainable": [{"args": ["b1", 0, 1], "state": [3, "|", null, null, null, -1, -1, 0]}, "AA==\n"]}, "inbound_nodes": [[["conv4_block9_concat", 0, 0, {}]]], "name": "conv4_block10_0_bn"}, {"class_name": "Activation", "config": {"activation": "relu", "name": "conv4_block10_0_relu", "trainable": [{"args": ["b1", 0, 1], "state": [3, "|", null, null, null, -1, -1, 0]}, "AA==\n"]}, "inbound_nodes": [[["conv4_block10_0_bn", 0, 0, {}]]], "name": "conv4_block10_0_relu"}, {"class_name": "Conv2D", "config": {"activation": "linear", "activity_regularizer": null, "bias_constraint": null, "bias_initializer": {"class_name": "Zeros", "config": {}}, "bias_regularizer": null, "data_format": "channels_last", "dilation_rate": [1, 1], "filters": 128, "kernel_constraint": null, "kernel_initializer": {"class_name": "VarianceScaling", "config": {"distribution": "uniform", "mode": "fan_avg", "scale": 1.0, "seed": null}}, "kernel_regularizer": null, "kernel_size": [1, 1], "name": "conv4_block10_1_conv", "padding": "valid", "strides": [1, 1], "trainable": [{"args": ["b1", 0, 1], "state": [3, "|", null, null, null, -1, -1, 0]}, "AA==\n"], "use_bias": false}, "inbound_nodes": [[["conv4_block10_0_relu", 0, 0, {}]]], "name": "conv4_block10_1_conv"}, {"class_name": "BatchNormalization", "config": {"axis": 3, "beta_constraint": null, "beta_initializer": {"class_name": "Zeros", "config": {}}, "beta_regularizer": null, "center": true, "epsilon": 1.001e-05, "gamma_constraint": null, "gamma_initializer": {"class_name": "Ones", "config": {}}, "gamma_regularizer": null, "momentum": 0.99, "moving_mean_initializer": {"class_name": "Zeros", "config": {}}, "moving_variance_initializer": {"class_name": "Ones", "config": {}}, "name": "conv4_block10_1_bn", "scale": true, "trainable": [{"args": ["b1", 0, 1], "state": [3, "|", null, null, null, -1, -1, 0]}, "AA==\n"]}, "inbound_nodes": [[["conv4_block10_1_conv", 0, 0, {}]]], "name": "conv4_block10_1_bn"}, {"class_name": "Activation", "config": {"activation": "relu", "name": "conv4_block10_1_relu", "trainable": [{"args": ["b1", 0, 1], "state": [3, "|", null, null, null, -1, -1, 0]}, "AA==\n"]}, "inbound_nodes": [[["conv4_block10_1_bn", 0, 0, {}]]], "name": "conv4_block10_1_relu"}, {"class_name": "Conv2D", "config": {"activation": "linear", "activity_regularizer": null, "bias_constraint": null, "bias_initializer": {"class_name": "Zeros", "config": {}}, "bias_regularizer": null, "data_format": "channels_last", "dilation_rate": [1, 1], "filters": 32, "kernel_constraint": null, "kernel_initializer": {"class_name": "VarianceScaling", "config": {"distribution": "uniform", "mode": "fan_avg", "scale": 1.0, "seed": null}}, "kernel_regularizer": null, "kernel_size": [3, 3], "name": "conv4_block10_2_conv", "padding": "same", "strides": [1, 1], "trainable": [{"args": ["b1", 0, 1], "state": [3, "|", null, null, null, -1, -1, 0]}, "AA==\n"], "use_bias": false}, "inbound_nodes": [[["conv4_block10_1_relu", 0, 0, {}]]], "name": "conv4_block10_2_conv"}, {"class_name": "Concatenate", "config": {"axis": 3, "name": "conv4_block10_concat", "trainable": [{"args": ["b1", 0, 1], "state": [3, "|", null, null, null, -1, -1, 0]}, "AA==\n"]}, "inbound_nodes": [[["conv4_block9_concat", 0, 0, {}], ["conv4_block10_2_conv", 0, 0, {}]]], "name": "conv4_block10_concat"}, {"class_name": "BatchNormalization", "config": {"axis": 3, "beta_constraint": null, "beta_initializer": {"class_name": "Zeros", "config": {}}, "beta_regularizer": null, "center": true, "epsilon": 1.001e-05, "gamma_constraint": null, "gamma_initializer": {"class_name": "Ones", "config": {}}, "gamma_regularizer": null, "momentum": 0.99, "moving_mean_initializer": {"class_name": "Zeros", "config": {}}, "moving_variance_initializer": {"class_name": "Ones", "config": {}}, "name": "conv4_block11_0_bn", "scale": true, "trainable": [{"args": ["b1", 0, 1], "state": [3, "|", null, null, null, -1, -1, 0]}, "AA==\n"]}, "inbound_nodes": [[["conv4_block10_concat", 0, 0, {}]]], "name": "conv4_block11_0_bn"}, {"class_name": "Activation", "config": {"activation": "relu", "name": "conv4_block11_0_relu", "trainable": [{"args": ["b1", 0, 1], "state": [3, "|", null, null, null, -1, -1, 0]}, "AA==\n"]}, "inbound_nodes": [[["conv4_block11_0_bn", 0, 0, {}]]], "name": "conv4_block11_0_relu"}, {"class_name": "Conv2D", "config": {"activation": "linear", "activity_regularizer": null, "bias_constraint": null, "bias_initializer": {"class_name": "Zeros", "config": {}}, "bias_regularizer": null, "data_format": "channels_last", "dilation_rate": [1, 1], "filters": 128, "kernel_constraint": null, "kernel_initializer": {"class_name": "VarianceScaling", "config": {"distribution": "uniform", "mode": "fan_avg", "scale": 1.0, "seed": null}}, "kernel_regularizer": null, "kernel_size": [1, 1], "name": "conv4_block11_1_conv", "padding": "valid", "strides": [1, 1], "trainable": [{"args": ["b1", 0, 1], "state": [3, "|", null, null, null, -1, -1, 0]}, "AA==\n"], "use_bias": false}, "inbound_nodes": [[["conv4_block11_0_relu", 0, 0, {}]]], "name": "conv4_block11_1_conv"}, {"class_name": "BatchNormalization", "config": {"axis": 3, "beta_constraint": null, "beta_initializer": {"class_name": "Zeros", "config": {}}, "beta_regularizer": null, "center": true, "epsilon": 1.001e-05, "gamma_constraint": null, "gamma_initializer": {"class_name": "Ones", "config": {}}, "gamma_regularizer": null, "momentum": 0.99, "moving_mean_initializer": {"class_name": "Zeros", "config": {}}, "moving_variance_initializer": {"class_name": "Ones", "config": {}}, "name": "conv4_block11_1_bn", "scale": true, "trainable": [{"args": ["b1", 0, 1], "state": [3, "|", null, null, null, -1, -1, 0]}, "AA==\n"]}, "inbound_nodes": [[["conv4_block11_1_conv", 0, 0, {}]]], "name": "conv4_block11_1_bn"}, {"class_name": "Activation", "config": {"activation": "relu", "name": "conv4_block11_1_relu", "trainable": [{"args": ["b1", 0, 1], "state": [3, "|", null, null, null, -1, -1, 0]}, "AA==\n"]}, "inbound_nodes": [[["conv4_block11_1_bn", 0, 0, {}]]], "name": "conv4_block11_1_relu"}, {"class_name": "Conv2D", "config": {"activation": "linear", "activity_regularizer": null, "bias_constraint": null, "bias_initializer": {"class_name": "Zeros", "config": {}}, "bias_regularizer": null, "data_format": "channels_last", "dilation_rate": [1, 1], "filters": 32, "kernel_constraint": null, "kernel_initializer": {"class_name": "VarianceScaling", "config": {"distribution": "uniform", "mode": "fan_avg", "scale": 1.0, "seed": null}}, "kernel_regularizer": null, "kernel_size": [3, 3], "name": "conv4_block11_2_conv", "padding": "same", "strides": [1, 1], "trainable": [{"args": ["b1", 0, 1], "state": [3, "|", null, null, null, -1, -1, 0]}, "AA==\n"], "use_bias": false}, "inbound_nodes": [[["conv4_block11_1_relu", 0, 0, {}]]], "name": "conv4_block11_2_conv"}, {"class_name": "Concatenate", "config": {"axis": 3, "name": "conv4_block11_concat", "trainable": [{"args": ["b1", 0, 1], "state": [3, "|", null, null, null, -1, -1, 0]}, "AA==\n"]}, "inbound_nodes": [[["conv4_block10_concat", 0, 0, {}], ["conv4_block11_2_conv", 0, 0, {}]]], "name": "conv4_block11_concat"}, {"class_name": "BatchNormalization", "config": {"axis": 3, "beta_constraint": null, "beta_initializer": {"class_name": "Zeros", "config": {}}, "beta_regularizer": null, "center": true, "epsilon": 1.001e-05, "gamma_constraint": null, "gamma_initializer": {"class_name": "Ones", "config": {}}, "gamma_regularizer": null, "momentum": 0.99, "moving_mean_initializer": {"class_name": "Zeros", "config": {}}, "moving_variance_initializer": {"class_name": "Ones", "config": {}}, "name": "conv4_block12_0_bn", "scale": true, "trainable": [{"args": ["b1", 0, 1], "state": [3, "|", null, null, null, -1, -1, 0]}, "AA==\n"]}, "inbound_nodes": [[["conv4_block11_concat", 0, 0, {}]]], "name": "conv4_block12_0_bn"}, {"class_name": "Activation", "config": {"activation": "relu", "name": "conv4_block12_0_relu", "trainable": [{"args": ["b1", 0, 1], "state": [3, "|", null, null, null, -1, -1, 0]}, "AA==\n"]}, "inbound_nodes": [[["conv4_block12_0_bn", 0, 0, {}]]], "name": "conv4_block12_0_relu"}, {"class_name": "Conv2D", "config": {"activation": "linear", "activity_regularizer": null, "bias_constraint": null, "bias_initializer": {"class_name": "Zeros", "config": {}}, "bias_regularizer": null, "data_format": "channels_last", "dilation_rate": [1, 1], "filters": 128, "kernel_constraint": null, "kernel_initializer": {"class_name": "VarianceScaling", "config": {"distribution": "uniform", "mode": "fan_avg", "scale": 1.0, "seed": null}}, "kernel_regularizer": null, "kernel_size": [1, 1], "name": "conv4_block12_1_conv", "padding": "valid", "strides": [1, 1], "trainable": [{"args": ["b1", 0, 1], "state": [3, "|", null, null, null, -1, -1, 0]}, "AA==\n"], "use_bias": false}, "inbound_nodes": [[["conv4_block12_0_relu", 0, 0, {}]]], "name": "conv4_block12_1_conv"}, {"class_name": "BatchNormalization", "config": {"axis": 3, "beta_constraint": null, "beta_initializer": {"class_name": "Zeros", "config": {}}, "beta_regularizer": null, "center": true, "epsilon": 1.001e-05, "gamma_constraint": null, "gamma_initializer": {"class_name": "Ones", "config": {}}, "gamma_regularizer": null, "momentum": 0.99, "moving_mean_initializer": {"class_name": "Zeros", "config": {}}, "moving_variance_initializer": {"class_name": "Ones", "config": {}}, "name": "conv4_block12_1_bn", "scale": true, "trainable": [{"args": ["b1", 0, 1], "state": [3, "|", null, null, null, -1, -1, 0]}, "AA==\n"]}, "inbound_nodes": [[["conv4_block12_1_conv", 0, 0, {}]]], "name": "conv4_block12_1_bn"}, {"class_name": "Activation", "config": {"activation": "relu", "name": "conv4_block12_1_relu", "trainable": [{"args": ["b1", 0, 1], "state": [3, "|", null, null, null, -1, -1, 0]}, "AA==\n"]}, "inbound_nodes": [[["conv4_block12_1_bn", 0, 0, {}]]], "name": "conv4_block12_1_relu"}, {"class_name": "Conv2D", "config": {"activation": "linear", "activity_regularizer": null, "bias_constraint": null, "bias_initializer": {"class_name": "Zeros", "config": {}}, "bias_regularizer": null, "data_format": "channels_last", "dilation_rate": [1, 1], "filters": 32, "kernel_constraint": null, "kernel_initializer": {"class_name": "VarianceScaling", "config": {"distribution": "uniform", "mode": "fan_avg", "scale": 1.0, "seed": null}}, "kernel_regularizer": null, "kernel_size": [3, 3], "name": "conv4_block12_2_conv", "padding": "same", "strides": [1, 1], "trainable": [{"args": ["b1", 0, 1], "state": [3, "|", null, null, null, -1, -1, 0]}, "AA==\n"], "use_bias": false}, "inbound_nodes": [[["conv4_block12_1_relu", 0, 0, {}]]], "name": "conv4_block12_2_conv"}, {"class_name": "Concatenate", "config": {"axis": 3, "name": "conv4_block12_concat", "trainable": [{"args": ["b1", 0, 1], "state": [3, "|", null, null, null, -1, -1, 0]}, "AA==\n"]}, "inbound_nodes": [[["conv4_block11_concat", 0, 0, {}], ["conv4_block12_2_conv", 0, 0, {}]]], "name": "conv4_block12_concat"}, {"class_name": "BatchNormalization", "config": {"axis": 3, "beta_constraint": null, "beta_initializer": {"class_name": "Zeros", "config": {}}, "beta_regularizer": null, "center": true, "epsilon": 1.001e-05, "gamma_constraint": null, "gamma_initializer": {"class_name": "Ones", "config": {}}, "gamma_regularizer": null, "momentum": 0.99, "moving_mean_initializer": {"class_name": "Zeros", "config": {}}, "moving_variance_initializer": {"class_name": "Ones", "config": {}}, "name": "conv4_block13_0_bn", "scale": true, "trainable": [{"args": ["b1", 0, 1], "state": [3, "|", null, null, null, -1, -1, 0]}, "AA==\n"]}, "inbound_nodes": [[["conv4_block12_concat", 0, 0, {}]]], "name": "conv4_block13_0_bn"}, {"class_name": "Activation", "config": {"activation": "relu", "name": "conv4_block13_0_relu", "trainable": [{"args": ["b1", 0, 1], "state": [3, "|", null, null, null, -1, -1, 0]}, "AA==\n"]}, "inbound_nodes": [[["conv4_block13_0_bn", 0, 0, {}]]], "name": "conv4_block13_0_relu"}, {"class_name": "Conv2D", "config": {"activation": "linear", "activity_regularizer": null, "bias_constraint": null, "bias_initializer": {"class_name": "Zeros", "config": {}}, "bias_regularizer": null, "data_format": "channels_last", "dilation_rate": [1, 1], "filters": 128, "kernel_constraint": null, "kernel_initializer": {"class_name": "VarianceScaling", "config": {"distribution": "uniform", "mode": "fan_avg", "scale": 1.0, "seed": null}}, "kernel_regularizer": null, "kernel_size": [1, 1], "name": "conv4_block13_1_conv", "padding": "valid", "strides": [1, 1], "trainable": [{"args": ["b1", 0, 1], "state": [3, "|", null, null, null, -1, -1, 0]}, "AA==\n"], "use_bias": false}, "inbound_nodes": [[["conv4_block13_0_relu", 0, 0, {}]]], "name": "conv4_block13_1_conv"}, {"class_name": "BatchNormalization", "config": {"axis": 3, "beta_constraint": null, "beta_initializer": {"class_name": "Zeros", "config": {}}, "beta_regularizer": null, "center": true, "epsilon": 1.001e-05, "gamma_constraint": null, "gamma_initializer": {"class_name": "Ones", "config": {}}, "gamma_regularizer": null, "momentum": 0.99, "moving_mean_initializer": {"class_name": "Zeros", "config": {}}, "moving_variance_initializer": {"class_name": "Ones", "config": {}}, "name": "conv4_block13_1_bn", "scale": true, "trainable": [{"args": ["b1", 0, 1], "state": [3, "|", null, null, null, -1, -1, 0]}, "AA==\n"]}, "inbound_nodes": [[["conv4_block13_1_conv", 0, 0, {}]]], "name": "conv4_block13_1_bn"}, {"class_name": "Activation", "config": {"activation": "relu", "name": "conv4_block13_1_relu", "trainable": [{"args": ["b1", 0, 1], "state": [3, "|", null, null, null, -1, -1, 0]}, "AA==\n"]}, "inbound_nodes": [[["conv4_block13_1_bn", 0, 0, {}]]], "name": "conv4_block13_1_relu"}, {"class_name": "Conv2D", "config": {"activation": "linear", "activity_regularizer": null, "bias_constraint": null, "bias_initializer": {"class_name": "Zeros", "config": {}}, "bias_regularizer": null, "data_format": "channels_last", "dilation_rate": [1, 1], "filters": 32, "kernel_constraint": null, "kernel_initializer": {"class_name": "VarianceScaling", "config": {"distribution": "uniform", "mode": "fan_avg", "scale": 1.0, "seed": null}}, "kernel_regularizer": null, "kernel_size": [3, 3], "name": "conv4_block13_2_conv", "padding": "same", "strides": [1, 1], "trainable": [{"args": ["b1", 0, 1], "state": [3, "|", null, null, null, -1, -1, 0]}, "AA==\n"], "use_bias": false}, "inbound_nodes": [[["conv4_block13_1_relu", 0, 0, {}]]], "name": "conv4_block13_2_conv"}, {"class_name": "Concatenate", "config": {"axis": 3, "name": "conv4_block13_concat", "trainable": [{"args": ["b1", 0, 1], "state": [3, "|", null, null, null, -1, -1, 0]}, "AA==\n"]}, "inbound_nodes": [[["conv4_block12_concat", 0, 0, {}], ["conv4_block13_2_conv", 0, 0, {}]]], "name": "conv4_block13_concat"}, {"class_name": "BatchNormalization", "config": {"axis": 3, "beta_constraint": null, "beta_initializer": {"class_name": "Zeros", "config": {}}, "beta_regularizer": null, "center": true, "epsilon": 1.001e-05, "gamma_constraint": null, "gamma_initializer": {"class_name": "Ones", "config": {}}, "gamma_regularizer": null, "momentum": 0.99, "moving_mean_initializer": {"class_name": "Zeros", "config": {}}, "moving_variance_initializer": {"class_name": "Ones", "config": {}}, "name": "conv4_block14_0_bn", "scale": true, "trainable": [{"args": ["b1", 0, 1], "state": [3, "|", null, null, null, -1, -1, 0]}, "AA==\n"]}, "inbound_nodes": [[["conv4_block13_concat", 0, 0, {}]]], "name": "conv4_block14_0_bn"}, {"class_name": "Activation", "config": {"activation": "relu", "name": "conv4_block14_0_relu", "trainable": [{"args": ["b1", 0, 1], "state": [3, "|", null, null, null, -1, -1, 0]}, "AA==\n"]}, "inbound_nodes": [[["conv4_block14_0_bn", 0, 0, {}]]], "name": "conv4_block14_0_relu"}, {"class_name": "Conv2D", "config": {"activation": "linear", "activity_regularizer": null, "bias_constraint": null, "bias_initializer": {"class_name": "Zeros", "config": {}}, "bias_regularizer": null, "data_format": "channels_last", "dilation_rate": [1, 1], "filters": 128, "kernel_constraint": null, "kernel_initializer": {"class_name": "VarianceScaling", "config": {"distribution": "uniform", "mode": "fan_avg", "scale": 1.0, "seed": null}}, "kernel_regularizer": null, "kernel_size": [1, 1], "name": "conv4_block14_1_conv", "padding": "valid", "strides": [1, 1], "trainable": [{"args": ["b1", 0, 1], "state": [3, "|", null, null, null, -1, -1, 0]}, "AA==\n"], "use_bias": false}, "inbound_nodes": [[["conv4_block14_0_relu", 0, 0, {}]]], "name": "conv4_block14_1_conv"}, {"class_name": "BatchNormalization", "config": {"axis": 3, "beta_constraint": null, "beta_initializer": {"class_name": "Zeros", "config": {}}, "beta_regularizer": null, "center": true, "epsilon": 1.001e-05, "gamma_constraint": null, "gamma_initializer": {"class_name": "Ones", "config": {}}, "gamma_regularizer": null, "momentum": 0.99, "moving_mean_initializer": {"class_name": "Zeros", "config": {}}, "moving_variance_initializer": {"class_name": "Ones", "config": {}}, "name": "conv4_block14_1_bn", "scale": true, "trainable": [{"args": ["b1", 0, 1], "state": [3, "|", null, null, null, -1, -1, 0]}, "AA==\n"]}, "inbound_nodes": [[["conv4_block14_1_conv", 0, 0, {}]]], "name": "conv4_block14_1_bn"}, {"class_name": "Activation", "config": {"activation": "relu", "name": "conv4_block14_1_relu", "trainable": [{"args": ["b1", 0, 1], "state": [3, "|", null, null, null, -1, -1, 0]}, "AA==\n"]}, "inbound_nodes": [[["conv4_block14_1_bn", 0, 0, {}]]], "name": "conv4_block14_1_relu"}, {"class_name": "Conv2D", "config": {"activation": "linear", "activity_regularizer": null, "bias_constraint": null, "bias_initializer": {"class_name": "Zeros", "config": {}}, "bias_regularizer": null, "data_format": "channels_last", "dilation_rate": [1, 1], "filters": 32, "kernel_constraint": null, "kernel_initializer": {"class_name": "VarianceScaling", "config": {"distribution": "uniform", "mode": "fan_avg", "scale": 1.0, "seed": null}}, "kernel_regularizer": null, "kernel_size": [3, 3], "name": "conv4_block14_2_conv", "padding": "same", "strides": [1, 1], "trainable": [{"args": ["b1", 0, 1], "state": [3, "|", null, null, null, -1, -1, 0]}, "AA==\n"], "use_bias": false}, "inbound_nodes": [[["conv4_block14_1_relu", 0, 0, {}]]], "name": "conv4_block14_2_conv"}, {"class_name": "Concatenate", "config": {"axis": 3, "name": "conv4_block14_concat", "trainable": [{"args": ["b1", 0, 1], "state": [3, "|", null, null, null, -1, -1, 0]}, "AA==\n"]}, "inbound_nodes": [[["conv4_block13_concat", 0, 0, {}], ["conv4_block14_2_conv", 0, 0, {}]]], "name": "conv4_block14_concat"}, {"class_name": "BatchNormalization", "config": {"axis": 3, "beta_constraint": null, "beta_initializer": {"class_name": "Zeros", "config": {}}, "beta_regularizer": null, "center": true, "epsilon": 1.001e-05, "gamma_constraint": null, "gamma_initializer": {"class_name": "Ones", "config": {}}, "gamma_regularizer": null, "momentum": 0.99, "moving_mean_initializer": {"class_name": "Zeros", "config": {}}, "moving_variance_initializer": {"class_name": "Ones", "config": {}}, "name": "conv4_block15_0_bn", "scale": true, "trainable": [{"args": ["b1", 0, 1], "state": [3, "|", null, null, null, -1, -1, 0]}, "AA==\n"]}, "inbound_nodes": [[["conv4_block14_concat", 0, 0, {}]]], "name": "conv4_block15_0_bn"}, {"class_name": "Activation", "config": {"activation": "relu", "name": "conv4_block15_0_relu", "trainable": [{"args": ["b1", 0, 1], "state": [3, "|", null, null, null, -1, -1, 0]}, "AA==\n"]}, "inbound_nodes": [[["conv4_block15_0_bn", 0, 0, {}]]], "name": "conv4_block15_0_relu"}, {"class_name": "Conv2D", "config": {"activation": "linear", "activity_regularizer": null, "bias_constraint": null, "bias_initializer": {"class_name": "Zeros", "config": {}}, "bias_regularizer": null, "data_format": "channels_last", "dilation_rate": [1, 1], "filters": 128, "kernel_constraint": null, "kernel_initializer": {"class_name": "VarianceScaling", "config": {"distribution": "uniform", "mode": "fan_avg", "scale": 1.0, "seed": null}}, "kernel_regularizer": null, "kernel_size": [1, 1], "name": "conv4_block15_1_conv", "padding": "valid", "strides": [1, 1], "trainable": [{"args": ["b1", 0, 1], "state": [3, "|", null, null, null, -1, -1, 0]}, "AA==\n"], "use_bias": false}, "inbound_nodes": [[["conv4_block15_0_relu", 0, 0, {}]]], "name": "conv4_block15_1_conv"}, {"class_name": "BatchNormalization", "config": {"axis": 3, "beta_constraint": null, "beta_initializer": {"class_name": "Zeros", "config": {}}, "beta_regularizer": null, "center": true, "epsilon": 1.001e-05, "gamma_constraint": null, "gamma_initializer": {"class_name": "Ones", "config": {}}, "gamma_regularizer": null, "momentum": 0.99, "moving_mean_initializer": {"class_name": "Zeros", "config": {}}, "moving_variance_initializer": {"class_name": "Ones", "config": {}}, "name": "conv4_block15_1_bn", "scale": true, "trainable": [{"args": ["b1", 0, 1], "state": [3, "|", null, null, null, -1, -1, 0]}, "AA==\n"]}, "inbound_nodes": [[["conv4_block15_1_conv", 0, 0, {}]]], "name": "conv4_block15_1_bn"}, {"class_name": "Activation", "config": {"activation": "relu", "name": "conv4_block15_1_relu", "trainable": [{"args": ["b1", 0, 1], "state": [3, "|", null, null, null, -1, -1, 0]}, "AA==\n"]}, "inbound_nodes": [[["conv4_block15_1_bn", 0, 0, {}]]], "name": "conv4_block15_1_relu"}, {"class_name": "Conv2D", "config": {"activation": "linear", "activity_regularizer": null, "bias_constraint": null, "bias_initializer": {"class_name": "Zeros", "config": {}}, "bias_regularizer": null, "data_format": "channels_last", "dilation_rate": [1, 1], "filters": 32, "kernel_constraint": null, "kernel_initializer": {"class_name": "VarianceScaling", "config": {"distribution": "uniform", "mode": "fan_avg", "scale": 1.0, "seed": null}}, "kernel_regularizer": null, "kernel_size": [3, 3], "name": "conv4_block15_2_conv", "padding": "same", "strides": [1, 1], "trainable": [{"args": ["b1", 0, 1], "state": [3, "|", null, null, null, -1, -1, 0]}, "AA==\n"], "use_bias": false}, "inbound_nodes": [[["conv4_block15_1_relu", 0, 0, {}]]], "name": "conv4_block15_2_conv"}, {"class_name": "Concatenate", "config": {"axis": 3, "name": "conv4_block15_concat", "trainable": [{"args": ["b1", 0, 1], "state": [3, "|", null, null, null, -1, -1, 0]}, "AA==\n"]}, "inbound_nodes": [[["conv4_block14_concat", 0, 0, {}], ["conv4_block15_2_conv", 0, 0, {}]]], "name": "conv4_block15_concat"}, {"class_name": "BatchNormalization", "config": {"axis": 3, "beta_constraint": null, "beta_initializer": {"class_name": "Zeros", "config": {}}, "beta_regularizer": null, "center": true, "epsilon": 1.001e-05, "gamma_constraint": null, "gamma_initializer": {"class_name": "Ones", "config": {}}, "gamma_regularizer": null, "momentum": 0.99, "moving_mean_initializer": {"class_name": "Zeros", "config": {}}, "moving_variance_initializer": {"class_name": "Ones", "config": {}}, "name": "conv4_block16_0_bn", "scale": true, "trainable": [{"args": ["b1", 0, 1], "state": [3, "|", null, null, null, -1, -1, 0]}, "AA==\n"]}, "inbound_nodes": [[["conv4_block15_concat", 0, 0, {}]]], "name": "conv4_block16_0_bn"}, {"class_name": "Activation", "config": {"activation": "relu", "name": "conv4_block16_0_relu", "trainable": [{"args": ["b1", 0, 1], "state": [3, "|", null, null, null, -1, -1, 0]}, "AA==\n"]}, "inbound_nodes": [[["conv4_block16_0_bn", 0, 0, {}]]], "name": "conv4_block16_0_relu"}, {"class_name": "Conv2D", "config": {"activation": "linear", "activity_regularizer": null, "bias_constraint": null, "bias_initializer": {"class_name": "Zeros", "config": {}}, "bias_regularizer": null, "data_format": "channels_last", "dilation_rate": [1, 1], "filters": 128, "kernel_constraint": null, "kernel_initializer": {"class_name": "VarianceScaling", "config": {"distribution": "uniform", "mode": "fan_avg", "scale": 1.0, "seed": null}}, "kernel_regularizer": null, "kernel_size": [1, 1], "name": "conv4_block16_1_conv", "padding": "valid", "strides": [1, 1], "trainable": [{"args": ["b1", 0, 1], "state": [3, "|", null, null, null, -1, -1, 0]}, "AA==\n"], "use_bias": false}, "inbound_nodes": [[["conv4_block16_0_relu", 0, 0, {}]]], "name": "conv4_block16_1_conv"}, {"class_name": "BatchNormalization", "config": {"axis": 3, "beta_constraint": null, "beta_initializer": {"class_name": "Zeros", "config": {}}, "beta_regularizer": null, "center": true, "epsilon": 1.001e-05, "gamma_constraint": null, "gamma_initializer": {"class_name": "Ones", "config": {}}, "gamma_regularizer": null, "momentum": 0.99, "moving_mean_initializer": {"class_name": "Zeros", "config": {}}, "moving_variance_initializer": {"class_name": "Ones", "config": {}}, "name": "conv4_block16_1_bn", "scale": true, "trainable": [{"args": ["b1", 0, 1], "state": [3, "|", null, null, null, -1, -1, 0]}, "AA==\n"]}, "inbound_nodes": [[["conv4_block16_1_conv", 0, 0, {}]]], "name": "conv4_block16_1_bn"}, {"class_name": "Activation", "config": {"activation": "relu", "name": "conv4_block16_1_relu", "trainable": [{"args": ["b1", 0, 1], "state": [3, "|", null, null, null, -1, -1, 0]}, "AA==\n"]}, "inbound_nodes": [[["conv4_block16_1_bn", 0, 0, {}]]], "name": "conv4_block16_1_relu"}, {"class_name": "Conv2D", "config": {"activation": "linear", "activity_regularizer": null, "bias_constraint": null, "bias_initializer": {"class_name": "Zeros", "config": {}}, "bias_regularizer": null, "data_format": "channels_last", "dilation_rate": [1, 1], "filters": 32, "kernel_constraint": null, "kernel_initializer": {"class_name": "VarianceScaling", "config": {"distribution": "uniform", "mode": "fan_avg", "scale": 1.0, "seed": null}}, "kernel_regularizer": null, "kernel_size": [3, 3], "name": "conv4_block16_2_conv", "padding": "same", "strides": [1, 1], "trainable": [{"args": ["b1", 0, 1], "state": [3, "|", null, null, null, -1, -1, 0]}, "AA==\n"], "use_bias": false}, "inbound_nodes": [[["conv4_block16_1_relu", 0, 0, {}]]], "name": "conv4_block16_2_conv"}, {"class_name": "Concatenate", "config": {"axis": 3, "name": "conv4_block16_concat", "trainable": [{"args": ["b1", 0, 1], "state": [3, "|", null, null, null, -1, -1, 0]}, "AA==\n"]}, "inbound_nodes": [[["conv4_block15_concat", 0, 0, {}], ["conv4_block16_2_conv", 0, 0, {}]]], "name": "conv4_block16_concat"}, {"class_name": "BatchNormalization", "config": {"axis": 3, "beta_constraint": null, "beta_initializer": {"class_name": "Zeros", "config": {}}, "beta_regularizer": null, "center": true, "epsilon": 1.001e-05, "gamma_constraint": null, "gamma_initializer": {"class_name": "Ones", "config": {}}, "gamma_regularizer": null, "momentum": 0.99, "moving_mean_initializer": {"class_name": "Zeros", "config": {}}, "moving_variance_initializer": {"class_name": "Ones", "config": {}}, "name": "conv4_block17_0_bn", "scale": true, "trainable": [{"args": ["b1", 0, 1], "state": [3, "|", null, null, null, -1, -1, 0]}, "AA==\n"]}, "inbound_nodes": [[["conv4_block16_concat", 0, 0, {}]]], "name": "conv4_block17_0_bn"}, {"class_name": "Activation", "config": {"activation": "relu", "name": "conv4_block17_0_relu", "trainable": [{"args": ["b1", 0, 1], "state": [3, "|", null, null, null, -1, -1, 0]}, "AA==\n"]}, "inbound_nodes": [[["conv4_block17_0_bn", 0, 0, {}]]], "name": "conv4_block17_0_relu"}, {"class_name": "Conv2D", "config": {"activation": "linear", "activity_regularizer": null, "bias_constraint": null, "bias_initializer": {"class_name": "Zeros", "config": {}}, "bias_regularizer": null, "data_format": "channels_last", "dilation_rate": [1, 1], "filters": 128, "kernel_constraint": null, "kernel_initializer": {"class_name": "VarianceScaling", "config": {"distribution": "uniform", "mode": "fan_avg", "scale": 1.0, "seed": null}}, "kernel_regularizer": null, "kernel_size": [1, 1], "name": "conv4_block17_1_conv", "padding": "valid", "strides": [1, 1], "trainable": [{"args": ["b1", 0, 1], "state": [3, "|", null, null, null, -1, -1, 0]}, "AA==\n"], "use_bias": false}, "inbound_nodes": [[["conv4_block17_0_relu", 0, 0, {}]]], "name": "conv4_block17_1_conv"}, {"class_name": "BatchNormalization", "config": {"axis": 3, "beta_constraint": null, "beta_initializer": {"class_name": "Zeros", "config": {}}, "beta_regularizer": null, "center": true, "epsilon": 1.001e-05, "gamma_constraint": null, "gamma_initializer": {"class_name": "Ones", "config": {}}, "gamma_regularizer": null, "momentum": 0.99, "moving_mean_initializer": {"class_name": "Zeros", "config": {}}, "moving_variance_initializer": {"class_name": "Ones", "config": {}}, "name": "conv4_block17_1_bn", "scale": true, "trainable": [{"args": ["b1", 0, 1], "state": [3, "|", null, null, null, -1, -1, 0]}, "AA==\n"]}, "inbound_nodes": [[["conv4_block17_1_conv", 0, 0, {}]]], "name": "conv4_block17_1_bn"}, {"class_name": "Activation", "config": {"activation": "relu", "name": "conv4_block17_1_relu", "trainable": [{"args": ["b1", 0, 1], "state": [3, "|", null, null, null, -1, -1, 0]}, "AA==\n"]}, "inbound_nodes": [[["conv4_block17_1_bn", 0, 0, {}]]], "name": "conv4_block17_1_relu"}, {"class_name": "Conv2D", "config": {"activation": "linear", "activity_regularizer": null, "bias_constraint": null, "bias_initializer": {"class_name": "Zeros", "config": {}}, "bias_regularizer": null, "data_format": "channels_last", "dilation_rate": [1, 1], "filters": 32, "kernel_constraint": null, "kernel_initializer": {"class_name": "VarianceScaling", "config": {"distribution": "uniform", "mode": "fan_avg", "scale": 1.0, "seed": null}}, "kernel_regularizer": null, "kernel_size": [3, 3], "name": "conv4_block17_2_conv", "padding": "same", "strides": [1, 1], "trainable": [{"args": ["b1", 0, 1], "state": [3, "|", null, null, null, -1, -1, 0]}, "AA==\n"], "use_bias": false}, "inbound_nodes": [[["conv4_block17_1_relu", 0, 0, {}]]], "name": "conv4_block17_2_conv"}, {"class_name": "Concatenate", "config": {"axis": 3, "name": "conv4_block17_concat", "trainable": [{"args": ["b1", 0, 1], "state": [3, "|", null, null, null, -1, -1, 0]}, "AA==\n"]}, "inbound_nodes": [[["conv4_block16_concat", 0, 0, {}], ["conv4_block17_2_conv", 0, 0, {}]]], "name": "conv4_block17_concat"}, {"class_name": "BatchNormalization", "config": {"axis": 3, "beta_constraint": null, "beta_initializer": {"class_name": "Zeros", "config": {}}, "beta_regularizer": null, "center": true, "epsilon": 1.001e-05, "gamma_constraint": null, "gamma_initializer": {"class_name": "Ones", "config": {}}, "gamma_regularizer": null, "momentum": 0.99, "moving_mean_initializer": {"class_name": "Zeros", "config": {}}, "moving_variance_initializer": {"class_name": "Ones", "config": {}}, "name": "conv4_block18_0_bn", "scale": true, "trainable": [{"args": ["b1", 0, 1], "state": [3, "|", null, null, null, -1, -1, 0]}, "AA==\n"]}, "inbound_nodes": [[["conv4_block17_concat", 0, 0, {}]]], "name": "conv4_block18_0_bn"}, {"class_name": "Activation", "config": {"activation": "relu", "name": "conv4_block18_0_relu", "trainable": [{"args": ["b1", 0, 1], "state": [3, "|", null, null, null, -1, -1, 0]}, "AA==\n"]}, "inbound_nodes": [[["conv4_block18_0_bn", 0, 0, {}]]], "name": "conv4_block18_0_relu"}, {"class_name": "Conv2D", "config": {"activation": "linear", "activity_regularizer": null, "bias_constraint": null, "bias_initializer": {"class_name": "Zeros", "config": {}}, "bias_regularizer": null, "data_format": "channels_last", "dilation_rate": [1, 1], "filters": 128, "kernel_constraint": null, "kernel_initializer": {"class_name": "VarianceScaling", "config": {"distribution": "uniform", "mode": "fan_avg", "scale": 1.0, "seed": null}}, "kernel_regularizer": null, "kernel_size": [1, 1], "name": "conv4_block18_1_conv", "padding": "valid", "strides": [1, 1], "trainable": [{"args": ["b1", 0, 1], "state": [3, "|", null, null, null, -1, -1, 0]}, "AA==\n"], "use_bias": false}, "inbound_nodes": [[["conv4_block18_0_relu", 0, 0, {}]]], "name": "conv4_block18_1_conv"}, {"class_name": "BatchNormalization", "config": {"axis": 3, "beta_constraint": null, "beta_initializer": {"class_name": "Zeros", "config": {}}, "beta_regularizer": null, "center": true, "epsilon": 1.001e-05, "gamma_constraint": null, "gamma_initializer": {"class_name": "Ones", "config": {}}, "gamma_regularizer": null, "momentum": 0.99, "moving_mean_initializer": {"class_name": "Zeros", "config": {}}, "moving_variance_initializer": {"class_name": "Ones", "config": {}}, "name": "conv4_block18_1_bn", "scale": true, "trainable": [{"args": ["b1", 0, 1], "state": [3, "|", null, null, null, -1, -1, 0]}, "AA==\n"]}, "inbound_nodes": [[["conv4_block18_1_conv", 0, 0, {}]]], "name": "conv4_block18_1_bn"}, {"class_name": "Activation", "config": {"activation": "relu", "name": "conv4_block18_1_relu", "trainable": [{"args": ["b1", 0, 1], "state": [3, "|", null, null, null, -1, -1, 0]}, "AA==\n"]}, "inbound_nodes": [[["conv4_block18_1_bn", 0, 0, {}]]], "name": "conv4_block18_1_relu"}, {"class_name": "Conv2D", "config": {"activation": "linear", "activity_regularizer": null, "bias_constraint": null, "bias_initializer": {"class_name": "Zeros", "config": {}}, "bias_regularizer": null, "data_format": "channels_last", "dilation_rate": [1, 1], "filters": 32, "kernel_constraint": null, "kernel_initializer": {"class_name": "VarianceScaling", "config": {"distribution": "uniform", "mode": "fan_avg", "scale": 1.0, "seed": null}}, "kernel_regularizer": null, "kernel_size": [3, 3], "name": "conv4_block18_2_conv", "padding": "same", "strides": [1, 1], "trainable": [{"args": ["b1", 0, 1], "state": [3, "|", null, null, null, -1, -1, 0]}, "AA==\n"], "use_bias": false}, "inbound_nodes": [[["conv4_block18_1_relu", 0, 0, {}]]], "name": "conv4_block18_2_conv"}, {"class_name": "Concatenate", "config": {"axis": 3, "name": "conv4_block18_concat", "trainable": [{"args": ["b1", 0, 1], "state": [3, "|", null, null, null, -1, -1, 0]}, "AA==\n"]}, "inbound_nodes": [[["conv4_block17_concat", 0, 0, {}], ["conv4_block18_2_conv", 0, 0, {}]]], "name": "conv4_block18_concat"}, {"class_name": "BatchNormalization", "config": {"axis": 3, "beta_constraint": null, "beta_initializer": {"class_name": "Zeros", "config": {}}, "beta_regularizer": null, "center": true, "epsilon": 1.001e-05, "gamma_constraint": null, "gamma_initializer": {"class_name": "Ones", "config": {}}, "gamma_regularizer": null, "momentum": 0.99, "moving_mean_initializer": {"class_name": "Zeros", "config": {}}, "moving_variance_initializer": {"class_name": "Ones", "config": {}}, "name": "conv4_block19_0_bn", "scale": true, "trainable": [{"args": ["b1", 0, 1], "state": [3, "|", null, null, null, -1, -1, 0]}, "AA==\n"]}, "inbound_nodes": [[["conv4_block18_concat", 0, 0, {}]]], "name": "conv4_block19_0_bn"}, {"class_name": "Activation", "config": {"activation": "relu", "name": "conv4_block19_0_relu", "trainable": [{"args": ["b1", 0, 1], "state": [3, "|", null, null, null, -1, -1, 0]}, "AA==\n"]}, "inbound_nodes": [[["conv4_block19_0_bn", 0, 0, {}]]], "name": "conv4_block19_0_relu"}, {"class_name": "Conv2D", "config": {"activation": "linear", "activity_regularizer": null, "bias_constraint": null, "bias_initializer": {"class_name": "Zeros", "config": {}}, "bias_regularizer": null, "data_format": "channels_last", "dilation_rate": [1, 1], "filters": 128, "kernel_constraint": null, "kernel_initializer": {"class_name": "VarianceScaling", "config": {"distribution": "uniform", "mode": "fan_avg", "scale": 1.0, "seed": null}}, "kernel_regularizer": null, "kernel_size": [1, 1], "name": "conv4_block19_1_conv", "padding": "valid", "strides": [1, 1], "trainable": [{"args": ["b1", 0, 1], "state": [3, "|", null, null, null, -1, -1, 0]}, "AA==\n"], "use_bias": false}, "inbound_nodes": [[["conv4_block19_0_relu", 0, 0, {}]]], "name": "conv4_block19_1_conv"}, {"class_name": "BatchNormalization", "config": {"axis": 3, "beta_constraint": null, "beta_initializer": {"class_name": "Zeros", "config": {}}, "beta_regularizer": null, "center": true, "epsilon": 1.001e-05, "gamma_constraint": null, "gamma_initializer": {"class_name": "Ones", "config": {}}, "gamma_regularizer": null, "momentum": 0.99, "moving_mean_initializer": {"class_name": "Zeros", "config": {}}, "moving_variance_initializer": {"class_name": "Ones", "config": {}}, "name": "conv4_block19_1_bn", "scale": true, "trainable": [{"args": ["b1", 0, 1], "state": [3, "|", null, null, null, -1, -1, 0]}, "AA==\n"]}, "inbound_nodes": [[["conv4_block19_1_conv", 0, 0, {}]]], "name": "conv4_block19_1_bn"}, {"class_name": "Activation", "config": {"activation": "relu", "name": "conv4_block19_1_relu", "trainable": [{"args": ["b1", 0, 1], "state": [3, "|", null, null, null, -1, -1, 0]}, "AA==\n"]}, "inbound_nodes": [[["conv4_block19_1_bn", 0, 0, {}]]], "name": "conv4_block19_1_relu"}, {"class_name": "Conv2D", "config": {"activation": "linear", "activity_regularizer": null, "bias_constraint": null, "bias_initializer": {"class_name": "Zeros", "config": {}}, "bias_regularizer": null, "data_format": "channels_last", "dilation_rate": [1, 1], "filters": 32, "kernel_constraint": null, "kernel_initializer": {"class_name": "VarianceScaling", "config": {"distribution": "uniform", "mode": "fan_avg", "scale": 1.0, "seed": null}}, "kernel_regularizer": null, "kernel_size": [3, 3], "name": "conv4_block19_2_conv", "padding": "same", "strides": [1, 1], "trainable": [{"args": ["b1", 0, 1], "state": [3, "|", null, null, null, -1, -1, 0]}, "AA==\n"], "use_bias": false}, "inbound_nodes": [[["conv4_block19_1_relu", 0, 0, {}]]], "name": "conv4_block19_2_conv"}, {"class_name": "Concatenate", "config": {"axis": 3, "name": "conv4_block19_concat", "trainable": [{"args": ["b1", 0, 1], "state": [3, "|", null, null, null, -1, -1, 0]}, "AA==\n"]}, "inbound_nodes": [[["conv4_block18_concat", 0, 0, {}], ["conv4_block19_2_conv", 0, 0, {}]]], "name": "conv4_block19_concat"}, {"class_name": "BatchNormalization", "config": {"axis": 3, "beta_constraint": null, "beta_initializer": {"class_name": "Zeros", "config": {}}, "beta_regularizer": null, "center": true, "epsilon": 1.001e-05, "gamma_constraint": null, "gamma_initializer": {"class_name": "Ones", "config": {}}, "gamma_regularizer": null, "momentum": 0.99, "moving_mean_initializer": {"class_name": "Zeros", "config": {}}, "moving_variance_initializer": {"class_name": "Ones", "config": {}}, "name": "conv4_block20_0_bn", "scale": true, "trainable": [{"args": ["b1", 0, 1], "state": [3, "|", null, null, null, -1, -1, 0]}, "AA==\n"]}, "inbound_nodes": [[["conv4_block19_concat", 0, 0, {}]]], "name": "con…
, 1], "trainable": [{"args": ["b1", 0, 1], "state": [3, "|", null, null, null, -1, -1, 0]}, "AA==\n"], "use_bias": false}, "inbound_nodes": [[["block8_5_ac", 0, 0, {}]]], "name": "conv2d_187"}, {"class_name": "BatchNormalization", "config": {"axis": 3, "beta_constraint": null, "beta_initializer": {"class_name": "Zeros", "config": {}}, "beta_regularizer": null, "center": true, "epsilon": 0.001, "gamma_constraint": null, "gamma_initializer": {"class_name": "Ones", "config": {}}, "gamma_regularizer": null, "momentum": 0.99, "moving_mean_initializer": {"class_name": "Zeros", "config": {}}, "moving_variance_initializer": {"class_name": "Ones", "config": {}}, "name": "batch_normalization_185", "scale": false, "trainable": [{"args": ["b1", 0, 1], "state": [3, "|", null, null, null, -1, -1, 0]}, "AA==\n"]}, "inbound_nodes": [[["conv2d_187", 0, 0, {}]]], "name": "batch_normalization_185"}, {"class_name": "Activation", "config": {"activation": "relu", "name": "activation_185", "trainable": [{"args": ["b1", 0, 1], "state": [3, "|", null, null, null, -1, -1, 0]}, "AA==\n"]}, "inbound_nodes": [[["batch_normalization_185", 0, 0, {}]]], "name": "activation_185"}, {"class_name": "Conv2D", "config": {"activation": "linear", "activity_regularizer": null, "bias_constraint": null, "bias_initializer": {"class_name": "Zeros", "config": {}}, "bias_regularizer": null, "data_format": "channels_last", "dilation_rate": [1, 1], "filters": 224, "kernel_constraint": null, "kernel_initializer": {"class_name": "VarianceScaling", "config": {"distribution": "uniform", "mode": "fan_avg", "scale": 1.0, "seed": null}}, "kernel_regularizer": null, "kernel_size": [1, 3], "name": "conv2d_188", "padding": "same", "strides": [1, 1], "trainable": [{"args": ["b1", 0, 1], "state": [3, "|", null, null, null, -1, -1, 0]}, "AA==\n"], "use_bias": false}, "inbound_nodes": [[["activation_185", 0, 0, {}]]], "name": "conv2d_188"}, {"class_name": "BatchNormalization", "config": {"axis": 3, "beta_constraint": null, "beta_initializer": {"class_name": "Zeros", "config": {}}, "beta_regularizer": null, "center": true, "epsilon": 0.001, "gamma_constraint": null, "gamma_initializer": {"class_name": "Ones", "config": {}}, "gamma_regularizer": null, "momentum": 0.99, "moving_mean_initializer": {"class_name": "Zeros", "config": {}}, "moving_variance_initializer": {"class_name": "Ones", "config": {}}, "name": "batch_normalization_186", "scale": false, "trainable": [{"args": ["b1", 0, 1], "state": [3, "|", null, null, null, -1, -1, 0]}, "AA==\n"]}, "inbound_nodes": [[["conv2d_188", 0, 0, {}]]], "name": "batch_normalization_186"}, {"class_name": "Activation", "config": {"activation": "relu", "name": "activation_186", "trainable": [{"args": ["b1", 0, 1], "state": [3, "|", null, null, null, -1, -1, 0]}, "AA==\n"]}, "inbound_nodes": [[["batch_normalization_186", 0, 0, {}]]], "name": "activation_186"}, {"class_name": "Conv2D", "config": {"activation": "linear", "activity_regularizer": null, "bias_constraint": null, "bias_initializer": {"class_name": "Zeros", "config": {}}, "bias_regularizer": null, "data_format": "channels_last", "dilation_rate": [1, 1], "filters": 192, "kernel_constraint": null, "kernel_initializer": {"class_name": "VarianceScaling", "config": {"distribution": "uniform", "mode": "fan_avg", "scale": 1.0, "seed": null}}, "kernel_regularizer": null, "kernel_size": [1, 1], "name": "conv2d_186", "padding": "same", "strides": [1, 1], "trainable": [{"args": ["b1", 0, 1], "state": [3, "|", null, null, null, -1, -1, 0]}, "AA==\n"], "use_bias": false}, "inbound_nodes": [[["block8_5_ac", 0, 0, {}]]], "name": "conv2d_186"}, {"class_name": "Conv2D", "config": {"activation": "linear", "activity_regularizer": null, "bias_constraint": null, "bias_initializer": {"class_name": "Zeros", "config": {}}, "bias_regularizer": null, "data_format": "channels_last", "dilation_rate": [1, 1], "filters": 256, "kernel_constraint": null, "kernel_initializer": {"class_name": "VarianceScaling", "config": {"distribution": "uniform", "mode": "fan_avg", "scale": 1.0, "seed": null}}, "kernel_regularizer": null, "kernel_size": [3, 1], "name": "conv2d_189", "padding": "same", "strides": [1, 1], "trainable": [{"args": ["b1", 0, 1], "state": [3, "|", null, null, null, -1, -1, 0]}, "AA==\n"], "use_bias": false}, "inbound_nodes": [[["activation_186", 0, 0, {}]]], "name": "conv2d_189"}, {"class_name": "BatchNormalization", "config": {"axis": 3, "beta_constraint": null, "beta_initializer": {"class_name": "Zeros", "config": {}}, "beta_regularizer": null, "center": true, "epsilon": 0.001, "gamma_constraint": null, "gamma_initializer": {"class_name": "Ones", "config": {}}, "gamma_regularizer": null, "momentum": 0.99, "moving_mean_initializer": {"class_name": "Zeros", "config": {}}, "moving_variance_initializer": {"class_name": "Ones", "config": {}}, "name": "batch_normalization_184", "scale": false, "trainable": [{"args": ["b1", 0, 1], "state": [3, "|", null, null, null, -1, -1, 0]}, "AA==\n"]}, "inbound_nodes": [[["conv2d_186", 0, 0, {}]]], "name": "batch_normalization_184"}, {"class_name": "BatchNormalization", "config": {"axis": 3, "beta_constraint": null, "beta_initializer": {"class_name": "Zeros", "config": {}}, "beta_regularizer": null, "center": true, "epsilon": 0.001, "gamma_constraint": null, "gamma_initializer": {"class_name": "Ones", "config": {}}, "gamma_regularizer": null, "momentum": 0.99, "moving_mean_initializer": {"class_name": "Zeros", "config": {}}, "moving_variance_initializer": {"class_name": "Ones", "config": {}}, "name": "batch_normalization_187", "scale": false, "trainable": [{"args": ["b1", 0, 1], "state": [3, "|", null, null, null, -1, -1, 0]}, "AA==\n"]}, "inbound_nodes": [[["conv2d_189", 0, 0, {}]]], "name": "batch_normalization_187"}, {"class_name": "Activation", "config": {"activation": "relu", "name": "activation_184", "trainable": [{"args": ["b1", 0, 1], "state": [3, "|", null, null, null, -1, -1, 0]}, "AA==\n"]}, "inbound_nodes": [[["batch_normalization_184", 0, 0, {}]]], "name": "activation_184"}, {"class_name": "Activation", "config": {"activation": "relu", "name": "activation_187", "trainable": [{"args": ["b1", 0, 1], "state": [3, "|", null, null, null, -1, -1, 0]}, "AA==\n"]}, "inbound_nodes": [[["batch_normalization_187", 0, 0, {}]]], "name": "activation_187"}, {"class_name": "Concatenate", "config": {"axis": 3, "name": "block8_6_mixed", "trainable": [{"args": ["b1", 0, 1], "state": [3, "|", null, null, null, -1, -1, 0]}, "AA==\n"]}, "inbound_nodes": [[["activation_184", 0, 0, {}], ["activation_187", 0, 0, {}]]], "name": "block8_6_mixed"}, {"class_name": "Conv2D", "config": {"activation": "linear", "activity_regularizer": null, "bias_constraint": null, "bias_initializer": {"class_name": "Zeros", "config": {}}, "bias_regularizer": null, "data_format": "channels_last", "dilation_rate": [1, 1], "filters": 2080, "kernel_constraint": null, "kernel_initializer": {"class_name": "VarianceScaling", "config": {"distribution": "uniform", "mode": "fan_avg", "scale": 1.0, "seed": null}}, "kernel_regularizer": null, "kernel_size": [1, 1], "name": "block8_6_conv", "padding": "same", "strides": [1, 1], "trainable": [{"args": ["b1", 0, 1], "state": [3, "|", null, null, null, -1, -1, 0]}, "AA==\n"], "use_bias": true}, "inbound_nodes": [[["block8_6_mixed", 0, 0, {}]]], "name": "block8_6_conv"}, {"class_name": "Lambda", "config": {"arguments": {"scale": 0.2}, "function": ["4wIAAAAAAAAAAgAAAAMAAABTAAAAcxQAAAB8AGQBGQB8AGQCGQB8ARQAFwBTACkDTukAAAAA6QEA\nAACpACkC2gZpbnB1dHPaBXNjYWxlcgMAAAByAwAAAPpyL29wdC9wYWNrYWdlcy9BSS9hbmFjb25k\nYTMtNS4xLjBfZ3B1LjIwMTgtMDgvbGliL3B5dGhvbjMuNi9zaXRlLXBhY2thZ2VzL2tlcmFzX2Fw\ncGxpY2F0aW9ucy9pbmNlcHRpb25fcmVzbmV0X3YyLnB52gg8bGFtYmRhPqoAAADzAAAAAA==\n", null, null], "function_type": "lambda", "name": "block8_6", "output_shape": [null, null, 2080], "output_shape_type": "raw", "trainable": [{"args": ["b1", 0, 1], "state": [3, "|", null, null, null, -1, -1, 0]}, "AA==\n"]}, "inbound_nodes": [[["block8_5_ac", 0, 0, {}], ["block8_6_conv", 0, 0, {}]]], "name": "block8_6"}, {"class_name": "Activation", "config": {"activation": "relu", "name": "block8_6_ac", "trainable": [{"args": ["b1", 0, 1], "state": [3, "|", null, null, null, -1, -1, 0]}, "AA==\n"]}, "inbound_nodes": [[["block8_6", 0, 0, {}]]], "name": "block8_6_ac"}, {"class_name": "Conv2D", "config": {"activation": "linear", "activity_regularizer": null, "bias_constraint": null, "bias_initializer": {"class_name": "Zeros", "config": {}}, "bias_regularizer": null, "data_format": "channels_last", "dilation_rate": [1, 1], "filters": 192, "kernel_constraint": null, "kernel_initializer": {"class_name": "VarianceScaling", "config": {"distribution": "uniform", "mode": "fan_avg", "scale": 1.0, "seed": null}}, "kernel_regularizer": null, "kernel_size": [1, 1], "name": "conv2d_191", "padding": "same", "strides": [1, 1], "trainable": [{"args": ["b1", 0, 1], "state": [3, "|", null, null, null, -1, -1, 0]}, "AA==\n"], "use_bias": false}, "inbound_nodes": [[["block8_6_ac", 0, 0, {}]]], "name": "conv2d_191"}, {"class_name": "BatchNormalization", "config": {"axis": 3, "beta_constraint": null, "beta_initializer": {"class_name": "Zeros", "config": {}}, "beta_regularizer": null, "center": true, "epsilon": 0.001, "gamma_constraint": null, "gamma_initializer": {"class_name": "Ones", "config": {}}, "gamma_regularizer": null, "momentum": 0.99, "moving_mean_initializer": {"class_name": "Zeros", "config": {}}, "moving_variance_initializer": {"class_name": "Ones", "config": {}}, "name": "batch_normalization_189", "scale": false, "trainable": [{"args": ["b1", 0, 1], "state": [3, "|", null, null, null, -1, -1, 0]}, "AA==\n"]}, "inbound_nodes": [[["conv2d_191", 0, 0, {}]]], "name": "batch_normalization_189"}, {"class_name": "Activation", "config": {"activation": "relu", "name": "activation_189", "trainable": [{"args": ["b1", 0, 1], "state": [3, "|", null, null, null, -1, -1, 0]}, "AA==\n"]}, "inbound_nodes": [[["batch_normalization_189", 0, 0, {}]]], "name": "activation_189"}, {"class_name": "Conv2D", "config": {"activation": "linear", "activity_regularizer": null, "bias_constraint": null, "bias_initializer": {"class_name": "Zeros", "config": {}}, "bias_regularizer": null, "data_format": "channels_last", "dilation_rate": [1, 1], "filters": 224, "kernel_constraint": null, "kernel_initializer": {"class_name": "VarianceScaling", "config": {"distribution": "uniform", "mode": "fan_avg", "scale": 1.0, "seed": null}}, "kernel_regularizer": null, "kernel_size": [1, 3], "name": "conv2d_192", "padding": "same", "strides": [1, 1], "trainable": [{"args": ["b1", 0, 1], "state": [3, "|", null, null, null, -1, -1, 0]}, "AA==\n"], "use_bias": false}, "inbound_nodes": [[["activation_189", 0, 0, {}]]], "name": "conv2d_192"}, {"class_name": "BatchNormalization", "config": {"axis": 3, "beta_constraint": null, "beta_initializer": {"class_name": "Zeros", "config": {}}, "beta_regularizer": null, "center": true, "epsilon": 0.001, "gamma_constraint": null, "gamma_initializer": {"class_name": "Ones", "config": {}}, "gamma_regularizer": null, "momentum": 0.99, "moving_mean_initializer": {"class_name": "Zeros", "config": {}}, "moving_variance_initializer": {"class_name": "Ones", "config": {}}, "name": "batch_normalization_190", "scale": false, "trainable": [{"args": ["b1", 0, 1], "state": [3, "|", null, null, null, -1, -1, 0]}, "AA==\n"]}, "inbound_nodes": [[["conv2d_192", 0, 0, {}]]], "name": "batch_normalization_190"}, {"class_name": "Activation", "config": {"activation": "relu", "name": "activation_190", "trainable": [{"args": ["b1", 0, 1], "state": [3, "|", null, null, null, -1, -1, 0]}, "AA==\n"]}, "inbound_nodes": [[["batch_normalization_190", 0, 0, {}]]], "name": "activation_190"}, {"class_name": "Conv2D", "config": {"activation": "linear", "activity_regularizer": null, "bias_constraint": null, "bias_initializer": {"class_name": "Zeros", "config": {}}, "bias_regularizer": null, "data_format": "channels_last", "dilation_rate": [1, 1], "filters": 192, "kernel_constraint": null, "kernel_initializer": {"class_name": "VarianceScaling", "config": {"distribution": "uniform", "mode": "fan_avg", "scale": 1.0, "seed": null}}, "kernel_regularizer": null, "kernel_size": [1, 1], "name": "conv2d_190", "padding": "same", "strides": [1, 1], "trainable": [{"args": ["b1", 0, 1], "state": [3, "|", null, null, null, -1, -1, 0]}, "AA==\n"], "use_bias": false}, "inbound_nodes": [[["block8_6_ac", 0, 0, {}]]], "name": "conv2d_190"}, {"class_name": "Conv2D", "config": {"activation": "linear", "activity_regularizer": null, "bias_constraint": null, "bias_initializer": {"class_name": "Zeros", "config": {}}, "bias_regularizer": null, "data_format": "channels_last", "dilation_rate": [1, 1], "filters": 256, "kernel_constraint": null, "kernel_initializer": {"class_name": "VarianceScaling", "config": {"distribution": "uniform", "mode": "fan_avg", "scale": 1.0, "seed": null}}, "kernel_regularizer": null, "kernel_size": [3, 1], "name": "conv2d_193", "padding": "same", "strides": [1, 1], "trainable": [{"args": ["b1", 0, 1], "state": [3, "|", null, null, null, -1, -1, 0]}, "AA==\n"], "use_bias": false}, "inbound_nodes": [[["activation_190", 0, 0, {}]]], "name": "conv2d_193"}, {"class_name": "BatchNormalization", "config": {"axis": 3, "beta_constraint": null, "beta_initializer": {"class_name": "Zeros", "config": {}}, "beta_regularizer": null, "center": true, "epsilon": 0.001, "gamma_constraint": null, "gamma_initializer": {"class_name": "Ones", "config": {}}, "gamma_regularizer": null, "momentum": 0.99, "moving_mean_initializer": {"class_name": "Zeros", "config": {}}, "moving_variance_initializer": {"class_name": "Ones", "config": {}}, "name": "batch_normalization_188", "scale": false, "trainable": [{"args": ["b1", 0, 1], "state": [3, "|", null, null, null, -1, -1, 0]}, "AA==\n"]}, "inbound_nodes": [[["conv2d_190", 0, 0, {}]]], "name": "batch_normalization_188"}, {"class_name": "BatchNormalization", "config": {"axis": 3, "beta_constraint": null, "beta_initializer": {"class_name": "Zeros", "config": {}}, "beta_regularizer": null, "center": true, "epsilon": 0.001, "gamma_constraint": null, "gamma_initializer": {"class_name": "Ones", "config": {}}, "gamma_regularizer": null, "momentum": 0.99, "moving_mean_initializer": {"class_name": "Zeros", "config": {}}, "moving_variance_initializer": {"class_name": "Ones", "config": {}}, "name": "batch_normalization_191", "scale": false, "trainable": [{"args": ["b1", 0, 1], "state": [3, "|", null, null, null, -1, -1, 0]}, "AA==\n"]}, "inbound_nodes": [[["conv2d_193", 0, 0, {}]]], "name": "batch_normalization_191"}, {"class_name": "Activation", "config": {"activation": "relu", "name": "activation_188", "trainable": [{"args": ["b1", 0, 1], "state": [3, "|", null, null, null, -1, -1, 0]}, "AA==\n"]}, "inbound_nodes": [[["batch_normalization_188", 0, 0, {}]]], "name": "activation_188"}, {"class_name": "Activation", "config": {"activation": "relu", "name": "activation_191", "trainable": [{"args": ["b1", 0, 1], "state": [3, "|", null, null, null, -1, -1, 0]}, "AA==\n"]}, "inbound_nodes": [[["batch_normalization_191", 0, 0, {}]]], "name": "activation_191"}, {"class_name": "Concatenate", "config": {"axis": 3, "name": "block8_7_mixed", "trainable": [{"args": ["b1", 0, 1], "state": [3, "|", null, null, null, -1, -1, 0]}, "AA==\n"]}, "inbound_nodes": [[["activation_188", 0, 0, {}], ["activation_191", 0, 0, {}]]], "name": "block8_7_mixed"}, {"class_name": "Conv2D", "config": {"activation": "linear", "activity_regularizer": null, "bias_constraint": null, "bias_initializer": {"class_name": "Zeros", "config": {}}, "bias_regularizer": null, "data_format": "channels_last", "dilation_rate": [1, 1], "filters": 2080, "kernel_constraint": null, "kernel_initializer": {"class_name": "VarianceScaling", "config": {"distribution": "uniform", "mode": "fan_avg", "scale": 1.0, "seed": null}}, "kernel_regularizer": null, "kernel_size": [1, 1], "name": "block8_7_conv", "padding": "same", "strides": [1, 1], "trainable": [{"args": ["b1", 0, 1], "state": [3, "|", null, null, null, -1, -1, 0]}, "AA==\n"], "use_bias": true}, "inbound_nodes": [[["block8_7_mixed", 0, 0, {}]]], "name": "block8_7_conv"}, {"class_name": "Lambda", "config": {"arguments": {"scale": 0.2}, "function": ["4wIAAAAAAAAAAgAAAAMAAABTAAAAcxQAAAB8AGQBGQB8AGQCGQB8ARQAFwBTACkDTukAAAAA6QEA\nAACpACkC2gZpbnB1dHPaBXNjYWxlcgMAAAByAwAAAPpyL29wdC9wYWNrYWdlcy9BSS9hbmFjb25k\nYTMtNS4xLjBfZ3B1LjIwMTgtMDgvbGliL3B5dGhvbjMuNi9zaXRlLXBhY2thZ2VzL2tlcmFzX2Fw\ncGxpY2F0aW9ucy9pbmNlcHRpb25fcmVzbmV0X3YyLnB52gg8bGFtYmRhPqoAAADzAAAAAA==\n", null, null], "function_type": "lambda", "name": "block8_7", "output_shape": [null, null, 2080], "output_shape_type": "raw", "trainable": [{"args": ["b1", 0, 1], "state": [3, "|", null, null, null, -1, -1, 0]}, "AA==\n"]}, "inbound_nodes": [[["block8_6_ac", 0, 0, {}], ["block8_7_conv", 0, 0, {}]]], "name": "block8_7"}, {"class_name": "Activation", "config": {"activation": "relu", "name": "block8_7_ac", "trainable": [{"args": ["b1", 0, 1], "state": [3, "|", null, null, null, -1, -1, 0]}, "AA==\n"]}, "inbound_nodes": [[["block8_7", 0, 0, {}]]], "name": "block8_7_ac"}, {"class_name": "Conv2D", "config": {"activation": "linear", "activity_regularizer": null, "bias_constraint": null, "bias_initializer": {"class_name": "Zeros", "config": {}}, "bias_regularizer": null, "data_format": "channels_last", "dilation_rate": [1, 1], "filters": 192, "kernel_constraint": null, "kernel_initializer": {"class_name": "VarianceScaling", "config": {"distribution": "uniform", "mode": "fan_avg", "scale": 1.0, "seed": null}}, "kernel_regularizer": null, "kernel_size": [1, 1], "name": "conv2d_195", "padding": "same", "strides": [1, 1], "trainable": [{"args": ["b1", 0, 1], "state": [3, "|", null, null, null, -1, -1, 0]}, "AA==\n"], "use_bias": false}, "inbound_nodes": [[["block8_7_ac", 0, 0, {}]]], "name": "conv2d_195"}, {"class_name": "BatchNormalization", "config": {"axis": 3, "beta_constraint": null, "beta_initializer": {"class_name": "Zeros", "config": {}}, "beta_regularizer": null, "center": true, "epsilon": 0.001, "gamma_constraint": null, "gamma_initializer": {"class_name": "Ones", "config": {}}, "gamma_regularizer": null, "momentum": 0.99, "moving_mean_initializer": {"class_name": "Zeros", "config": {}}, "moving_variance_initializer": {"class_name": "Ones", "config": {}}, "name": "batch_normalization_193", "scale": false, "trainable": [{"args": ["b1", 0, 1], "state": [3, "|", null, null, null, -1, -1, 0]}, "AA==\n"]}, "inbound_nodes": [[["conv2d_195", 0, 0, {}]]], "name": "batch_normalization_193"}, {"class_name": "Activation", "config": {"activation": "relu", "name": "activation_193", "trainable": [{"args": ["b1", 0, 1], "state": [3, "|", null, null, null, -1, -1, 0]}, "AA==\n"]}, "inbound_nodes": [[["batch_normalization_193", 0, 0, {}]]], "name": "activation_193"}, {"class_name": "Conv2D", "config": {"activation": "linear", "activity_regularizer": null, "bias_constraint": null, "bias_initializer": {"class_name": "Zeros", "config": {}}, "bias_regularizer": null, "data_format": "channels_last", "dilation_rate": [1, 1], "filters": 224, "kernel_constraint": null, "kernel_initializer": {"class_name": "VarianceScaling", "config": {"distribution": "uniform", "mode": "fan_avg", "scale": 1.0, "seed": null}}, "kernel_regularizer": null, "kernel_size": [1, 3], "name": "conv2d_196", "padding": "same", "strides": [1, 1], "trainable": [{"args": ["b1", 0, 1], "state": [3, "|", null, null, null, -1, -1, 0]}, "AA==\n"], "use_bias": false}, "inbound_nodes": [[["activation_193", 0, 0, {}]]], "name": "conv2d_196"}, {"class_name": "BatchNormalization", "config": {"axis": 3, "beta_constraint": null, "beta_initializer": {"class_name": "Zeros", "config": {}}, "beta_regularizer": null, "center": true, "epsilon": 0.001, "gamma_constraint": null, "gamma_initializer": {"class_name": "Ones", "config": {}}, "gamma_regularizer": null, "momentum": 0.99, "moving_mean_initializer": {"class_name": "Zeros", "config": {}}, "moving_variance_initializer": {"class_name": "Ones", "config": {}}, "name": "batch_normalization_194", "scale": false, "trainable": [{"args": ["b1", 0, 1], "state": [3, "|", null, null, null, -1, -1, 0]}, "AA==\n"]}, "inbound_nodes": [[["conv2d_196", 0, 0, {}]]], "name": "batch_normalization_194"}, {"class_name": "Activation", "config": {"activation": "relu", "name": "activation_194", "trainable": [{"args": ["b1", 0, 1], "state": [3, "|", null, null, null, -1, -1, 0]}, "AA==\n"]}, "inbound_nodes": [[["batch_normalization_194", 0, 0, {}]]], "name": "activation_194"}, {"class_name": "Conv2D", "config": {"activation": "linear", "activity_regularizer": null, "bias_constraint": null, "bias_initializer": {"class_name": "Zeros", "config": {}}, "bias_regularizer": null, "data_format": "channels_last", "dilation_rate": [1, 1], "filters": 192, "kernel_constraint": null, "kernel_initializer": {"class_name": "VarianceScaling", "config": {"distribution": "uniform", "mode": "fan_avg", "scale": 1.0, "seed": null}}, "kernel_regularizer": null, "kernel_size": [1, 1], "name": "conv2d_194", "padding": "same", "strides": [1, 1], "trainable": [{"args": ["b1", 0, 1], "state": [3, "|", null, null, null, -1, -1, 0]}, "AA==\n"], "use_bias": false}, "inbound_nodes": [[["block8_7_ac", 0, 0, {}]]], "name": "conv2d_194"}, {"class_name": "Conv2D", "config": {"activation": "linear", "activity_regularizer": null, "bias_constraint": null, "bias_initializer": {"class_name": "Zeros", "config": {}}, "bias_regularizer": null, "data_format": "channels_last", "dilation_rate": [1, 1], "filters": 256, "kernel_constraint": null, "kernel_initializer": {"class_name": "VarianceScaling", "config": {"distribution": "uniform", "mode": "fan_avg", "scale": 1.0, "seed": null}}, "kernel_regularizer": null, "kernel_size": [3, 1], "name": "conv2d_197", "padding": "same", "strides": [1, 1], "trainable": [{"args": ["b1", 0, 1], "state": [3, "|", null, null, null, -1, -1, 0]}, "AA==\n"], "use_bias": false}, "inbound_nodes": [[["activation_194", 0, 0, {}]]], "name": "conv2d_197"}, {"class_name": "BatchNormalization", "config": {"axis": 3, "beta_constraint": null, "beta_initializer": {"class_name": "Zeros", "config": {}}, "beta_regularizer": null, "center": true, "epsilon": 0.001, "gamma_constraint": null, "gamma_initializer": {"class_name": "Ones", "config": {}}, "gamma_regularizer": null, "momentum": 0.99, "moving_mean_initializer": {"class_name": "Zeros", "config": {}}, "moving_variance_initializer": {"class_name": "Ones", "config": {}}, "name": "batch_normalization_192", "scale": false, "trainable": [{"args": ["b1", 0, 1], "state": [3, "|", null, null, null, -1, -1, 0]}, "AA==\n"]}, "inbound_nodes": [[["conv2d_194", 0, 0, {}]]], "name": "batch_normalization_192"}, {"class_name": "BatchNormalization", "config": {"axis": 3, "beta_constraint": null, "beta_initializer": {"class_name": "Zeros", "config": {}}, "beta_regularizer": null, "center": true, "epsilon": 0.001, "gamma_constraint": null, "gamma_initializer": {"class_name": "Ones", "config": {}}, "gamma_regularizer": null, "momentum": 0.99, "moving_mean_initializer": {"class_name": "Zeros", "config": {}}, "moving_variance_initializer": {"class_name": "Ones", "config": {}}, "name": "batch_normalization_195", "scale": false, "trainable": [{"args": ["b1", 0, 1], "state": [3, "|", null, null, null, -1, -1, 0]}, "AA==\n"]}, "inbound_nodes": [[["conv2d_197", 0, 0, {}]]], "name": "batch_normalization_195"}, {"class_name": "Activation", "config": {"activation": "relu", "name": "activation_192", "trainable": [{"args": ["b1", 0, 1], "state": [3, "|", null, null, null, -1, -1, 0]}, "AA==\n"]}, "inbound_nodes": [[["batch_normalization_192", 0, 0, {}]]], "name": "activation_192"}, {"class_name": "Activation", "config": {"activation": "relu", "name": "activation_195", "trainable": [{"args": ["b1", 0, 1], "state": [3, "|", null, null, null, -1, -1, 0]}, "AA==\n"]}, "inbound_nodes": [[["batch_normalization_195", 0, 0, {}]]], "name": "activation_195"}, {"class_name": "Concatenate", "config": {"axis": 3, "name": "block8_8_mixed", "trainable": [{"args": ["b1", 0, 1], "state": [3, "|", null, null, null, -1, -1, 0]}, "AA==\n"]}, "inbound_nodes": [[["activation_192", 0, 0, {}], ["activation_195", 0, 0, {}]]], "name": "block8_8_mixed"}, {"class_name": "Conv2D", "config": {"activation": "linear", "activity_regularizer": null, "bias_constraint": null, "bias_initializer": {"class_name": "Zeros", "config": {}}, "bias_regularizer": null, "data_format": "channels_last", "dilation_rate": [1, 1], "filters": 2080, "kernel_constraint": null, "kernel_initializer": {"class_name": "VarianceScaling", "config": {"distribution": "uniform", "mode": "fan_avg", "scale": 1.0, "seed": null}}, "kernel_regularizer": null, "kernel_size": [1, 1], "name": "block8_8_conv", "padding": "same", "strides": [1, 1], "trainable": [{"args": ["b1", 0, 1], "state": [3, "|", null, null, null, -1, -1, 0]}, "AA==\n"], "use_bias": true}, "inbound_nodes": [[["block8_8_mixed", 0, 0, {}]]], "name": "block8_8_conv"}, {"class_name": "Lambda", "config": {"arguments": {"scale": 0.2}, "function": ["4wIAAAAAAAAAAgAAAAMAAABTAAAAcxQAAAB8AGQBGQB8AGQCGQB8ARQAFwBTACkDTukAAAAA6QEA\nAACpACkC2gZpbnB1dHPaBXNjYWxlcgMAAAByAwAAAPpyL29wdC9wYWNrYWdlcy9BSS9hbmFjb25k\nYTMtNS4xLjBfZ3B1LjIwMTgtMDgvbGliL3B5dGhvbjMuNi9zaXRlLXBhY2thZ2VzL2tlcmFzX2Fw\ncGxpY2F0aW9ucy9pbmNlcHRpb25fcmVzbmV0X3YyLnB52gg8bGFtYmRhPqoAAADzAAAAAA==\n", null, null], "function_type": "lambda", "name": "block8_8", "output_shape": [null, null, 2080], "output_shape_type": "raw", "trainable": [{"args": ["b1", 0, 1], "state": [3, "|", null, null, null, -1, -1, 0]}, "AA==\n"]}, "inbound_nodes": [[["block8_7_ac", 0, 0, {}], ["block8_8_conv", 0, 0, {}]]], "name": "block8_8"}, {"class_name": "Activation", "config": {"activation": "relu", "name": "block8_8_ac", "trainable": [{"args": ["b1", 0, 1], "state": [3, "|", null, null, null, -1, -1, 0]}, "AA==\n"]}, "inbound_nodes": [[["block8_8", 0, 0, {}]]], "name": "block8_8_ac"}, {"class_name": "Conv2D", "config": {"activation": "linear", "activity_regularizer": null, "bias_constraint": null, "bias_initializer": {"class_name": "Zeros", "config": {}}, "bias_regularizer": null, "data_format": "channels_last", "dilation_rate": [1, 1], "filters": 192, "kernel_constraint": null, "kernel_initializer": {"class_name": "VarianceScaling", "config": {"distribution": "uniform", "mode": "fan_avg", "scale": 1.0, "seed": null}}, "kernel_regularizer": null, "kernel_size": [1, 1], "name": "conv2d_199", "padding": "same", "strides": [1, 1], "trainable": [{"args": ["b1", 0, 1], "state": [3, "|", null, null, null, -1, -1, 0]}, "AQ==\n"], "use_bias": false}, "inbound_nodes": [[["block8_8_ac", 0, 0, {}]]], "name": "conv2d_199"}, {"class_name": "BatchNormalization", "config": {"axis": 3, "beta_constraint": null, "beta_initializer": {"class_name": "Zeros", "config": {}}, "beta_regularizer": null, "center": true, "epsilon": 0.001, "gamma_constraint": null, "gamma_initializer": {"class_name": "Ones", "config": {}}, "gamma_regularizer": null, "momentum": 0.99, "moving_mean_initializer": {"class_name": "Zeros", "config": {}}, "moving_variance_initializer": {"class_name": "Ones", "config": {}}, "name": "batch_normalization_197", "scale": false, "trainable": [{"args": ["b1", 0, 1], "state": [3, "|", null, null, null, -1, -1, 0]}, "AQ==\n"]}, "inbound_nodes": [[["conv2d_199", 0, 0, {}]]], "name": "batch_normalization_197"}, {"class_name": "Activation", "config": {"activation": "relu", "name": "activation_197", "trainable": [{"args": ["b1", 0, 1], "state": [3, "|", null, null, null, -1, -1, 0]}, "AA==\n"]}, "inbound_nodes": [[["batch_normalization_197", 0, 0, {}]]], "name": "activation_197"}, {"class_name": "Conv2D", "config": {"activation": "linear", "activity_regularizer": null, "bias_constraint": null, "bias_initializer": {"class_name": "Zeros", "config": {}}, "bias_regularizer": null, "data_format": "channels_last", "dilation_rate": [1, 1], "filters": 224, "kernel_constraint": null, "kernel_initializer": {"class_name": "VarianceScaling", "config": {"distribution": "uniform", "mode": "fan_avg", "scale": 1.0, "seed": null}}, "kernel_regularizer": null, "kernel_size": [1, 3], "name": "conv2d_200", "padding": "same", "strides": [1, 1], "trainable": [{"args": ["b1", 0, 1], "state": [3, "|", null, null, null, -1, -1, 0]}, "AQ==\n"], "use_bias": false}, "inbound_nodes": [[["activation_197", 0, 0, {}]]], "name": "conv2d_200"}, {"class_name": "BatchNormalization", "config": {"axis": 3, "beta_constraint": null, "beta_initializer": {"class_name": "Zeros", "config": {}}, "beta_regularizer": null, "center": true, "epsilon": 0.001, "gamma_constraint": null, "gamma_initializer": {"class_name": "Ones", "config": {}}, "gamma_regularizer": null, "momentum": 0.99, "moving_mean_initializer": {"class_name": "Zeros", "config": {}}, "moving_variance_initializer": {"class_name": "Ones", "config": {}}, "name": "batch_normalization_198", "scale": false, "trainable": [{"args": ["b1", 0, 1], "state": [3, "|", null, null, null, -1, -1, 0]}, "AQ==\n"]}, "inbound_nodes": [[["conv2d_200", 0, 0, {}]]], "name": "batch_normalization_198"}, {"class_name": "Activation", "config": {"activation": "relu", "name": "activation_198", "trainable": [{"args": ["b1", 0, 1], "state": [3, "|", null, null, null, -1, -1, 0]}, "AA==\n"]}, "inbound_nodes": [[["batch_normalization_198", 0, 0, {}]]], "name": "activation_198"}, {"class_name": "Conv2D", "config": {"activation": "linear", "activity_regularizer": null, "bias_constraint": null, "bias_initializer": {"class_name": "Zeros", "config": {}}, "bias_regularizer": null, "data_format": "channels_last", "dilation_rate": [1, 1], "filters": 192, "kernel_constraint": null, "kernel_initializer": {"class_name": "VarianceScaling", "config": {"distribution": "uniform", "mode": "fan_avg", "scale": 1.0, "seed": null}}, "kernel_regularizer": null, "kernel_size": [1, 1], "name": "conv2d_198", "padding": "same", "strides": [1, 1], "trainable": [{"args": ["b1", 0, 1], "state": [3, "|", null, null, null, -1, -1, 0]}, "AQ==\n"], "use_bias": false}, "inbound_nodes": [[["block8_8_ac", 0, 0, {}]]], "name": "conv2d_198"}, {"class_name": "Conv2D", "config": {"activation": "linear", "activity_regularizer": null, "bias_constraint": null, "bias_initializer": {"class_name": "Zeros", "config": {}}, "bias_regularizer": null, "data_format": "channels_last", "dilation_rate": [1, 1], "filters": 256, "kernel_constraint": null, "kernel_initializer": {"class_name": "VarianceScaling", "config": {"distribution": "uniform", "mode": "fan_avg", "scale": 1.0, "seed": null}}, "kernel_regularizer": null, "kernel_size": [3, 1], "name": "conv2d_201", "padding": "same", "strides": [1, 1], "trainable": [{"args": ["b1", 0, 1], "state": [3, "|", null, null, null, -1, -1, 0]}, "AQ==\n"], "use_bias": false}, "inbound_nodes": [[["activation_198", 0, 0, {}]]], "name": "conv2d_201"}, {"class_name": "BatchNormalization", "config": {"axis": 3, "beta_constraint": null, "beta_initializer": {"class_name": "Zeros", "config": {}}, "beta_regularizer": null, "center": true, "epsilon": 0.001, "gamma_constraint": null, "gamma_initializer": {"class_name": "Ones", "config": {}}, "gamma_regularizer": null, "momentum": 0.99, "moving_mean_initializer": {"class_name": "Zeros", "config": {}}, "moving_variance_initializer": {"class_name": "Ones", "config": {}}, "name": "batch_normalization_196", "scale": false, "trainable": [{"args": ["b1", 0, 1], "state": [3, "|", null, null, null, -1, -1, 0]}, "AQ==\n"]}, "inbound_nodes": [[["conv2d_198", 0, 0, {}]]], "name": "batch_normalization_196"}, {"class_name": "BatchNormalization", "config": {"axis": 3, "beta_constraint": null, "beta_initializer": {"class_name": "Zeros", "config": {}}, "beta_regularizer": null, "center": true, "epsilon": 0.001, "gamma_constraint": null, "gamma_initializer": {"class_name": "Ones", "config": {}}, "gamma_regularizer": null, "momentum": 0.99, "moving_mean_initializer": {"class_name": "Zeros", "config": {}}, "moving_variance_initializer": {"class_name": "Ones", "config": {}}, "name": "batch_normalization_199", "scale": false, "trainable": [{"args": ["b1", 0, 1], "state": [3, "|", null, null, null, -1, -1, 0]}, "AQ==\n"]}, "inbound_nodes": [[["conv2d_201", 0, 0, {}]]], "name": "batch_normalization_199"}, {"class_name": "Activation", "config": {"activation": "relu", "name": "activation_196", "trainable": [{"args": ["b1", 0, 1], "state": [3, "|", null, null, null, -1, -1, 0]}, "AA==\n"]}, "inbound_nodes": [[["batch_normalization_196", 0, 0, {}]]], "name": "activation_196"}, {"class_name": "Activation", "config": {"activation": "relu", "name": "activation_199", "trainable": [{"args": ["b1", 0, 1], "state": [3, "|", null, null, null, -1, -1, 0]}, "AA==\n"]}, "inbound_nodes": [[["batch_normalization_199", 0, 0, {}]]], "name": "activation_199"}, {"class_name": "Concatenate", "config": {"axis": 3, "name": "block8_9_mixed", "trainable": [{"args": ["b1", 0, 1], "state": [3, "|", null, null, null, -1, -1, 0]}, "AA==\n"]}, "inbound_nodes": [[["activation_196", 0, 0, {}], ["activation_199", 0, 0, {}]]], "name": "block8_9_mixed"}, {"class_name": "Conv2D", "config": {"activation": "linear", "activity_regularizer": null, "bias_constraint": null, "bias_initializer": {"class_name": "Zeros", "config": {}}, "bias_regularizer": null, "data_format": "channels_last", "dilation_rate": [1, 1], "filters": 2080, "kernel_constraint": null, "kernel_initializer": {"class_name": "VarianceScaling", "config": {"distribution": "uniform", "mode": "fan_avg", "scale": 1.0, "seed": null}}, "kernel_regularizer": null, "kernel_size": [1, 1], "name": "block8_9_conv", "padding": "same", "strides": [1, 1], "trainable": [{"args": ["b1", 0, 1], "state": [3, "|", null, null, null, -1, -1, 0]}, "AQ==\n"], "use_bias": true}, "inbound_nodes": [[["block8_9_mixed", 0, 0, {}]]], "name": "block8_9_conv"}, {"class_name": "Lambda", "config": {"arguments": {"scale": 0.2}, "function": ["4wIAAAAAAAAAAgAAAAMAAABTAAAAcxQAAAB8AGQBGQB8AGQCGQB8ARQAFwBTACkDTukAAAAA6QEA\nAACpACkC2gZpbnB1dHPaBXNjYWxlcgMAAAByAwAAAPpyL29wdC9wYWNrYWdlcy9BSS9hbmFjb25k\nYTMtNS4xLjBfZ3B1LjIwMTgtMDgvbGliL3B5dGhvbjMuNi9zaXRlLXBhY2thZ2VzL2tlcmFzX2Fw\ncGxpY2F0aW9ucy9pbmNlcHRpb25fcmVzbmV0X3YyLnB52gg8bGFtYmRhPqoAAADzAAAAAA==\n", null, null], "function_type": "lambda", "name": "block8_9", "output_shape": [null, null, 2080], "output_shape_type": "raw", "trainable": [{"args": ["b1", 0, 1], "state": [3, "|", null, null, null, -1, -1, 0]}, "AA==\n"]}, "inbound_nodes": [[["block8_8_ac", 0, 0, {}], ["block8_9_conv", 0, 0, {}]]], "name": "block8_9"}, {"class_name": "Activation", "config": {"activation": "relu", "name": "block8_9_ac", "trainable": [{"args": ["b1", 0, 1], "state": [3, "|", null, null, null, -1, -1, 0]}, "AA==\n"]}, "inbound_nodes": [[["block8_9", 0, 0, {}]]], "name": "block8_9_ac"}, {"class_name": "Conv2D", "config": {"activation": "linear", "activity_regularizer": null, "bias_constraint": null, "bias_initializer": {"class_name": "Zeros", "config": {}}, "bias_regularizer": null, "data_format": "channels_last", "dilation_rate": [1, 1], "filters": 192, "kernel_constraint": null, "kernel_initializer": {"class_name": "VarianceScaling", "config": {"distribution": "uniform", "mode": "fan_avg", "scale": 1.0, "seed": null}}, "kernel_regularizer": null, "kernel_size": [1, 1], "name": "conv2d_203", "padding": "same", "strides": [1, 1], "trainable": [{"args": ["b1", 0, 1], "state": [3, "|", null, null, null, -1, -1, 0]}, "AQ==\n"], "use_bias": false}, "inbound_nodes": [[["block8_9_ac", 0, 0, {}]]], "name": "conv2d_203"}, {"class_name": "BatchNormalization", "config": {"axis": 3, "beta_constraint": null, "beta_initializer": {"class_name": "Zeros", "config": {}}, "beta_regularizer": null, "center": true, "epsilon": 0.001, "gamma_constraint": null, "gamma_initializer": {"class_name": "Ones", "config": {}}, "gamma_regularizer": null, "momentum": 0.99, "moving_mean_initializer": {"class_name": "Zeros", "config": {}}, "moving_variance_initializer": {"class_name": "Ones", "config": {}}, "name": "batch_normalization_201", "scale": false, "trainable": [{"args": ["b1", 0, 1], "state": [3, "|", null, null, null, -1, -1, 0]}, "AQ==\n"]}, "inbound_nodes": [[["conv2d_203", 0, 0, {}]]], "name": "batch_normalization_201"}, {"class_name": "Activation", "config": {"activation": "relu", "name": "activation_201", "trainable": [{"args": ["b1", 0, 1], "state": [3, "|", null, null, null, -1, -1, 0]}, "AA==\n"]}, "inbound_nodes": [[["batch_normalization_201", 0, 0, {}]]], "name": "activation_201"}, {"class_name": "Conv2D", "config": {"activation": "linear", "activity_regularizer": null, "bias_constraint": null, "bias_initializer": {"class_name": "Zeros", "config": {}}, "bias_regularizer": null, "data_format": "channels_last", "dilation_rate": [1, 1], "filters": 224, "kernel_constraint": null, "kernel_initializer": {"class_name": "VarianceScaling", "config": {"distribution": "uniform", "mode": "fan_avg", "scale": 1.0, "seed": null}}, "kernel_regularizer": null, "kernel_size": [1, 3], "name": "conv2d_204", "padding": "same", "strides": [1, 1], "trainable": [{"args": ["b1", 0, 1], "state": [3, "|", null, null, null, -1, -1, 0]}, "AQ==\n"], "use_bias": false}, "inbound_nodes": [[["activation_201", 0, 0, {}]]], "name": "conv2d_204"}, {"class_name": "BatchNormalization", "config": {"axis": 3, "beta_constraint": null, "beta_initializer": {"class_name": "Zeros", "config": {}}, "beta_regularizer": null, "center": true, "epsilon": 0.001, "gamma_constraint": null, "gamma_initializer": {"class_name": "Ones", "config": {}}, "gamma_regularizer": null, "momentum": 0.99, "moving_mean_initializer": {"class_name": "Zeros", "config": {}}, "moving_variance_initializer": {"class_name": "Ones", "config": {}}, "name": "batch_normalization_202", "scale": false, "trainable": [{"args": ["b1", 0, 1], "state": [3, "|", null, null, null, -1, -1, 0]}, "AQ==\n"]}, "inbound_nodes": [[["conv2d_204", 0, 0, {}]]], "name": "batch_normalization_202"}, {"class_name": "Activation", "config": {"activation": "relu", "name": "activation_202", "trainable": [{"args": ["b1", 0, 1], "state": [3, "|", null, null, null, -1, -1, 0]}, "AA==\n"]}, "inbound_nodes": [[["batch_normalization_202", 0, 0, {}]]], "name": "activation_202"}, {"class_name": "Conv2D", "config": {"activation": "linear", "activity_regularizer": null, "bias_constraint": null, "bias_initializer": {"class_name": "Zeros", "config": {}}, "bias_regularizer": null, "data_format": "channels_last", "dilation_rate": [1, 1], "filters": 192, "kernel_constraint": null, "kernel_initializer": {"class_name": "VarianceScaling", "config": {"distribution": "uniform", "mode": "fan_avg", "scale": 1.0, "seed": null}}, "kernel_regularizer": null, "kernel_size": [1, 1], "name": "conv2d_202", "padding": "same", "strides": [1, 1], "trainable": [{"args": ["b1", 0, 1], "state": [3, "|", null, null, null, -1, -1, 0]}, "AQ==\n"], "use_bias": false}, "inbound_nodes": [[["block8_9_ac", 0, 0, {}]]], "name": "conv2d_202"}, {"class_name": "Conv2D", "config": {"activation": "linear", "activity_regularizer": null, "bias_constraint": null, "bias_initializer": {"class_name": "Zeros", "config": {}}, "bias_regularizer": null, "data_format": "channels_last", "dilation_rate": [1, 1], "filters": 256, "kernel_constraint": null, "kernel_initializer": {"class_name": "VarianceScaling", "config": {"distribution": "uniform", "mode": "fan_avg", "scale": 1.0, "seed": null}}, "kernel_regularizer": null, "kernel_size": [3, 1], "name": "conv2d_205", "padding": "same", "strides": [1, 1], "trainable": [{"args": ["b1", 0, 1], "state": [3, "|", null, null, null, -1, -1, 0]}, "AQ==\n"], "use_bias": false}, "inbound_nodes": [[["activation_202", 0, 0, {}]]], "name": "conv2d_205"}, {"class_name": "BatchNormalization", "config": {"axis": 3, "beta_constraint": null, "beta_initializer": {"class_name": "Zeros", "config": {}}, "beta_regularizer": null, "center": true, "epsilon": 0.001, "gamma_constraint": null, "gamma_initializer": {"class_name": "Ones", "config": {}}, "gamma_regularizer": null, "momentum": 0.99, "moving_mean_initializer": {"class_name": "Zeros", "config": {}}, "moving_variance_initializer": {"class_name": "Ones", "config": {}}, "name": "batch_normalization_200", "scale": false, "trainable": [{"args": ["b1", 0, 1], "state": [3, "|", null, null, null, -1, -1, 0]}, "AQ==\n"]}, "inbound_nodes": [[["conv2d_202", 0, 0, {}]]], "name": "batch_normalization_200"}, {"class_name": "BatchNormalization", "config": {"axis": 3, "beta_constraint": null, "beta_initializer": {"class_name": "Zeros", "config": {}}, "beta_regularizer": null, "center": true, "epsilon": 0.001, "gamma_constraint": null, "gamma_initializer": {"class_name": "Ones", "config": {}}, "gamma_regularizer": null, "momentum": 0.99, "moving_mean_initializer": {"class_name": "Zeros", "config": {}}, "moving_variance_initializer": {"class_name": "Ones", "config": {}}, "name": "batch_normalization_203", "scale": false, "trainable": [{"args": ["b1", 0, 1], "state": [3, "|", null, null, null, -1, -1, 0]}, "AQ==\n"]}, "inbound_nodes": [[["conv2d_205", 0, 0, {}]]], "name": "batch_normalization_203"}, {"class_name": "Activation", "config": {"activation": "relu", "name": "activation_200", "trainable": [{"args": ["b1", 0, 1], "state": [3, "|", null, null, null, -1, -1, 0]}, "AA==\n"]}, "inbound_nodes": [[["batch_normalization_200", 0, 0, {}]]], "name": "activation_200"}, {"class_name": "Activation", "config": {"activation": "relu", "name": "activation_203", "trainable": [{"args": ["b1", 0, 1], "state": [3, "|", null, null, null, -1, -1, 0]}, "AA==\n"]}, "inbound_nodes": [[["batch_normalization_203", 0, 0, {}]]], "name": "activation_203"}, {"class_name": "Concatenate", "config": {"axis": 3, "name": "block8_10_mixed", "trainable": [{"args": ["b1", 0, 1], "state": [3, "|", null, null, null, -1, -1, 0]}, "AA==\n"]}, "inbound_nodes": [[["activation_200", 0, 0, {}], ["activation_203", 0, 0, {}]]], "name": "block8_10_mixed"}, {"class_name": "Conv2D", "config": {"activation": "linear", "activity_regularizer": null, "bias_constraint": null, "bias_initializer": {"class_name": "Zeros", "config": {}}, "bias_regularizer": null, "data_format": "channels_last", "dilation_rate": [1, 1], "filters": 2080, "kernel_constraint": null, "kernel_initializer": {"class_name": "VarianceScaling", "config": {"distribution": "uniform", "mode": "fan_avg", "scale": 1.0, "seed": null}}, "kernel_regularizer": null, "kernel_size": [1, 1], "name": "block8_10_conv", "padding": "same", "strides": [1, 1], "trainable": [{"args": ["b1", 0, 1], "state": [3, "|", null, null, null, -1, -1, 0]}, "AQ==\n"], "use_bias": true}, "inbound_nodes": [[["block8_10_mixed", 0, 0, {}]]], "name": "block8_10_conv"}, {"class_name": "Lambda", "config": {"arguments": {"scale": 1.0}, "function": ["4wIAAAAAAAAAAgAAAAMAAABTAAAAcxQAAAB8AGQBGQB8AGQCGQB8ARQAFwBTACkDTukAAAAA6QEA\nAACpACkC2gZpbnB1dHPaBXNjYWxlcgMAAAByAwAAAPpyL29wdC9wYWNrYWdlcy9BSS9hbmFjb25k\nYTMtNS4xLjBfZ3B1LjIwMTgtMDgvbGliL3B5dGhvbjMuNi9zaXRlLXBhY2thZ2VzL2tlcmFzX2Fw\ncGxpY2F0aW9ucy9pbmNlcHRpb25fcmVzbmV0X3YyLnB52gg8bGFtYmRhPqoAAADzAAAAAA==\n", null, null], "function_type": "lambda", "name": "block8_10", "output_shape": [null, null, 2080], "output_shape_type": "raw", "trainable": [{"args": ["b1", 0, 1], "state": [3, "|", null, null, null, -1, -1, 0]}, "AA==\n"]}, "inbound_nodes": [[["block8_9_ac", 0, 0, {}], ["block8_10_conv", 0, 0, {}]]], "name": "block8_10"}, {"class_name": "Conv2D", "config": {"activation": "linear", "activity_regularizer": null, "bias_constraint": null, "bias_initializer": {"class_name": "Zeros", "config": {}}, "bias_regularizer": null, "data_format": "channels_last", "dilation_rate": [1, 1], "filters": 1536, "kernel_constraint": null, "kernel_initializer": {"class_name": "VarianceScaling", "config": {"distribution": "uniform", "mode": "fan_avg", "scale": 1.0, "seed": null}}, "kernel_regularizer": null, "kernel_size": [1, 1], "name": "conv_7b", "padding": "same", "strides": [1, 1], "trainable": [{"args": ["b1", 0, 1], "state": [3, "|", null, null, null, -1, -1, 0]}, "AQ==\n"], "use_bias": false}, "inbound_nodes": [[["block8_10", 0, 0, {}]]], "name": "conv_7b"}, {"class_name": "BatchNormalization", "config": {"axis": 3, "beta_constraint": null, "beta_initializer": {"class_name": "Zeros", "config": {}}, "beta_regularizer": null, "center": true, "epsilon": 0.001, "gamma_constraint": null, "gamma_initializer": {"class_name": "Ones", "config": {}}, "gamma_regularizer": null, "momentum": 0.99, "moving_mean_initializer": {"class_name": "Zeros", "config": {}}, "moving_variance_initializer": {"class_name": "Ones", "config": {}}, "name": "conv_7b_bn", "scale": false, "trainable": [{"args": ["b1", 0, 1], "state": [3, "|", null, null, null, -1, -1, 0]}, "AQ==\n"]}, "inbound_nodes": [[["conv_7b", 0, 0, {}]]], "name": "conv_7b_bn"}, {"class_name": "Activation", "config": {"activation": "relu", "name": "conv_7b_ac", "trainable": [{"args": ["b1", 0, 1], "state": [3, "|", null, null, null, -1, -1, 0]}, "AA==\n"]}, "inbound_nodes": [[["conv_7b_bn", 0, 0, {}]]], "name": "conv_7b_ac"}, {"class_name": "GlobalMaxPooling2D", "config": {"data_format": "channels_last", "name": "global_max_pooling2d_1", "trainable": [{"args": ["b1", 0, 1], "state": [3, "|", null, null, null, -1, -1, 0]}, "AA==\n"]}, "inbound_nodes": [[["conv_7b_ac", 0, 0, {}]]], "name": "global_max_pooling2d_1"}], "name": "inception_resnet_v2__1", "output_layers": [["global_max_pooling2d_1", 0, 0]]}, "inbound_nodes": [[["conv2d_2__1", 0, 0, {}]]], "name": "inception_resnet_v2__1"}, {"class_name": "BatchNormalization", "config": {"axis": -1, "beta_constraint": null, "beta_initializer": {"class_name": "Zeros", "config": {}}, "beta_regularizer": null, "center": true, "epsilon": 0.001, "gamma_constraint": null, "gamma_initializer": {"class_name": "Ones", "config": {}}, "gamma_regularizer": null, "momentum": 0.99, "moving_mean_initializer": {"class_name": "Zeros", "config": {}}, "moving_variance_initializer": {"class_name": "Ones", "config": {}}, "name": "batch_normalization_204", "scale": true, "trainable": true}, "inbound_nodes": [[["densenet201__0", 1, 0, {}]]], "name": "batch_normalization_204"}, {"class_name": "BatchNormalization", "config": {"axis": -1, "beta_constraint": null, "beta_initializer": {"class_name": "Zeros", "config": {}}, "beta_regularizer": null, "center": true, "epsilon": 0.001, "gamma_constraint": null, "gamma_initializer": {"class_name": "Ones", "config": {}}, "gamma_regularizer": null, "momentum": 0.99, "moving_mean_initializer": {"class_name": "Zeros", "config": {}}, "moving_variance_initializer": {"class_name": "Ones", "config": {}}, "name": "batch_normalization_205", "scale": true, "trainable": true}, "inbound_nodes": [[["inception_resnet_v2__1", 1, 0, {}]]], "name": "batch_normalization_205"}, {"class_name": "Dropout", "config": {"name": "dropout_1", "noise_shape": null, "rate": 0.3, "seed": null, "trainable": true}, "inbound_nodes": [[["batch_normalization_204", 0, 0, {}]]], "name": "dropout_1"}, {"class_name": "Dropout", "config": {"name": "dropout_2", "noise_shape": null, "rate": 0.3, "seed": null, "trainable": true}, "inbound_nodes": [[["batch_normalization_205", 0, 0, {}]]], "name": "dropout_2"}, {"class_name": "Dense", "config": {"activation": "linear", "activity_regularizer": null, "bias_constraint": null, "bias_initializer": {"class_name": "Zeros", "config": {}}, "bias_regularizer": null, "kernel_constraint": null, "kernel_initializer": {"class_name": "VarianceScaling", "config": {"distribution": "uniform", "mode": "fan_avg", "scale": 1.0, "seed": null}}, "kernel_regularizer": null, "name": "dense_1", "trainable": true, "units": 160, "use_bias": true}, "inbound_nodes": [[["dropout_1", 0, 0, {}]]], "name": "dense_1"}, {"class_name": "Dense", "config": {"activation": "linear", "activity_regularizer": null, "bias_constraint": null, "bias_initializer": {"class_name": "Zeros", "config": {}}, "bias_regularizer": null, "kernel_constraint": null, "kernel_initializer": {"class_name": "VarianceScaling", "config": {"distribution": "uniform", "mode": "fan_avg", "scale": 1.0, "seed": null}}, "kernel_regularizer": null, "name": "dense_2", "trainable": true, "units": 160, "use_bias": true}, "inbound_nodes": [[["dropout_2", 0, 0, {}]]], "name": "dense_2"}, {"class_name": "Multiply", "config": {"name": "multiply_1", "trainable": true}, "inbound_nodes": [[["dense_1", 0, 0, {}], ["dense_2", 0, 0, {}]]], "name": "multiply_1"}, {"class_name": "BatchNormalization", "config": {"axis": -1, "beta_constraint": null, "beta_initializer": {"class_name": "Zeros", "config": {}}, "beta_regularizer": null, "center": true, "epsilon": 0.001, "gamma_constraint": null, "gamma_initializer": {"class_name": "Ones", "config": {}}, "gamma_regularizer": null, "momentum": 0.99, "moving_mean_initializer": {"class_name": "Zeros", "config": {}}, "moving_variance_initializer": {"class_name": "Ones", "config": {}}, "name": "batch_normalization_206", "scale": true, "trainable": true}, "inbound_nodes": [[["multiply_1", 0, 0, {}]]], "name": "batch_normalization_206"}, {"class_name": "Activation", "config": {"activation": "relu", "name": "activation_204", "trainable": true}, "inbound_nodes": [[["batch_normalization_206", 0, 0, {}]]], "name": "activation_204"}, {"class_name": "Dense", "config": {"activation": "softmax", "activity_regularizer": null, "bias_constraint": null, "bias_initializer": {"class_name": "Zeros", "config": {}}, "bias_regularizer": null, "kernel_constraint": null, "kernel_initializer": {"class_name": "VarianceScaling", "config": {"distribution": "uniform", "mode": "fan_avg", "scale": 1.0, "seed": null}}, "kernel_regularizer": null, "name": "dense_3", "trainable": true, "units": 2, "use_bias": true}, "inbound_nodes": [[["activation_204", 0, 0, {}]]], "name": "dense_3"}], "name": "model_3", "output_layers": [["dense_3", 0, 0]]}, "keras_version": "2.2.2"}